data_files/out_gen/discriminator_epoch1.pt (torch, 137429 bytes, 9 tensors)

conv1.bias f4 [64]
-0.00020351047 0.00017637604 0.00020441202 0.00019722036 0.0 -0.00019793343 0.0 2.456165e-05
0.00020397677 -0.00020081125 0.0 -0.0001586981 0.0 0.00020398319 0.0 0.00013598276
-7.803758e-05 -0.0001625038 -0.00019532123 -0.00019962848 0.00013316417 0.0 -0.00019603095 0.0
0.0 0.00020355037 0.00010260948 0.0 0.0 0.0 -0.00019883437 9.592425e-05
7.2436254e-05 0.00017458446 -0.00019584649 -0.00020523093 0.0 -0.00019913004 -0.00015626036 0.0
0.00020471496 0.0 0.0 0.00020201005 0.0 0.0 0.0 0.0
0.0 0.0 -0.00018978245 0.0 0.0 -0.00020097203 -0.00019943914 0.00017441924
1.7390072e-05 0.0 -0.00018034312 -0.00014061465 -0.00020432478 -0.00016436582 0.0 0.00019869236
00000000: 6d65 55b9 95f1 3839 6f57 5639 f0cc 4e39
00000010: 0000 0000 5a8c 4fb9 0000 0000 be09 ce37
00000020: 99e2 5539 dc90 52b9 0000 0000 3268 26b9
00000030: 0000 0000 52e4 5539 0000 0000 9896 0e39
00000040: 1ba8 a3b8 c865 2ab9 25cf 4cb9 5d53 51b9
00000050: fca1 0b39 0000 0000 a88d 4db9 0000 0000
00000060: 0000 0000 2370 5539 0c30 d738 0000 0000
00000070: 0000 0000 0000 0000 327e 50b9 f12a c938
00000080: ebe8 9738 a910 3739 245c 4db9 4233 57b9
00000090: 0000 0000 90cd 50b9 d2d9 23b9 0000 0000
000000a0: c1a8 5639 0000 0000 0000 0000 a9d2 5339
000000b0: 0000 0000 0000 0000 0000 0000 0000 0000
000000c0: 0000 0000 0000 0000 5700 47b9 0000 0000
000000d0: 0000 0000 05bc 52b9 8920 51b9 4fe4 3639
000000e0: e5e0 9137 0000 0000 7d1a 3db9 f571 13b9
000000f0: 0440 56b9 9d59 2cb9 0000 0000 1358 5039

conv1.lin.weight f4 [64, 2]
0.19569688 -0.21343024 0.03843224 0.19307014 0.004963934 0.1819822 0.06409137 -0.09951493
-0.24729244 0.1062923 0.17699432 0.1101533 -0.041076902 -0.051304147 0.18882017 -0.23249593
0.07892221 0.18418053 -0.030796103 0.08276218 -0.12414897 -0.28662956 0.28347185 0.0051960708
-0.29410312 -0.0009754558 0.0152204335 -0.25307286 -0.22951218 0.1427194 0.15903631 -0.29522082
0.14264658 -0.058215965 0.012935012 -0.26090288 0.2663428 -0.29197505 -0.19960791 0.19545586
0.13807811 -0.21020447 -0.05993606 -0.064691134 0.24725592 0.048647165 -0.15949833 -0.27266207
-0.00952075 -0.015162715 0.19223557 -0.059564106 0.06109143 0.22721681 -0.13463698 -0.24438664
-0.12275309 0.07550914 -0.18966554 -0.09546933 0.22297618 0.00038911548 0.0686432 0.083014
0.29392275 -0.27000457 0.12974843 -0.04701013 -0.15357244 0.28928345 -0.13526641 0.27624452
-0.27200282 0.09231951 -0.15117885 0.12544611 0.25099242 0.028548565 -0.1816278 0.102586076
0.1607798 -0.1162776 -0.28055623 0.15801461 -0.27916393 0.14593476 0.09202723 -0.15122919
-0.051011316 -0.2576399 -0.111935556 0.027904492 -0.20137112 0.001837907 -0.1376861 0.04040649
-0.27440515 0.016168363 -0.28753975 -0.12278447 0.08977789 0.09692028 -0.02684324 -0.106853224
-0.12378649 -0.017784717 0.11166916 -0.02650425 0.06635588 0.17378095 0.27534512 0.111252174
0.09862866 -0.22832015 -0.28576627 0.14805165 -0.051502142 0.22268586 -0.052657373 0.098060906
0.28380764 -0.15424603 0.19338249 0.15545063 -0.22800739 -0.12005795 0.27470976 0.09527682
00000000: c364 483e 758d 5abe 206b 1d3d 2eb4 453e
00000010: 7fa8 a23b 8b59 3a3e 5642 833d 7cce cbbd
00000020: 3b3a 7dbe c7af d93d 003e 353e 0e98 e13d
00000030: 4140 28bd 4c24 52bd 135a 413e 6a13 6ebe
00000040: f8a1 a13d d299 3c3e 1c48 fcbc 387f a93d
00000050: d141 febd 1cc1 92be 3923 913e cd43 aa3b
00000060: af94 96be bbb5 7fba 205f 793c c492 81be
00000070: 3e05 6bbe 0925 123e 6ada 223e 2f27 97be
00000080: f211 123e dd73 6ebd 5fed 533c 1095 85be
00000090: 155e 883e c17d 95be 0466 4cbe 9525 483e
000000a0: 5964 0d3e d73f 57be 847f 75bd c97c 84bd
000000b0: a830 7d3e 4042 473d 8853 23be 5d9a 8bbe
000000c0: ebfc 1bbc 096d 78bc 67d9 443e 7ef9 73bd
000000d0: 023b 7a3d 86ab 683e 47de 09be 7e40 7abe
000000e0: f965 fbbd 89a4 9a3d af37 42be 6d85 c3bd
000000f0: de53 643e 3202 cc39 ce94 8c3d 3e03 aa3d
00000100: 0b7d 963e 0a3e 8abe c6dc 043e b28d 40bd
00000110: 1842 1dbe f61c 943e 4783 0abe ec6f 8d3e
00000120: f443 8bbe 0312 bd3d a1ce 1abe f274 003e
00000130: 1482 803e aede e93c a3fc 39be a618 d23d
00000140: 76a3 243e f322 eebd 11a5 8fbe 95ce 213e
00000150: 93ee 8ebe ec6f 153e c678 bc3d d3db 1abe
00000160: 3ef1 50bd 61e9 83be 783e e5bd f697 e43c
00000170: 3b34 4ebe ede5 f03a 96fd 0cbe 4781 253d
00000180: d57e 8cbe 8473 843c 6938 93be 6d76 fbbd
00000190: 78dd b73d 247e c63d 5be6 dbbc ddd5 dabd
000001a0: c583 fdbd 41b1 91bc cdb2 e43d 711f d9bc
000001b0: 97e5 873d a2f3 313e 09fa 8c3e 2ed8 e33d
000001c0: d3fd c93d c2cc 69be f54f 92be da9a 173e
000001d0: e9f3 52bd c307 643e 42af 57bd 28d4 c83d
000001e0: 3c4f 913e acf2 1dbe 0f06 463e 732e 1f3e
000001f0: c57a 69be f1e0 f5bd c2a6 8c3e 7e20 c33d

conv2.bias f4 [64]
-0.00015794994 0.0 -0.00017234628 -0.00020444005 4.4021835e-05 0.00011960327 9.4251904e-05 0.0
0.00020516472 0.0002009161 0.00020510904 -9.425373e-05 -0.00020287988 -0.00019328963 -0.00018379306 0.0
0.0 0.0 0.0 0.00015066845 3.0587344e-05 0.0 0.00017206214 0.0
-1.8350343e-05 0.0001935134 0.00015515076 9.425457e-05 -0.00020379017 0.0 0.0 1.6956803e-05
0.0 -0.00020312537 9.425408e-05 0.00013042678 -0.0001982645 -0.00017499355 0.0 0.00018176976
-0.00018188081 0.0 0.0 0.00019549622 0.0 0.0 -0.00020488478 -9.4249976e-05
-0.00020472608 -6.937171e-05 -0.00016161846 -2.2826815e-05 0.0 -0.00019335083 9.4249066e-05 -0.00020519212
-0.00016097793 -0.00018018237 0.00017826998 0.0 -0.00015407658 -0.00018547985 -9.425502e-05 0.00010852732
00000000: 5d9f 25b9 0000 0000 dab7 34b9 f55e 56b9
00000010: 16a4 3838 84d3 fa38 1ba9 c538 0000 0000
00000020: 7c21 5739 01ad 5239 8a12 5739 16aa c5b8
00000030: 27bc 54b9 caad 4ab9 93b8 40b9 0000 0000
00000040: 0000 0000 0000 0000 0000 0000 c1fc 1d39
00000050: e94a 0038 0000 0000 946b 3439 0000 0000
00000060: 10ef 99b7 dce9 4a39 f7af 2239 89aa c538
00000070: 82b0 55b9 0000 0000 0000 0000 753e 8e37
00000080: 0000 0000 0dfe 54b9 46aa c538 2cc3 0839
00000090: 39e5 4fb9 797e 37b9 0000 0000 7399 3e39
000000a0: 42b7 3eb9 0000 0000 0000 0000 1efe 4c39
000000b0: 0000 0000 0000 0000 57d6 56b9 12a8 c5b8
000000c0: bdab 56b9 a77b 91b8 2078 29b9 367c bfb7
000000d0: 0000 0000 38be 4ab9 95a7 c538 d728 57b9
000000e0: 2fcc 28b9 56ef 3cb9 fced 3a39 0000 0000
000000f0: 9e8f 21b9 5e7d 42b9 c7aa c5b8 2999 e338

conv2.lin.weight f4 [64, 64]
-0.18865389 -0.21110934 -0.12020665 -0.11471665 -0.18103376 0.16213281 0.06945504 0.09197917
-0.0010628746 -0.18389726 -0.13504903 0.13139586 0.010795342 0.18925619 -0.060415912 -0.20308845
0.0025233661 0.1253824 0.093937084 0.14383732 0.095839724 -0.0259724 0.01245931 -0.16175762
0.03128925 -0.099244066 0.04048155 -0.00068457297 -0.04428953 0.17856714 0.035084076 0.08484826
0.16652879 -0.20952125 -0.082869284 -0.033259727 0.048846982 -0.16459258 0.19241282 -0.046803303
-0.14194228 0.0607741 -0.17824914 0.029437315 0.08714823 0.091684744 -0.0016926173 0.11747836
-0.08526539 0.12865184 0.03312937 0.14171016 -0.11070601 0.18602706 0.15618998 -0.024420982
0.1037284 -0.1506738 0.16701253 0.11682076 -0.1370957 0.11181881 -0.062216107 0.20051791
0.009438585 0.08859766 -0.06439144 -0.030036634 0.09558736 0.018701922 0.17411655 -0.20249811
0.021229634 0.10060311 -0.08936963 0.08854876 -0.035634704 0.11977173 0.14603451 0.20577624
0.07317018 0.16258751 0.1436885 -0.10577966 -0.15534075 0.19668227 -0.07999438 0.07852259
0.121716164 -0.15236859 0.12755413 -0.08022274 -0.17799315 0.12266733 -0.065399535 -0.002254982
0.101318635 -0.18004365 -0.0981104 0.21421446 -0.19970597 -0.045431215 0.18903852 -0.006953304
-0.2024366 0.19129251 -0.16675048 0.10675596 0.17327927 0.18980934 -0.17874037 0.04986953
0.16227564 0.006493016 0.13751699 0.10722985 0.19938727 0.04687358 -0.062376022 -0.16688175
0.021974085 0.028535755 0.034165647 0.053564608 0.10244966 -0.09336784 0.11021047 -0.16409194
0.050440174 -0.17593014 0.11199228 0.07143649 -0.1303451 -0.20271057 -0.15868269 0.051672257
0.050525486 -0.14787938 0.030094989 0.09403367 -0.020235501 -0.2130779 -0.040608775 -0.18446043
0.12884413 0.17076534 -0.06676339 0.12307807 -0.19578439 -0.13218716 -0.118874684 -0.034471646
-0.10409858 -0.056346517 -0.11355002 0.19145122 -0.09136561 -0.103874065 0.15357332 0.003962604
0.13477433 -0.19927177 -0.07744195 -0.029127063 0.07097267 -0.17057025 0.030006079 0.04500004
-0.11611837 0.009954054 -0.01728552 0.16297421 -0.1964767 0.08424628 -0.035337016 -0.0035557842
-0.13970526 -0.06388252 0.09593237 0.1806328 -0.06931593 0.012509207 -0.07997914 0.096490316
-0.033170708 -0.075956784 -0.1198264 0.09028381 0.081117734 0.1636454 -0.097772576 0.05989737
-0.09944097 0.15399791 -0.0839379 -0.05357815 -0.17179431 0.01848859 -0.19875158 0.13475178
0.006738731 0.1263672 0.041834652 -0.11488295 0.014225692 0.092615135 -0.21138896 -0.03692779
-0.11620032 0.08478739 0.12035812 0.1430549 -0.16019244 -0.19027929 0.006576709 0.16675445
0.014883913 0.18650107 -0.094022684 -0.13670515 0.08119538 -0.027114473 -0.09497662 0.09673971
-0.16757028 -0.13746046 0.0598214 -0.040272772 0.055903755 0.21090536 0.21359487 0.21481006
-0.12975025 0.09479142 -0.018284969 0.10255802 0.07488636 -0.05847697 0.11050986 -0.078044675
0.024820907 -0.13393271 -0.026942777 0.15938988 -0.17886443 -0.19287896 0.15847635 0.053764716
-0.11452 0.020623857 0.1426995 0.17599672 0.12520896 0.063406214 -0.033088718 -0.2006021
00000000: 7c2e 41be 0c2d 58be e72e f6bd 90f0 eabd
00000010: ea60 39be 2506 263e 723e 8e3d 935f bc3d
00000020: 2750 8bba 904f 3cbe 4b4a 0abe a38c 063e
00000030: f2de 303c 60cc 413e ad76 77bd 6bf6 4fbe
00000040: 0f5f 253b 3e64 003e 1662 c03d 174a 133e
00000050: 9e47 c43d 12c4 d4bc 2222 4c3c caa3 25be
00000060: 2829 003d 7940 cbbd fbcf 253d ea74 33ba
00000070: f068 35bd 4eda 363e 52b4 0f3d edc4 ad3d
00000080: 8686 2a3e bd8c 56be 5fb7 a9bd 5a3b 08bd
00000090: c613 483d f58a 28be de07 453e d2b4 3fbd
000000a0: 5159 11be 43ee 783d f186 36be 8626 f13c
000000b0: c57a b23d 36c5 bb3d d0da ddba 7f98 f03d
000000c0: 9f9f aebd 4fbd 033e aab2 073d 781c 113e
000000d0: d5b9 e2bd e17d 3e3e 44f0 1f3e 830e c8bc
000000e0: 8e6f d43d 3c4a 1abe 5505 2b3e b93f ef3d
000000f0: d162 0cbe 4301 e53d 51d6 7ebd 9154 4d3e
00000100: 4ba4 1a3c b172 b53d a9df 83bd 630f f6bc
00000110: 4ec3 c33d c634 993c 9c4b 323e aa5b 4fbe
00000120: c5e9 ad3c 0109 ce3d 6d07 b7bd 0d59 b53d
00000130: b2f5 11bd e14a f53d 128a 153e 02b7 523e
00000140: 3fda 953d 577d 263e 1423 133e 02a3 d8bd
00000150: a511 1fbe 1467 493e 18d4 a3bd 74d0 a03d
00000160: 5346 f93d 8306 1cbe 8d9d 023e d24b a4bd
00000170: d643 36be 0239 fb3d 31f0 85bd 52c8 13bb
00000180: 2580 cf3d 5d5d 38be 1bee c8bd 095b 5b3e
00000190: b97f 4cbe 1516 3abd 5093 413e 8bd8 e3bb
000001a0: 8a4b 4fbe 2fe2 433e a3c0 2abe dea2 da3d
000001b0: 1f70 313e 615d 423e b707 37be fe43 4c3d
000001c0: 962b 263e 5ec3 d43b 41d1 0c3e 539b db3d
000001d0: 2d2c 4c3e 83fe 3f3d 007e 7fbd 0de3 2abe
000001e0: ff02 b43c d1c3 e93c 47f1 0b3d 9066 5b3d
000001f0: 21d1 d13d a337 bfbd 07b6 e13d b807 28be
00000200: 5b9a 4e3d 0827 34be 355c e53d 4b4d 923d
00000210: 3079 05be 5c93 4fbe b77d 22be 4aa6 533d
00000220: d0f3 4e3d b16d 17be c489 f63c ba94 c03d
00000230: ecc4 a5bc 1831 5abe 6355 26bd 32e3 3cbe
00000240: b7ef 033e 1cdd 2e3e 3fbb 88bd 5b10 fc3d
00000250: b47b 48be 125c 07be 9274 f3bd 2432 0dbd
00000260: a331 d5bd 9bcb 66bd ea8c e8bd ca0b 443e
00000270: e51d bbbd edbb d4bd 5342 1d3e bbd8 813b
00000280: 4802 0a3e e60d 4cbe e399 9ebd e19b eebc
00000290: 1f5a 913d f8a9 2ebe 4fcf f53c f651 383d
000002a0: 78cf edbd 5416 233c 5d9a 8dbc b6e2 263e
000002b0: 3031 49be 5089 ac3d 8cbd 10bd 2908 69bb
000002c0: e50e 0fbe d7d4 82bd 3178 c43d cef7 383e
000002d0: 83f5 8dbd 6bf3 4c3c 1acc a3bd b79c c53d
000002e0: 02de 07bd 3b8f 9bbd 8b67 f5bd b8e6 b83d
000002f0: 0e21 a63d a992 273e fd3c c8bd f256 753d
00000300: b5a7 cbbd a1b1 1d3e a2e7 abbd c374 5bbd
00000310: d9ea 2fbe 6275 973c 8985 4bbe 5ffc 093e
00000320: 93d0 dc3b 6766 013e d05a 2b3d c147 ebbd
00000330: e012 693c 01ad bd3d 5976 58be 9841 17bd
00000340: 6ffa edbd 03a5 ad3d 517e f63d fc7c 123e
00000350: 7d09 24be 93d8 42be 6f81 d73b aec1 2a3e
00000360: a8db 733c 23fa 3e3e f78e c0bd 6ffc 0bbe
00000370: c349 a63d 2c1f debc 1a83 c2bd 781f c63d
00000380: 8b97 2bbe 6fc2 0cbe 4907 753d 10f5 24bd
00000390: 56fb 643d 93f7 573e 9db8 5a3e 2bf7 5b3e
000003a0: 40dd 04be 0122 c23d 5cca 95bc f009 d23d
000003b0: 055e 993d 8c85 6fbd fe52 e23d e3d5 9fbd
000003c0: 3755 cb3c a825 09be 19b7 dcbc 1a37 233e
000003d0: 3d28 37be 1082 45be a047 223e 6438 5c3d
000003e0: 7689 eabd 5df3 a83c d11f 123e 7c38 343e
000003f0: c736 003e 1edb 813d 0988 07bd a36a 4dbe

conv1d.weight f4 [64, 128, 3]
-0.037518963 0.035468157 0.039170727 0.04906228 -0.010933326 0.030666312 0.043806817 0.022887032
0.033681646 0.044550147 0.027612057 -0.046223864 0.016806208 -0.0401768 0.0424642 0.04901616
0.03362153 -0.00438186 -0.0016604691 0.03236749 -0.021964958 -0.042765237 0.048450317 0.027710333
0.045907766 0.018480754 0.0339853 -0.048855357 0.049826913 -0.023093624 0.0029025662 0.001141971
-0.014016604 0.043817695 -0.009466016 0.010442665 0.042483468 -0.04867888 -0.008354601 0.011991784
-0.0058518527 0.03739897 -0.007302652 0.010087627 0.030451203 0.008970239 -0.032288864 -0.02947181
-0.02377779 0.009437047 0.0015581346 0.02211787 0.02867232 0.02737068 0.0035689087 -0.012538734
0.018483443 0.048138447 -0.02146379 -0.047284536 0.03356932 -0.038481973 0.013390595 -0.026503794
0.048369087 0.0453571 -0.032637354 -0.04456542 0.001948967 0.0135906525 -0.016393099 -0.028670685
-0.015896684 -0.01574517 0.012830827 -0.01976414 -0.05049876 0.028009387 0.016285077 -0.029288337
-0.048431076 -0.000867045 0.0018778888 -0.009510674 -0.04726888 0.05005887 -0.007405072 0.018645875
-0.032510985 -0.006865884 -0.020876033 0.003109182 0.018012024 -0.027433436 -0.028396422 -0.018326394
0.017741308 0.0129367085 0.0033473035 0.0016656703 -0.044045158 -0.03625327 -0.04947603 0.01268232
-0.04657669 0.03758616 -0.03831809 0.043000754 -0.0027859844 0.046930578 0.045118023 0.03494383
-0.024879776 0.049081177 -0.0064025866 -0.013753827 -0.0049938476 0.015161525 -0.006001516 -0.017495394
0.03778914 0.039077986 -0.027757213 0.029208353 0.0005905861 -0.039340444 0.02106744 -0.0029066908
0.002622141 -0.046615493 0.0055343495 -0.00897794 -0.010261666 -0.01753805 0.039765608 -0.019083628
-0.008832736 0.010614119 -0.039780397 0.013391684 0.02859246 -0.015861819 0.0030771592 -0.015186157
0.046725936 -0.023317663 -0.045692414 -0.030251341 0.04453283 -0.029841729 -0.014695326 -0.02008418
0.0026030573 -0.03284789 0.0345898 0.036768783 -0.017772071 -0.022839796 0.033266034 -0.039914306
0.0508218 -0.011467409 -0.00690146 0.031848956 0.017410258 -0.01693444 0.025005208 0.0039871954
0.0009170625 0.048839338 -0.034917846 -0.0073742173 -0.026029302 0.036113564 0.006679502 0.026668288
-0.031194903 0.00022998195 0.050358523 -0.027676485 -0.03578861 0.037052862 0.0046782605 0.04573068
-0.028285425 -0.026517792 0.013258574 -0.0024616495 -0.032953832 -0.019709017 -0.04659821 0.009252392
-0.012260438 -0.042357802 0.04019131 0.040989984 0.011297707 0.029096004 -0.017427929 -0.029107131
-0.03252457 0.0392208 0.035490677 -0.01072806 0.0037698545 0.041663885 -0.016730415 0.012736754
-0.011336282 -0.0034516517 0.032232396 0.014546588 0.010528574 -0.03899509 -0.044103585 0.038324732
0.0068424935 -0.0050465297 -0.0042370153 0.05070066 -0.033847906 -0.00025994255 0.04291431 -0.04481261
0.03559566 0.03567099 0.037071392 0.03788014 -0.043697458 0.02791235 0.031986482 -0.021105109
0.01968559 0.04457754 0.028495356 0.0022784972 0.039341107 0.038459048 0.03915404 0.04057101
0.045791417 0.016792137 0.039470676 -0.04493199 -0.00066680467 0.01383459 0.032347463 -0.026236763
-0.004297934 0.0071471613 -0.013833106 -0.039862707 0.03437488 0.034487195 0.01762708 0.044298757
00000000: 7cad 19bd 0f47 113d 7c71 203d 88f5 483d
00000010: b121 33bc eb37 fb3c c76e 333d 967d bb3c
00000020: c4f5 093d 377a 363d ae32 e23c 3c55 3dbd
00000030: 2cad 893c 6e90 24bd f1ee 2d3d 2bc5 483d
00000040: bbb6 093d b595 8fbb 19a4 d9ba c693 043d
00000050: dbef b3bc 9a2a 2fbd d773 463d c800 e33c
00000060: c809 3c3d f364 973c 2c34 0b3d 8e1c 48bd
00000070: 4e17 4c3d d72e bdbc fb38 3e3b 30ae 953a
00000080: e6a5 65bc 2f7a 333d 5917 1bbc b617 2b3c
00000090: 2503 2e3d 8163 47bd bde1 08bc 3079 443c
000000a0: e6c0 bfbb aa2f 193d 164b efbb 9346 253c
000000b0: cd74 f93c e9f7 123c 5441 04bd de6e f1bc
000000c0: a4c9 c2bc d89d 1a3c 523a cc3a 8930 b53c
000000d0: 37e2 ea3c 7a38 e03c 5ae4 693b 436f 4dbc
000000e0: 976a 973c d22c 453d d5d4 afbc 6ead 41bd
000000f0: fc7f 093d 469f 1dbd 3a64 5b3c 7c1e d9bc
00000100: aa1e 463d 5ec8 393d bfae 05bd 3b8a 36bd
00000110: 7b74 ff3a 54ab 5e3c d24a 86bc c9de eabc
00000120: c339 82bc 04fc 80bc 6438 523c 68e8 a1bc
00000130: cad7 4ebd f173 e53c 4868 853c 18ee efbc
00000140: aa5f 46bd 684a 63ba 7e23 f63a a8d2 1bbc
00000150: 039d 41bd 880a 4d3d 3fa6 f2bb 3cbf 983c
00000160: 3d2a 05bd 36fb e0bb 3704 abbc 6bc3 4b3b
00000170: f48d 933c 16bc e0bc 9d9f e8bc 3c21 96bc
00000180: 3856 913c 7df4 533c 6f5e 5b3b 9f52 da3a
00000190: b268 34bd 4f7e 14bd 61a7 4abd 81c9 4f3c
000001a0: 33c7 3ebd f2f3 193d 6ef3 1cbd 8f21 303d
000001b0: 1095 36bb 473a 403d adcd 383d 4321 0f3d
000001c0: acd0 cbbc 5809 493d cacc d1bb bb57 61bc
000001d0: 6ea3 a3bb 0c68 783c 5da8 c4bb 8052 8fbc
000001e0: c9c8 1a3d 3d10 203d 1863 e3bc 5b46 ef3c
000001f0: 90d1 1a3a 7223 21bd a095 ac3c 2e7e 3ebb
00000200: 3ad8 2b3b e3ef 3ebd 7d59 b53b 3618 13bc
00000210: 8c20 28bc f5ab 8fbc 43e1 223d 4555 9cbc
00000220: 2eb7 10bc d7e6 2d3c c5f0 22bd cb68 5b3c
00000230: bc3a ea3c a5f0 81bc 2aaa 493b 5ccf 78bc
00000240: b263 3f3d af04 bfbc f827 3bbd a9d1 f7bc
00000250: 0f68 363d a476 f4bc aac4 70bc 9487 a4bc
00000260: 0e98 2a3b 828b 06bd 09ae 0d3d dd9a 163d
00000270: bc96 91bc 861a bbbc f741 083d 2f7d 23bd
00000280: 852a 503d cde1 3bbc a425 e2bb 0d74 023d
00000290: f59f 8e3c 18ba 8abc b9d7 cc3c 05a7 823b
000002a0: 0667 703a c20b 483d 0406 0fbd 6ba3 f1bb
000002b0: 673b d5bc d1eb 133d b9df da3b 7477 da3c
000002c0: 748c ffbc 4f27 7139 bd44 4e3d ccb9 e2bc
000002d0: 1497 12bd bec4 173d 184c 993b 1850 3b3d
000002e0: d6b6 e7bc d73b d9bc 7d3a 593c a053 21bb
000002f0: 99fa 06bd ce74 a1bc c4dd 3ebd 5897 173c
00000300: 01e0 48bc 607f 2dbd a59f 243d 1de5 273d
00000310: 051a 393c be5a ee3c 04c5 8ebc 1472 eebc
00000320: 7c38 05bd fda5 203d ac5e 113d bfc4 2fbc
00000330: aa0f 773b c0a7 2a3d 390e 89bc d1ad 503c
00000340: d0bb 39bc 1b35 62bb 1e06 043d d054 6e3c
00000350: 0a80 2c3c 51b9 1fbd f6a5 34bd 65fa 1c3d
00000360: ff36 e03b 5c5d a5bb a9d6 8abb 7fab 4f3d
00000370: 1aa4 0abd e648 88b9 eac6 2f3d 6d8d 37bd
00000380: c1cc 113d be1b 123d 2cd8 173d 3528 1b3d
00000390: 1bfc 32bd 71a8 e43c 4204 033d 9fe4 acbc
000003a0: ad43 a13c f096 363d 186f e93c d752 153b
000003b0: 2424 213d 3c87 1d3d fd5f 203d ca2d 263d
000003c0: c88f 3b3d aa8f 893c 01ac 213d 9b0a 38bd
000003d0: 81cc 2eba 7aaa 623c c67e 043d 7bee d6bc
000003e0: afd5 8cbb bc32 ea3b 40a4 62bc 1447 23bd
000003f0: adcc 0c3d 7242 0d3d ab66 903c 9d72 353d

conv1d.bias f4 [64]
-0.022641094 -0.030951086 0.0051031495 0.033896126 0.050148852 0.009772406 -0.033771507 0.04679435
-0.010256806 0.050712477 -0.0119112525 0.004832217 -0.027980015 -0.045033727 0.04726497 -0.018477293
0.013414058 0.008098663 0.016597895 0.0110399 -0.0046738386 -0.015261226 0.049791884 0.046640217
-0.009132404 -0.033258963 0.014918341 0.020526888 0.0012496535 -0.029839087 -0.017201846 0.027685015
-0.04217631 -0.019253444 -0.03984933 -0.011596608 0.010127149 0.044570386 -0.0005962426 0.028121442
-0.008937195 0.049273025 0.005957366 -0.03787672 0.032610998 0.038574953 -0.025994092 -0.012441583
0.03514778 -0.0050599617 -0.0032728743 0.0466864 -0.0072272564 0.029205337 -0.032026492 -0.020885704
0.017075427 -0.026308691 0.026743773 0.004581904 0.0024829372 0.003241897 -0.02467967 0.045391705
00000000: d179 b9bc 228d fdbc 5238 a73b aad6 0a3d
00000010: e268 4d3d 711c 203c fe53 0abd 6fab 3f3d
00000020: 2a0c 28bc e3b7 4f3d 6a27 43bc 9357 9e3b
00000030: 5836 e5bc 4975 38bd ea98 413d b15d 97bc
00000040: a3c6 5b3c 41b0 043c 4ff8 873c b2e0 343c
00000050: 0027 99bb 390a 7abc 93f2 4b3d d009 3f3d
00000060: 14a0 15bc 8d3a 08bd 0f6c 743c 0128 a83c
00000070: 6acb a33a 1a71 f4bc e3ea 8cbc afcb e23c
00000080: 11c1 2cbd 66b9 9dbc 0d39 23bd b3ff 3dbc
00000090: 57ec 253c 708f 363d 2a4d 1cba f05e e63c
000000a0: 506d 12bc 83d2 493d 0236 c33b 9f24 1bbd
000000b0: 1c93 053d c500 1e3d 90f1 d4bc c8d7 4bbc
000000c0: 1ef7 0f3d 09ce a5bb b87d 56bb 3d3a 3f3d
000000d0: 9fd2 ecbb 0840 ef3c 362e 03bd 7f18 abbc
000000e0: c4e1 8b3c 5385 d7bc c215 db3c cc23 963b
000000f0: c6b8 223b 0276 543b 052d cabc a7ec 393d

fc.0.weight f4 [64, 64]
-0.066282645 -0.075299054 -0.102748744 0.0894272 -0.12196894 0.08400651 -0.1176935 0.08906306
0.04043759 -0.06387435 0.09353325 0.018754141 0.024639208 0.11334806 0.056731533 0.10232362
-0.05890804 0.017725024 -0.05068305 0.12499659 -0.12443873 0.036027946 0.021808585 -0.05678194
-0.04140099 0.018821584 -0.10141421 0.07722666 -0.049111035 0.013068469 0.054953426 0.087059386
0.08693734 0.09097525 0.024588853 -0.054293737 -0.121841826 -0.008467468 0.070394956 0.1108502
0.10699808 -0.026811115 -0.04271692 0.017563641 -0.02959908 0.08462488 -0.04232014 -0.07336877
0.014780496 0.058352426 0.12405921 -0.08632039 0.116553664 -0.09681782 0.033380404 0.0745311
-0.01413539 -0.0927044 -0.06688445 -0.07750799 -0.06447576 -0.010790459 0.019779287 -0.09847235
0.11742285 0.10644126 0.11009237 0.014808565 -0.016891599 -0.057357714 0.025665596 0.014298573
-0.058293372 0.091987655 -0.02699253 -0.013242647 -0.045752645 0.08772716 0.10827187 0.073332205
-0.0998947 -0.06388666 0.013105854 0.026964217 0.08542134 -0.025755182 0.06344648 -0.0146431625
0.024652809 -0.035657585 -0.11980061 0.07106462 0.11640841 0.05331394 -0.08004521 -0.07319391
0.09817152 -0.08140141 0.048080757 0.092871994 -0.07108556 -0.08080442 0.07312596 -0.089943886
0.10901947 -0.04267171 0.12310323 0.12208295 -0.024536237 0.029646695 -0.004183471 0.008950189
-0.004691556 0.07166478 0.036765292 0.024573863 0.10591468 -0.009092957 0.012816057 -0.020334095
-0.09878464 0.08339855 -0.05984342 0.06718467 0.10124643 -0.11144452 0.10955092 -0.06250848
-0.012292489 -0.08552565 -0.03874931 -0.053477645 -0.032430813 0.12464715 -0.039760217 0.08834782
-0.07906867 -0.045520928 -0.116771124 0.100734994 0.08942764 -0.073992655 -0.084539026 -0.015610998
0.114554726 -0.044131856 -0.011857744 -0.09877138 0.10740888 -0.06884892 -0.11778996 -0.076478705
-0.056473855 0.07285657 0.06527596 0.039057676 0.11607847 -0.018690264 0.006010264 -0.11767198
-0.07437316 0.08160259 -0.04498601 0.04681337 -0.0031591717 0.113525845 0.019401275 0.11774116
0.0078741 -0.030382494 0.08460916 0.05505091 -0.016787402 -0.08992288 -0.056071725 0.058761656
0.026922535 -0.046805378 -0.039144825 0.11895652 -0.08141581 -0.05942657 0.09891826 -0.047201343
0.010541323 -0.09977003 -0.079187825 0.008812107 -0.118456334 -0.055869617 -0.04164946 0.116838776
0.06478083 0.005580604 -0.06425491 0.11926617 0.022106051 0.096185714 0.121367976 0.11343792
0.07219635 0.07357432 0.09042019 -0.047910392 0.07004915 0.04227999 -0.043696433 -0.010525882
0.04107265 0.121409446 0.0460525 -0.03563732 -0.008841887 0.022383466 0.044699803 0.09490542
0.0030667633 0.082914114 -0.062479496 -0.11693342 0.10730575 -0.08336732 0.012122348 0.0033206493
-0.112713695 -0.043704033 -0.08051495 -0.072220534 -0.10074632 -0.11347234 0.08593014 0.03652951
-0.08708061 0.039873406 -0.029811576 0.04547873 -0.029010817 0.053251386 0.11106877 0.10165678
0.12313466 -0.0071739703 -0.06300703 0.07884368 -0.09092286 0.01624778 -0.07805534 0.055895016
0.04072833 0.007942721 -0.04492247 -0.0050503314 -0.03884074 -0.075855285 0.038763717 0.083406806
00000000: 32bf 87bd 6436 9abd ef6d d2bd 9c25 b73d
00000010: daca f9bd 9b0b ac3d 4a09 f1bd b266 b63d
00000020: e3a1 253d 8ed0 82bd 5c8e bf3d 49a2 993c
00000030: 2ad8 c93c 0723 e83d 535f 683d 0c8f d13d
00000040: 8f49 71bd 1234 913c 0899 4fbd 36fe ff3d
00000050: bcd9 febd 0a92 133d eba7 b23c 2e94 68bd
00000060: 1694 29bd b92f 9a3c 41b2 cfbd 0329 9e3d
00000070: a728 49bd 221d 563c d816 613d 314c b23d
00000080: 340c b23d 3b51 ba3d 906e c93c 1c63 5ebd
00000090: 3588 f9bd 23bb 0abc 3b2b 903d 6e05 e33d
000000a0: cf21 db3d fca2 dbbc f0f7 2ebd a0e1 8f3c
000000b0: c579 f2bc cf4f ad3d e257 2dbd 5e42 96bd
000000c0: e529 723c f402 6f3d c112 fe3d bfc8 b0bd
000000d0: b0b3 ee3d 6c48 c6bd e4b9 083d c3a3 983d
000000e0: 1f98 67bc cedb bdbd b7fa 88bd 82bc 9ebd
000000f0: de0b 84bd 77ca 30bc 2c08 a23c dfab c9bd
00000100: 647b f03d e0fd d93d 1c78 e13d a09f 723c
00000110: 4060 8abc ecef 6abd a840 d23c 9044 6a3c
00000120: 08c5 6ebd 0664 bc3d 701f ddbc b0f7 58bc
00000130: 2067 3bbd 4caa b33d a4bd dd3d 322f 963d
00000140: 9895 ccbd 02d7 82bd f0b9 563c 10e4 dc3c
00000150: 62f1 ae3d 88fc d2bc 3af0 813d e0e9 6fbc
00000160: b0f4 c93c b00d 12bd 065a f5bd 548a 913d
00000170: 8867 ee3d b85f 5a3d beee a3bd b0e6 95bd
00000180: 260e c93d c8b5 a6bd 54f0 443d ac33 be3d
00000190: 4e95 91bd ca7c a5bd 10c3 953d 8034 b8bd
000001a0: 9a45 df3d 88c8 2ebd 8c1d fc3d a006 fa3d
000001b0: 3800 c9bc a0dd f23c 8015 89bb d0a3 123c
000001c0: a0bb 99bb fcc4 923d 3497 163d 204f c93c
000001d0: cce9 d83d a0fa 14bc 70fa 513c b093 a6bc
000001e0: 9a4f cabd dccc aa3d 601e 75bd 1e98 893d
000001f0: 4a5a cf3d 063d e4bd 3c5c e03d 7204 80bd
00000200: 7066 49bc 1228 afbd 99b7 1ebd 600b 5bbd
00000210: 2cd6 04bd 0147 ff3d 9cdb 22bd b4ef b43d
00000220: c1ee a1bd 2774 3abd b325 efbd 264e ce3d
00000230: d725 b73d 7689 97bd cc22 adbd 45c5 7fbc
00000240: ab9b ea3d 9bc3 34bd fc46 42bc a648 cabd
00000250: 30f9 db3d aa00 8dbd dd3b f1bd dea0 9cbd
00000260: 2151 67bd d335 953d 67af 853d f1fa 1f3d
00000270: 8dba ed3d 531c 99bc c0f1 c43b 02fe f0bd
00000280: f550 98bd 421f a73d 4043 38bd 60bf 3f3d
00000290: 1b0a 4fbb 3d80 e83d 6cef 9e3c 4722 f13d
000002a0: 5e02 013c b5e4 f8bc 9147 ad3d 107d 613d
000002b0: bc85 89bc 7d29 b8bd 77ab 65bd 10b0 703d
000002c0: a68c dc3c ffb6 3fbd 5356 20bd 7a9f f33d
000002d0: 55bd a6bd 4669 73bd a895 ca3d 3256 41bd
000002e0: 83b5 2c3c 3b54 ccbd 3a2d a2bd a860 103c
000002f0: 3c99 f2bd 8ad7 64bd a098 2abd 2b49 ef3d
00000300: d0ab 843d 80dd b63b 1498 83bd d241 f43d
00000310: c017 b53c 04fd c43d c68f f83d 2452 e83d
00000320: aedb 933d 22ae 963d 382e b93d b03d 44bd
00000330: ee75 8f3d c82d 2d3d 08fb 32bd c074 2cbc
00000340: cc3b 283d 84a5 f83d 8ca1 3c3d 70f8 11bd
00000350: 90dd 10bc 885d b73c 2417 373d c65d c23d
00000360: c0fb 483b e0ce a93d 80ea 7fbd ca7a efbd
00000370: 1ec3 db3d 7cbc aabd d09c 463c 409f 593b
00000380: 70d6 e6bd 0003 33bd 06e5 a4bd 5ce8 93bd
00000390: 1654 cebd 3064 e8bd 24fc af3d f89f 153d
000003a0: 5257 b2bd 4c52 233d 6837 f4bc e847 3a3d
000003b0: 18a8 edbc 201e 5a3d 0678 e33d 6e31 d03d
000003c0: 062e fc3d a013 ebbb d409 81bd cc78 a13d
000003d0: c435 babd 101a 853c 7adb 9fbd 2cf2 643d
000003e0: c0d2 263d 3022 023c a000 38bd 407d a5bb
000003f0: 7817 1fbd 045a 9bbd b4c6 1e3d 30d1 aa3d

fc.0.bias f4 [64]
0.077667475 -0.113568634 0.09720422 -0.071926326 0.036664188 -0.06817031 0.08923894 -0.006873335
0.11781595 0.072991885 -0.0017783948 -0.08365698 -0.08708806 0.012859613 -0.103757754 0.08785498
0.002628137 0.09849388 -0.059810042 -0.03978607 0.07421266 0.02602635 -0.043409377 -0.07097733
0.051192082 -0.09113464 -0.10143161 -0.04117292 0.057978496 0.025467772 0.12380073 -0.052552477
-0.06948456 -0.0465903 0.013402062 0.113445714 0.009792056 -0.08020593 -0.027078852 0.11050149
-0.021530882 0.118327096 -0.047184497 0.0654651 0.07019527 0.0923995 0.089448 0.08130498
0.11045748 -0.105766654 -0.04249166 -0.09580268 0.12411185 -0.00794711 0.088405706 0.103609845
0.10785472 0.09978413 -0.07059775 -0.036750212 0.053219892 -0.03746146 -0.0006080419 0.111511886
00000000: 2010 9f3d ac96 e8bd 0213 c73d 1c4e 93bd
00000010: 302d 163d e09c 8bbd e8c2 b63d b739 e1bb
00000020: 7d49 f13d c57c 953d 0719 e9ba 5a54 abbd
00000030: 3a5b b2bd 20b1 523c f27e d4bd 50ed b33d
00000040: d23c 2c3b 29b7 c93d 60fb 74bd b8f6 22bd
00000050: cffc 973d 3635 d53c 08ce 31bd 905c 91bd
00000060: caae 513d cca4 babd 60bb cfbd f0a4 28bd
00000070: dc7a 6d3d caa1 d03c 3d8b fd3d 4441 57bd
00000080: ec4d 8ebd 78d5 3ebd 5294 5b3c 3a56 e83d
00000090: dc6e 203c 0243 a4bd 78d4 ddbc 9b4e e23d
000000a0: 8861 b0bc 7a55 f23d 8844 41bd 9112 863d
000000b0: 8ac2 8f3d f33b bd3d 8330 b73d 3a83 a63d
000000c0: 8837 e23d 309c d8bd bc0b 2ebd 3234 c4bd
000000d0: 5b2e fe3d 9834 02bc 0d0e b53d 6631 d43d
000000e0: efe2 dc3d 9f5b cc3d 8e95 90bd 6487 16bd
000000f0: 1afd 593d 3071 19bd 0065 1fba 5860 e43d

fc.2.weight f4 [1, 64]
0.0067790854 -0.012684539 -0.102800906 -0.12344158 0.056191422 0.07371923 -0.034417026 -0.04027451
-0.059607543 -0.108314276 0.018858144 0.076544344 0.10741153 0.04748501 0.016261235 0.102502346
0.10095035 0.10194425 0.05494325 0.07115202 -0.022919716 -0.096669026 0.08763024 -0.07845153
-0.0770035 0.023872212 0.11602336 0.086413145 -0.09811578 -0.0685551 0.108285025 -0.04546541
0.10712041 -0.092780665 0.047400054 0.064306095 -0.028692462 -0.017632678 0.025524855 -0.029096413
0.011246026 -0.005542844 0.058964297 -0.108647056 -0.038422406 0.046593715 -0.10612813 -0.10358233
-0.09966676 0.016585365 -0.0386315 -0.008703947 -0.016364489 -0.049508337 0.1040457 -0.079861514
0.08199701 -0.06190291 0.070010826 -0.036530122 0.031210471 0.10982159 0.014735445 0.031326257
00000000: 1723 de3b d0d2 4fbc 4889 d2bd f0ce fcbd
00000010: fa28 663d 1cfa 963d def8 0cbd e2f6 24bd
00000020: 0a27 74bd e0d3 ddbd 657c 9a3c 48c3 9c3d
00000030: 94fa db3d a47f 423d 4836 853c c0ec d13d
00000040: 0fbf ce3d 26c8 d03d 2c0c 613d 26b8 913d
00000050: 21c2 bbbc 69fa c5bd 7c77 b33d 32ab a0bd
00000060: 03b4 9dbd a88f c33c a89d ed3d 60f9 b03d
00000070: edf0 c8bd 9e66 8cbd 8ac4 dd3d f039 3abd
00000080: f261 db3d ca03 bebd 8f26 423d eab2 833d
00000090: 740c ebbc 6872 90bc 8019 d13c 9a5b eebc
000000a0: 4041 383c bfa0 b5bb 8c84 713d 5982 debd
000000b0: d060 1dbd 0dd9 3e3d b459 d9bd f922 d4bd
000000c0: 161e ccbd 08de 873c 103c 1ebd 009b 0ebc
000000d0: d20e 86bc 41c9 4abd e915 d53d 6f8e a3bd
000000e0: 0cee a73d e88d 7dbd d661 8f3d 9ca0 15bd
000000f0: 1aad ff3c 24ea e03d f06c 713c f64f 003d
