data_files/out_gen/discriminator_epoch2.pt (torch, 137429 bytes, 9 tensors)

conv1.bias f4 [64]
000000 6b ed a2 b9 48 ce 89 39 1d 6d 9d 39 8d 2f 97 39
       -0.00031075938 0.00026284368 0.0003002667 0.00028836392
000010 00 00 00 00 60 ee 9c b9 00 00 00 00 70 3f dc 38
       0.0 -0.00029932242 0.0 0.000105022336
000020 a7 dd 8e 39 95 6e 9f b9 00 00 00 00 c8 61 80 b9
       0.00027249494 -0.00030409233 0.0 -0.00024486915
000030 00 00 00 00 06 1c a6 39 00 00 00 00 86 e7 71 39
       0.0 0.00031682866 0.0 0.000230698
000040 92 10 87 b8 4c 48 5b b9 e9 ec 9a b9 c7 4e 9c b9
       -6.440388e-05 -0.000209124 -0.0002954968 -0.00029813332
000050 62 95 2b 38 00 00 00 00 a7 8b 9a b9 00 00 00 00
       4.09087e-05 0.0 -0.00029477218 0.0
000060 00 00 00 00 37 8b a4 39 a6 bb 69 37 00 00 00 00
       0.0 0.0003138424 1.39315725e-05 0.0
000070 00 00 00 00 00 00 00 00 85 e3 9f b9 67 7f 0b 39
       0.0 0.0 -0.00030496359 0.00013303534
000080 f5 98 27 39 80 33 84 39 c0 4c 8a b9 69 70 a4 b9
       0.00015983342 0.00025215372 -0.00026378594 -0.0003136427
000090 00 00 00 00 28 97 9f b9 eb ab 73 b9 00 00 00 00
       0.0 -0.00030439463 -0.0002323833 0.0
0000a0 8e fc a5 39 00 00 00 00 00 00 00 00 34 32 a1 39
       0.0003165942 0.0 0.0 0.00030745717
0000b0 00 00 00 00 00 00 00 00 00 00 00 00 00 00 00 00
       0.0 0.0 0.0 0.0
0000c0 00 00 00 00 00 00 00 00 73 42 97 b9 00 00 00 00
       0.0 0.0 -0.00028850473 0.0
0000d0 00 00 00 00 f7 cc a1 b9 ce 36 a0 b9 78 2c 93 39
       0.0 -0.00030861024 -0.0003055841 0.00028071157
0000e0 44 bd e7 38 00 00 00 00 20 a1 8e b9 49 7b 7d b9
       0.00011050192 0.0 -0.00027204398 -0.00024173888
0000f0 c9 93 91 b9 02 9a 7b b9 00 00 00 00 8c 0c a2 39
       -0.00027766664 -0.00023994598 0.0 0.00030908396

conv1.lin.weight f4 [64, 2]
000000 43 49 48 3e ef a7 5a be 82 ce 1d 3d 78 ca 45 3e
       0.19559197 -0.21353124 0.03852702 0.19315517
000010 3d e2 a5 3b 6f 73 3a 3e 30 77 83 3d 5b 9a cb bd
       0.00506237 0.18208097 0.064192176 -0.0994155
000020 3b 3a 7d be c7 af d9 3d 8c 24 35 3e 41 65 e1 3d
       -0.24729244 0.1062923 0.17689723 0.11005641
000030 41 40 28 bd 4c 24 52 bd f4 51 41 3e 63 1b 6e be
       -0.041076902 -0.051304147 0.18878919 -0.23252635
000040 04 d5 a1 3d 5a b3 3c 3e 54 22 fd bc 65 4a a9 3d
       0.07901958 0.18427792 -0.030900158 0.08266143
000050 d1 41 fe bd 1c c1 92 be 33 18 91 3e 40 24 a8 3b
       -0.12414897 -0.28662956 0.28338775 0.0051312745
000060 af 94 96 be bb b5 7f ba 7b 43 78 3c c4 92 81 be
       -0.29410312 -0.0009754558 0.015152807 -0.25307286
000070 3e 05 6b be 09 25 12 3e 38 ec 22 3e de 1b 97 be
       -0.22951218 0.1427194 0.15910423 -0.29513448
000080 b4 1e 12 3e 41 57 6e bd 6f 00 53 3c 10 95 85 be
       0.14269525 -0.05818868 0.012878521 -0.26090288
000090 81 50 88 3e 7d 8b 95 be d7 7f 4c be c2 0b 48 3e
       0.2662392 -0.29207984 -0.19970642 0.19535735
0000a0 83 7f 0d 3e dd 25 57 be 84 7f 75 bd c9 7c 84 bd
       0.13818173 -0.21010537 -0.05993606 -0.064691134
0000b0 59 17 7d 3e 98 dc 46 3d 88 53 23 be 5d 9a 8b be
       0.24715938 0.04855022 -0.15949833 -0.27266207
0000c0 eb fc 1b bc 09 6d 78 bc 13 f6 44 3e fd 86 73 bd
       -0.00952075 -0.015162715 0.19234495 -0.059454907
0000d0 06 80 7a 3d d3 aa 68 3e 47 de 09 be 7e 40 7a be
       0.06115725 0.22721414 -0.13463698 -0.24438664
0000e0 f9 65 fb bd 89 a4 9a 3d af 37 42 be 6d 85 c3 bd
       -0.12275309 0.07550914 -0.18966554 -0.09546933
0000f0 7d 38 64 3e 4c 6a 97 39 de bf 8c 3d 00 24 aa 3d
       0.22287174 0.00028880162 0.06872533 0.08307648
000100 39 8a 96 3e 27 31 8a be ac f3 04 3e f2 37 40 bd
       0.2940233 -0.26990625 0.12983578 -0.046928354
000110 39 52 1d be 24 15 94 3e 4e 9f 0a be 43 62 8d 3e
       -0.15363397 0.2892238 -0.13537332 0.2761403
000120 f4 43 8b be 03 12 bd 3d 39 ea 1a be 5a 59 00 3e
       -0.27200282 0.09231951 -0.15128411 0.12534085
000130 b8 78 80 3e a5 71 e9 3c a3 fc 39 be a6 18 d2 3d
       0.250921 0.028496573 -0.1816278 0.102586076
000140 a0 c0 24 3e 1c ea ed bd 11 a5 8f be 95 ce 21 3e
       0.16089106 -0.116169184 -0.28055623 0.15801461
000150 93 ee 8e be ec 6f 15 3e 1e 99 bc 3d 19 c9 1a be
       -0.27916393 0.14593476 0.09208892 -0.15115775
000160 3e f1 50 bd 61 e9 83 be 78 3e e5 bd f6 97 e4 3c
       -0.051011316 -0.2576399 -0.111935556 0.027904492
000170 3b 34 4e be ed e5 f0 3a 96 fd 0c be 47 81 25 3d
       -0.20137112 0.001837907 -0.1376861 0.04040649
000180 d5 7e 8c be 84 73 84 3c 69 38 93 be 6d 76 fb bd
       -0.27440515 0.016168363 -0.28753975 -0.12278447
000190 a5 aa b7 3d 8a 4f c6 3d 5b e6 db bc dd d5 da bd
       0.08968095 0.096831396 -0.02684324 -0.106853224
0001a0 c5 83 fd bd 41 b1 91 bc c9 7a e4 3d aa 01 da bc
       -0.12378649 -0.017784717 0.11156232 -0.026612122
0001b0 1f ae 87 3d e4 d7 31 3e 72 06 8d 3e 52 0a e4 3d
       0.06625008 0.17367512 0.2754398 0.11134781
0001c0 2d eb c9 3d 7d db 69 be f5 4f 92 be da 9a 17 3e
       0.09859309 -0.22837634 -0.28576627 0.14805165
0001d0 5f 56 53 bd c5 f0 63 3e ae f7 57 bd 0d a8 c8 3d
       -0.05159604 0.22259815 -0.05272644 0.09797678
0001e0 6b 44 91 3e 7b ff 1d be 02 f5 45 3e 91 1a 1f 3e
       0.2837251 -0.1542949 0.19331744 0.15537478
0001f0 c5 7a 69 be f1 e0 f5 bd f7 b4 8c 3e ee 5a c3 3d
       -0.22800739 -0.12005795 0.27481815 0.09538828

conv2.bias f4 [64]
000000 11 93 83 b9 00 00 00 00 7e 47 87 b9 4d 3e a6 b9
       -0.0002509584 0.0 -0.00025802472 -0.00031708405
000010 26 23 3e b7 eb 72 71 38 6c 72 51 39 00 00 00 00
       -1.1333066e-05 5.7565903e-05 0.00019974419 0.0
000020 45 61 05 39 8c f9 a3 39 df ba a6 39 89 b8 16 b9
       0.00012720104 0.0003127571 0.00031801217 -0.0001437386
000030 9c d5 8b b9 32 f7 7f b9 9b ed 02 b9 00 00 00 00
       -0.00026671297 -0.00024410782 -0.00012486281 0.0
000040 00 00 00 00 00 00 00 00 00 00 00 00 e8 ee 14 39
       0.0 0.0 0.0 0.0001420338
000050 43 7a 81 b8 00 00 00 00 e4 e4 b6 38 00 00 00 00
       -6.173972e-05 0.0 8.7210705e-05 0.0
000060 6e 0e b7 38 16 53 9f 39 4b 7b 84 39 55 97 51 39
       8.728808e-05 0.00030388747 0.00025268862 0.00019988169
000070 c6 7d a2 b9 00 00 00 00 00 00 00 00 62 55 89 38
       -0.00030992756 0.0 0.0 6.548573e-05
000080 00 00 00 00 c3 4f 9e b9 eb c9 24 39 62 eb 8a 38
       0.0 -0.00030195536 0.00015715479 6.624196e-05
000090 4a 59 9e b9 30 f2 7a b9 00 00 00 00 90 e3 83 39
       -0.00030202634 -0.0002393208 0.0 0.00025155814
0000a0 56 e5 85 b9 ad 6e cf b8 00 00 00 00 aa 01 9f 39
       -0.00025538605 -9.891144e-05 0.0 0.00030328083
0000b0 00 00 00 00 00 00 00 00 a8 71 a1 b9 c4 70 55 b9
       0.0 0.0 -0.00030792993 -0.00020355271
0000c0 a4 26 a2 b9 63 ba 28 b5 8b 4b 7d b9 50 af a9 38
       -0.00030927837 -6.2856105e-07 -0.00024156102 8.0912025e-05
0000d0 00 00 00 00 25 3a 9c b9 43 08 52 39 ee 07 0e b9
       0.0 -0.0002979796 0.00020030238 -0.0001354513
0000e0 8e 7d 84 b9 de 54 93 b9 a3 a8 94 39 00 00 00 00
       -0.00025270547 -0.00028101256 0.00028354404 0.0
0000f0 d3 63 5b b9 78 12 96 b9 1a b9 16 b9 8e e8 18 39
       -0.00020922655 -0.0002862399 -0.0001437407 0.00014582483

conv2.lin.weight f4 [64, 64]
000000 16 44 41 be f0 40 58 be 45 56 f6 bd ef 17 eb bd
       -0.18873629 -0.21118522 -0.12028173 -0.11479174
000010 ea 60 39 be c7 f1 25 3e 72 3e 8e 3d 42 35 bc 3d
       -0.18103376 0.16205512 0.06945504 0.091898456
000020 25 59 95 ba dc 60 3c be 4b 4a 0a be fa 77 06 3e
       -0.0011394365 -0.18396324 -0.13504903 0.13131705
000030 f2 de 30 3c 37 bc 41 3e ad 76 77 bd 19 04 50 be
       0.010795342 0.18919455 -0.060415912 -0.20314063
000040 1d 1d 20 3b da 56 00 3e ef 36 c0 3d 3c 31 13 3e
       0.0024431415 0.12533131 0.09385478 0.1437425
000050 36 20 c4 3d 12 c4 d4 bc 49 d9 4a 3c ca a3 25 be
       0.09576456 -0.0259724 0.012380906 -0.16175762
000060 28 29 00 3d 67 6a cb bd 38 80 25 3d ea 74 33 ba
       0.03128925 -0.09932404 0.040405482 -0.00068457297
000070 f0 68 35 bd 4e da 36 3e aa 61 0f 3d 70 9c ad 3d
       -0.04428953 0.17856714 0.03500525 0.08477104
000080 73 70 2a 3e c6 a1 56 be e3 d4 a9 bd a2 78 08 bd
       0.16644458 -0.20960149 -0.08292558 -0.03331817
000090 c6 13 48 3d 86 a3 28 be 44 f3 44 3e d2 b4 3f bd
       0.048846982 -0.16468629 0.19233423 -0.046803303
0000a0 e1 6e 11 be 43 ee 78 3d f1 86 36 be 74 94 f0 3c
       -0.14202453 0.0607741 -0.17824914 0.029367663
0000b0 c5 7a b2 3d 36 c5 bb 3d d0 da dd ba 7f 98 f0 3d
       0.08714823 0.091684744 -0.0016926173 0.11747836
0000c0 9f 9f ae bd 4f bd 03 3e c2 61 07 3d 78 1c 11 3e
       -0.08526539 0.12865184 0.033052213 0.14171016
0000d0 d5 b9 e2 bd 10 69 3e 3e 46 dc 1f 3e 5f b2 c8 bc
       -0.11070601 0.18594766 0.15611371 -0.024499116
0000e0 cd 67 d4 3d 3c 4a 1a be 66 f2 2a 3e 65 22 ef 3d
       0.10371361 -0.1506738 0.1669403 0.11676482
0000f0 ff 77 0c be a2 d8 e4 3d 51 d6 7e bd 0e 40 4d 3e
       -0.1371765 0.11174132 -0.062216107 0.20043966
000100 4b a4 1a 3c b1 72 b5 3d a9 df 83 bd 63 0f f6 bc
       0.009438585 0.08859766 -0.06439144 -0.030036634
000110 4e c3 c3 3d c6 34 99 3c 9c 4b 32 3e aa 5b 4f be
       0.09558736 0.018701922 0.17411655 -0.20249811
000120 c5 e9 ad 3c 01 09 ce 3d 6d 07 b7 bd 0d 59 b5 3d
       0.021229634 0.10060311 -0.08936963 0.08854876
000130 b2 f5 11 bd e1 4a f5 3d 12 8a 15 3e 02 b7 52 3e
       -0.035634704 0.11977173 0.14603451 0.20577624
000140 3f da 95 3d 57 7d 26 3e 14 23 13 3e 02 a3 d8 bd
       0.07317018 0.16258751 0.1436885 -0.10577966
000150 a5 11 1f be 14 67 49 3e 18 d4 a3 bd 74 d0 a0 3d
       -0.15534075 0.19668227 -0.07999438 0.07852259
000160 53 46 f9 3d 83 06 1c be 8d 9d 02 3e d2 4b a4 bd
       0.121716164 -0.15236859 0.12755413 -0.08022274
000170 d6 43 36 be 02 39 fb 3d 31 f0 85 bd 52 c8 13 bb
       -0.17799315 0.12266733 -0.065399535 -0.002254982
000180 25 80 cf 3d 5d 5d 38 be 1b ee c8 bd 09 5b 5b 3e
       0.101318635 -0.18004365 -0.0981104 0.21421446
000190 b9 7f 4c be 15 16 3a bd 50 93 41 3e 8b d8 e3 bb
       -0.19970597 -0.045431215 0.18903852 -0.006953304
0001a0 8a 4b 4f be 2f e2 43 3e a3 c0 2a be de a2 da 3d
       -0.2024366 0.19129251 -0.16675048 0.10675596
0001b0 1f 70 31 3e 61 5d 42 3e b7 07 37 be fe 43 4c 3d
       0.17327927 0.18980934 -0.17874037 0.04986953
0001c0 96 2b 26 3e 5e c3 d4 3b 41 d1 0c 3e 53 9b db 3d
       0.16227564 0.006493016 0.13751699 0.10722985
0001d0 2d 2c 4c 3e 83 fe 3f 3d 00 7e 7f bd 0d e3 2a be
       0.19938727 0.04687358 -0.062376022 -0.16688175
0001e0 ff 02 b4 3c d1 c3 e9 3c 47 f1 0b 3d 90 66 5b 3d
       0.021974085 0.028535755 0.034165647 0.053564608
0001f0 21 d1 d1 3d a3 37 bf bd 07 b6 e1 3d b8 07 28 be
       0.10244966 -0.09336784 0.11021047 -0.16409194
000200 da c0 4e 3d 21 37 34 be 43 3a e5 3d 15 5e 92 3d
       0.050476886 -0.17599155 0.11192753 0.07146851
000210 30 79 05 be 06 9b 4f be b7 7d 22 be 11 cb 53 3d
       -0.1303451 -0.2027398 -0.15868269 0.05170733
000220 40 ba 4e 3d 9d 7e 17 be c4 89 f6 3c 8b 92 c0 3d
       0.05047059 -0.14794393 0.030094989 0.09402951
000230 ec c4 a5 bc cc 37 5a be 63 55 26 bd d7 da 3c be
       -0.020235501 -0.21310347 -0.040608775 -0.18442856
000240 41 f4 03 3e 1a d9 2e 3e 1f a8 88 bd ac 4a fc 3d
       0.12886144 0.17075005 -0.066726916 0.1231893
000250 22 73 48 be 12 5c 07 be 38 7b f3 bd 24 32 0d bd
       -0.1957517 -0.13218716 -0.118887365 -0.034471646
000260 a3 31 d5 bd d5 be 66 bd 12 ac e8 bd ca 0b 44 3e
       -0.10409858 -0.056334335 -0.11360945 0.19145122
000270 e5 1d bb bd ed bb d4 bd 74 41 1d 3e 1e 6b 80 3b
       -0.09136561 -0.103874065 0.15357 0.0039190194
000280 67 0c 0a 3e 09 0a 4c be 7e bd 9e bd d5 27 ef bc
       0.13481294 -0.19925703 -0.077509865 -0.029193798
000290 1f 5a 91 3d a4 8d 2e be d9 bc f5 3c f6 51 38 3d
       0.07097267 -0.17046219 0.029997276 0.04500004
0002a0 4a bf ed bd 54 16 23 3c 5d 9a 8d bc eb ea 26 3e
       -0.11608751 0.009954054 -0.01728552 0.16300552
0002b0 30 31 49 be 50 89 ac 3d 8c bd 10 bd 29 08 69 bb
       -0.1964767 0.08424628 -0.035337016 -0.0035557842
0002c0 e5 0e 0f be d7 d4 82 bd cf 62 c4 3d ce f7 38 3e
       -0.13970526 -0.06388252 0.09589159 0.1806328
0002d0 83 f5 8d bd 6a 18 4d 3c 65 e9 a3 bd 58 91 c5 3d
       -0.06931593 0.012518028 -0.08003501 0.09646863
0002e0 ee b9 07 bd 3b 8f 9b bd fb 88 f5 bd 05 c3 b8 3d
       -0.0331363 -0.075956784 -0.119890176 0.09021572
0002f0 6d 2d a6 3d 9a 89 27 3e fd 3c c8 bd 99 42 75 3d
       0.08114133 0.16361085 -0.097772576 0.059877966
000300 69 79 cb bd fd a4 1d 3e df 01 ac bd 57 1f 5b bd
       -0.099352665 0.1539497 -0.083987944 -0.053496685
000310 d9 ea 2f be 19 1d 97 3c 89 85 4b be 85 13 0a 3e
       -0.17179431 0.018446492 -0.19875158 0.13484009
000320 9b 4a db 3b 98 57 01 3e d0 5a 2b 3d 2e 5b eb bd
       0.0066922433 0.1263107 0.041834652 -0.114920005
000330 e0 12 69 3c a0 80 bd 3d 59 76 58 be 8e fb 16 bd
       0.014225692 0.09253049 -0.21138896 -0.036860995
000340 7f 08 ee bd 37 c2 ad 3d ac ac f6 3d ae 95 12 3e
       -0.11622714 0.08484309 0.12044653 0.14314911
000350 75 f3 23 be 93 d8 42 be 88 39 d6 3b ae c1 2a 3e
       -0.1601084 -0.19027929 0.00653762 0.16675445
000360 a8 db 73 3c 19 f2 3e 3e e7 a7 c0 bd 6f fc 0b be
       0.014883913 0.1864704 -0.09407025 -0.13670515
000370 c3 49 a6 3d 2c 1f de bc 66 96 c2 bd 29 08 c6 3d
       0.08119538 -0.027114473 -0.095013425 0.09669525
000380 31 86 2b be 0d ca 0c be 2e c8 74 3d 1e 33 25 bd
       -0.16750409 -0.13748951 0.05976122 -0.040331952
000390 56 fb 64 3d f5 0f 58 3e 98 ae 5a 3e 2b f7 5b 3e
       0.055903755 0.21099837 0.21355665 0.21481006
0003a0 63 dd 04 be 01 22 c2 3d 5c ca 95 bc 3f 31 d2 3d
       -0.12975077 0.09479142 -0.018284969 0.10263299
0003b0 05 5e 99 3d 8c 85 6f bd fe 52 e2 3d e3 d5 9f bd
       0.07488636 -0.05847697 0.11050986 -0.078044675
0003c0 37 55 cb 3c a8 25 09 be 2b 13 dd bc 1a 37 23 3e
       0.024820907 -0.13393271 -0.026986679 0.15938988
0003d0 3d 28 37 be 86 8a 45 be 68 3b 22 3e 7f 0d 5c 3d
       -0.17886443 -0.19291124 0.15842974 0.05372381
0003e0 b7 5c ea bd 5d f3 a8 3c b9 11 12 3e ad 28 34 3e
       -0.11443465 0.020623857 0.14264573 0.17593642
0003f0 a5 31 00 3e 99 c4 81 3d 09 88 07 bd 41 75 4d be
       0.12518938 0.06336326 -0.033088718 -0.2006426

conv1d.weight f4 [64, 128, 3]
000000 7c ad 19 bd 0f 47 11 3d 7c 71 20 3d 88 f5 48 3d
       -0.037518963 0.035468157 0.039170727 0.04906228
000010 b1 21 33 bc eb 37 fb 3c c7 6e 33 3d 96 7d bb 3c
       -0.010933326 0.030666312 0.043806817 0.022887032
000020 c4 f5 09 3d 37 7a 36 3d ae 32 e2 3c 3c 55 3d bd
       0.033681646 0.044550147 0.027612057 -0.046223864
000030 2c ad 89 3c 6e 90 24 bd f1 ee 2d 3d 2b c5 48 3d
       0.016806208 -0.0401768 0.0424642 0.04901616
000040 bb b6 09 3d b5 95 8f bb 19 a4 d9 ba c6 93 04 3d
       0.03362153 -0.00438186 -0.0016604691 0.03236749
000050 db ef b3 bc 9a 2a 2f bd d7 73 46 3d c8 00 e3 3c
       -0.021964958 -0.042765237 0.048450317 0.027710333
000060 c8 09 3c 3d f3 64 97 3c 2c 34 0b 3d 8e 1c 48 bd
       0.045907766 0.018480754 0.0339853 -0.048855357
000070 4e 17 4c 3d d7 2e bd bc fb 38 3e 3b 30 ae 95 3a
       0.049826913 -0.023093624 0.0029025662 0.001141971
000080 e6 a5 65 bc 2f 7a 33 3d 59 17 1b bc b6 17 2b 3c
       -0.014016604 0.043817695 -0.009466016 0.010442665
000090 25 03 2e 3d 81 63 47 bd bd e1 08 bc 30 79 44 3c
       0.042483468 -0.04867888 -0.008354601 0.011991784
0000a0 e6 c0 bf bb aa 2f 19 3d 16 4b ef bb 93 46 25 3c
       -0.0058518527 0.03739897 -0.007302652 0.010087627
0000b0 cd 74 f9 3c e9 f7 12 3c 54 41 04 bd de 6e f1 bc
       0.030451203 0.008970239 -0.032288864 -0.02947181
0000c0 a4 c9 c2 bc d8 9d 1a 3c 52 3a cc 3a 89 30 b5 3c
       -0.02377779 0.009437047 0.0015581346 0.02211787
0000d0 37 e2 ea 3c 7a 38 e0 3c 5a e4 69 3b 43 6f 4d bc
       0.02867232 0.02737068 0.0035689087 -0.012538734
0000e0 97 6a 97 3c d2 2c 45 3d d5 d4 af bc 6e ad 41 bd
       0.018483443 0.048138447 -0.02146379 -0.047284536
0000f0 fc 7f 09 3d 46 9f 1d bd 3a 64 5b 3c 7c 1e d9 bc
       0.03356932 -0.038481973 0.013390595 -0.026503794
000100 aa 1e 46 3d 5e c8 39 3d bf ae 05 bd 3b 8a 36 bd
       0.048369087 0.0453571 -0.032637354 -0.04456542
000110 7b 74 ff 3a 54 ab 5e 3c d2 4a 86 bc c9 de ea bc
       0.001948967 0.0135906525 -0.016393099 -0.028670685
000120 c3 39 82 bc 04 fc 80 bc 64 38 52 3c 68 e8 a1 bc
       -0.015896684 -0.01574517 0.012830827 -0.01976414
000130 ca d7 4e bd f1 73 e5 3c 48 68 85 3c 18 ee ef bc
       -0.05049876 0.028009387 0.016285077 -0.029288337
000140 aa 5f 46 bd 68 4a 63 ba 7e 23 f6 3a a8 d2 1b bc
       -0.048431076 -0.000867045 0.0018778888 -0.009510674
000150 03 9d 41 bd 88 0a 4d 3d 3f a6 f2 bb 3c bf 98 3c
       -0.04726888 0.05005887 -0.007405072 0.018645875
000160 3d 2a 05 bd 36 fb e0 bb 37 04 ab bc 6b c3 4b 3b
       -0.032510985 -0.006865884 -0.020876033 0.003109182
000170 f4 8d 93 3c 16 bc e0 bc 9d 9f e8 bc 3c 21 96 bc
       0.018012024 -0.027433436 -0.028396422 -0.018326394
000180 38 56 91 3c 7d f4 53 3c 6f 5e 5b 3b 9f 52 da 3a
       0.017741308 0.0129367085 0.0033473035 0.0016656703
000190 b2 68 34 bd 4f 7e 14 bd 61 a7 4a bd 81 c9 4f 3c
       -0.044045158 -0.03625327 -0.04947603 0.01268232
0001a0 33 c7 3e bd f2 f3 19 3d 6e f3 1c bd 8f 21 30 3d
       -0.04657669 0.03758616 -0.03831809 0.043000754
0001b0 10 95 36 bb 47 3a 40 3d ad cd 38 3d 43 21 0f 3d
       -0.0027859844 0.046930578 0.045118023 0.03494383
0001c0 ac d0 cb bc 58 09 49 3d ca cc d1 bb bb 57 61 bc
       -0.024879776 0.049081177 -0.0064025866 -0.013753827
0001d0 6e a3 a3 bb 0c 68 78 3c 5d a8 c4 bb 80 52 8f bc
       -0.0049938476 0.015161525 -0.006001516 -0.017495394
0001e0 c9 c8 1a 3d 3d 10 20 3d 18 63 e3 bc 5b 46 ef 3c
       0.03778914 0.039077986 -0.027757213 0.029208353
0001f0 90 d1 1a 3a 72 23 21 bd a0 95 ac 3c 2e 7e 3e bb
       0.0005905861 -0.039340444 0.02106744 -0.0029066908
000200 3a d8 2b 3b e3 ef 3e bd 7d 59 b5 3b 36 18 13 bc
       0.002622141 -0.046615493 0.0055343495 -0.00897794
000210 8c 20 28 bc f5 ab 8f bc 43 e1 22 3d 45 55 9c bc
       -0.010261666 -0.01753805 0.039765608 -0.019083628
000220 2e b7 10 bc d7 e6 2d 3c c5 f0 22 bd cb 68 5b 3c
       -0.008832736 0.010614119 -0.039780397 0.013391684
000230 bc 3a ea 3c a5 f0 81 bc 2a aa 49 3b 5c cf 78 bc
       0.02859246 -0.015861819 0.0030771592 -0.015186157
000240 b2 63 3f 3d af 04 bf bc f8 27 3b bd a9 d1 f7 bc
       0.046725936 -0.023317663 -0.045692414 -0.030251341
000250 0f 68 36 3d a4 76 f4 bc aa c4 70 bc 94 87 a4 bc
       0.04453283 -0.029841729 -0.014695326 -0.02008418
000260 0e 98 2a 3b 82 8b 06 bd 09 ae 0d 3d dd 9a 16 3d
       0.0026030573 -0.03284789 0.0345898 0.036768783
000270 bc 96 91 bc 86 1a bb bc f7 41 08 3d 2f 7d 23 bd
       -0.017772071 -0.022839796 0.033266034 -0.039914306
000280 85 2a 50 3d cd e1 3b bc a4 25 e2 bb 0d 74 02 3d
       0.0508218 -0.011467409 -0.00690146 0.031848956
000290 f5 9f 8e 3c 18 ba 8a bc b9 d7 cc 3c 05 a7 82 3b
       0.017410258 -0.01693444 0.025005208 0.0039871954
0002a0 06 67 70 3a c2 0b 48 3d 04 06 0f bd 6b a3 f1 bb
       0.0009170625 0.048839338 -0.034917846 -0.0073742173
0002b0 67 3b d5 bc d1 eb 13 3d b9 df da 3b 74 77 da 3c
       -0.026029302 0.036113564 0.006679502 0.026668288
0002c0 74 8c ff bc 4f 27 71 39 bd 44 4e 3d cc b9 e2 bc
       -0.031194903 0.00022998195 0.050358523 -0.027676485
0002d0 14 97 12 bd be c4 17 3d 18 4c 99 3b 18 50 3b 3d
       -0.03578861 0.037052862 0.0046782605 0.04573068
0002e0 d6 b6 e7 bc d7 3b d9 bc 7d 3a 59 3c a0 53 21 bb
       -0.028285425 -0.026517792 0.013258574 -0.0024616495
0002f0 99 fa 06 bd ce 74 a1 bc c4 dd 3e bd 58 97 17 3c
       -0.032953832 -0.019709017 -0.04659821 0.009252392
000300 01 e0 48 bc 60 7f 2d bd a5 9f 24 3d 1d e5 27 3d
       -0.012260438 -0.042357802 0.04019131 0.040989984
000310 05 1a 39 3c be 5a ee 3c 04 c5 8e bc 14 72 ee bc
       0.011297707 0.029096004 -0.017427929 -0.029107131
000320 7c 38 05 bd fd a5 20 3d ac 5e 11 3d bf c4 2f bc
       -0.03252457 0.0392208 0.035490677 -0.01072806
000330 aa 0f 77 3b c0 a7 2a 3d 39 0e 89 bc d1 ad 50 3c
       0.0037698545 0.041663885 -0.016730415 0.012736754
000340 d0 bb 39 bc 1b 35 62 bb 1e 06 04 3d d0 54 6e 3c
       -0.011336282 -0.0034516517 0.032232396 0.014546588
000350 0a 80 2c 3c 51 b9 1f bd f6 a5 34 bd 65 fa 1c 3d
       0.010528574 -0.03899509 -0.044103585 0.038324732
000360 ff 36 e0 3b 5c 5d a5 bb a9 d6 8a bb 7f ab 4f 3d
       0.0068424935 -0.0050465297 -0.0042370153 0.05070066
000370 1a a4 0a bd e6 48 88 b9 ea c6 2f 3d 6d 8d 37 bd
       -0.033847906 -0.00025994255 0.04291431 -0.04481261
000380 c1 cc 11 3d be 1b 12 3d 2c d8 17 3d 35 28 1b 3d
       0.03559566 0.03567099 0.037071392 0.03788014
000390 1b fc 32 bd 71 a8 e4 3c 42 04 03 3d 9f e4 ac bc
       -0.043697458 0.02791235 0.031986482 -0.021105109
0003a0 ad 43 a1 3c f0 96 36 3d 18 6f e9 3c d7 52 15 3b
       0.01968559 0.04457754 0.028495356 0.0022784972
0003b0 24 24 21 3d 3c 87 1d 3d fd 5f 20 3d ca 2d 26 3d
       0.039341107 0.038459048 0.03915404 0.04057101
0003c0 c8 8f 3b 3d aa 8f 89 3c 01 ac 21 3d 9b 0a 38 bd
       0.045791417 0.016792137 0.039470676 -0.04493199
0003d0 81 cc 2e ba 7a aa 62 3c c6 7e 04 3d 7b ee d6 bc
       -0.00066680467 0.01383459 0.032347463 -0.026236763
0003e0 af d5 8c bb bc 32 ea 3b 40 a4 62 bc 14 47 23 bd
       -0.004297934 0.0071471613 -0.013833106 -0.039862707
0003f0 ad cc 0c 3d 72 42 0d 3d ab 66 90 3c 9d 72 35 3d
       0.03437488 0.034487195 0.01762708 0.044298757

conv1d.bias f4 [64]
000000 d1 79 b9 bc 22 8d fd bc 64 46 a5 3b ca d9 0a 3d
       -0.022641094 -0.030951086 0.0050437916 0.033899106
000010 af 0b 4d 3d 79 a5 21 3c c6 e3 09 bd a1 4e 3f 3d
       0.05005997 0.009866112 -0.033664487 0.046705846
000020 67 03 27 bc f9 0c 50 3d 05 94 44 bc 03 f6 9f 3b
       -0.010193682 0.05079362 -0.011998181 0.004881622
000030 d7 dd e5 bc f6 a3 38 bd 2d e5 41 3d d8 31 98 bc
       -0.028059883 -0.04507824 0.0473377 -0.018578455
000040 88 2d 5d 3c 20 29 06 3c 56 78 87 3c 7f 92 33 3c
       0.013499625 0.008188516 0.016536873 0.01096022
000050 e9 a5 9c bb 60 82 7b bc 28 5c 4c 3d c8 a7 3e 3d
       -0.00478052 -0.015350908 0.049892575 0.046546727
000060 3e 4d 16 bc 04 a3 08 bd 05 4b 73 3c 10 c8 a8 3c
       -0.009173689 -0.03335859 0.014849429 0.02060321
000070 4e 5c b0 3a f4 17 f5 bc e3 ea 8c bc b2 91 e2 3c
       0.0013455243 -0.029918648 -0.017201846 0.027657364
000080 9c 8e 2c bd 9e 51 9d bc 0d 39 23 bd b3 ff 3d bc
       -0.04212819 -0.019203957 -0.03984933 -0.011596608
000090 2a 60 27 3c 40 26 36 3d 46 2b 22 ba 7a ba e5 3c
       0.010215798 0.04447007 -0.0006186258 0.02804302
0000a0 99 d6 10 bc 86 37 4a 3d aa 1e c0 3b 9f 24 1b bd
       -0.008840227 0.049369358 0.0058630304 -0.03787672
0000b0 75 2a 05 3d 4e 9e 1d 3d 5f c3 d5 bc 23 b9 4c bc
       0.032511193 0.03848105 -0.026094137 -0.012495312
0000c0 c7 34 10 3d d8 9f a2 bb da 1e 54 bb bb d8 3e 3d
       0.035206582 -0.0049629025 -0.0032367022 0.04659341
0000d0 86 85 e9 bb d8 dc ef 3c 36 2e 03 bd 4b 76 ab bc
       -0.007126513 0.029280111 -0.032026492 -0.02093043
0000e0 98 1c 8b 3c fd 01 d7 bc e2 64 da 3c a2 5b 94 3b
       0.016981408 -0.026246065 0.026659433 0.004527525
0000f0 c0 03 21 3b f4 70 4d 3b 93 65 ca bc ca 52 3a 3d
       0.0024568886 0.0031347843 -0.024706637 0.04548911

fc.0.weight f4 [64, 64]
000000 32 bf 87 bd 64 36 9a bd c3 8f d2 bd c0 4c b7 3d
       -0.066282645 -0.075299054 -0.102813266 0.08950186
000010 ee b0 f9 bd 25 df ab 3d f3 d6 f0 bd 83 9c b6 3d
       -0.1219195 0.08392171 -0.11759748 0.08916571
000020 2e 07 26 3d cb 06 83 bd 2d c2 bf 3d 62 d3 98 3c
       0.04053419 -0.0639778 0.09363208 0.018655483
000030 e8 76 ca 3c 94 0b e8 3d 5c f9 67 3d 46 c2 d1 3d
       0.024714902 0.11330333 0.056634292 0.10242133
000040 d6 b2 71 bd 32 08 92 3c 35 34 4f bd fe 16 00 3e
       -0.059008442 0.017826173 -0.050586898 0.12508771
000050 ab 12 ff bd 17 f4 13 3d d1 d0 b1 3c 12 fa 68 bd
       -0.124547325 0.036121454 0.021706017 -0.05687911
000060 b6 c4 29 bd 61 c3 9a 3c d2 80 cf bd 8e 5e 9e 3d
       -0.041447364 0.018891992 -0.101319924 0.077328786
000070 89 94 49 bd 7d 26 57 3c d8 16 61 3d 73 19 b2 3d
       -0.04921392 0.013131735 0.054953426 0.0869626
000080 15 f3 b1 3d 69 37 ba 3d 90 6e c9 3c 1c 63 5e bd
       0.08688942 0.090926 0.024588853 -0.054293737
000090 da af f9 bd 5e 5b 09 bc 3a ff 8f 3d 46 d7 e2 3d
       -0.12191744 -0.0083836 0.070311025 0.110762164
0000a0 66 4d db 3d e9 cd da bc a4 99 2e bd a0 e1 8f 3c
       0.10708122 -0.026709514 -0.042626992 0.017563641
0000b0 b1 f6 f1 bc 7b 83 ad 3d f2 f7 2c bd 3f 0f 96 bd
       -0.029536577 0.084723435 -0.042228647 -0.07327127
0000c0 ae c3 70 3c 83 5f 6f 3d 6e 03 fe 3d 49 fb b0 bd
       0.014695091 0.058440696 0.12402998 -0.08641679
0000d0 63 d7 ee 3d 3c 12 c6 bd e4 b9 08 3d 43 dd 98 3d
       0.116621755 -0.09671447 0.033380404 0.07464077
0000e0 19 02 66 bc 3c ec bd bd 39 c8 88 bd 22 8c 9e bd
       -0.014038586 -0.09273574 -0.066788144 -0.07741572
0000f0 09 3a 84 bd 9f 4a 2f bc 67 bb a1 3c 88 78 c9 bd
       -0.06456382 -0.010698943 0.01974268 -0.09837443
000100 64 7b f0 3d e0 fd d9 3d 1c 78 e1 3d a0 9f 72 3c
       0.11742285 0.10644126 0.11009237 0.014808565
000110 40 60 8a bc ec ef 6a bd a8 40 d2 3c 90 44 6a 3c
       -0.016891599 -0.057357714 0.025665596 0.014298573
000120 08 c5 6e bd 06 64 bc 3d 70 1f dd bc b0 f7 58 bc
       -0.058293372 0.091987655 -0.02699253 -0.013242647
000130 20 67 3b bd 4c aa b3 3d a4 bd dd 3d 32 2f 96 3d
       -0.045752645 0.08772716 0.10827187 0.073332205
000140 98 95 cc bd 02 d7 82 bd f0 b9 56 3c 10 e4 dc 3c
       -0.0998947 -0.06388666 0.013105854 0.026964217
000150 62 f1 ae 3d 88 fc d2 bc 3a f0 81 3d e0 e9 6f bc
       0.08542134 -0.025755182 0.06344648 -0.0146431625
000160 b0 f4 c9 3c b0 0d 12 bd 06 5a f5 bd 54 8a 91 3d
       0.024652809 -0.035657585 -0.11980061 0.07106462
000170 88 67 ee 3d b8 5f 5a 3d be ee a3 bd b0 e6 95 bd
       0.11640841 0.05331394 -0.08004521 -0.07319391
000180 26 0e c9 3d c8 b5 a6 bd 54 f0 44 3d ac 33 be 3d
       0.09817152 -0.08140141 0.048080757 0.092871994
000190 4e 95 91 bd ca 7c a5 bd 10 c3 95 3d 80 34 b8 bd
       -0.07108556 -0.08080442 0.07312596 -0.089943886
0001a0 9a 45 df 3d 88 c8 2e bd 8c 1d fc 3d a0 06 fa 3d
       0.10901947 -0.04267171 0.12310323 0.12208295
0001b0 38 00 c9 bc a0 dd f2 3c 80 15 89 bb d0 a3 12 3c
       -0.024536237 0.029646695 -0.004183471 0.008950189
0001c0 a0 bb 99 bb fc c4 92 3d 34 97 16 3d 20 4f c9 3c
       -0.004691556 0.07166478 0.036765292 0.024573863
0001d0 cc e9 d8 3d a0 fa 14 bc 70 fa 51 3c b0 93 a6 bc
       0.10591468 -0.009092957 0.012816057 -0.020334095
0001e0 9a 4f ca bd dc cc aa 3d 60 1e 75 bd 1e 98 89 3d
       -0.09878464 0.08339855 -0.05984342 0.06718467
0001f0 4a 5a cf 3d 06 3d e4 bd 3c 5c e0 3d 72 04 80 bd
       0.10124643 -0.11144452 0.10955092 -0.06250848
000200 70 66 49 bc 12 28 af bd d5 73 1e bd b7 58 5b bd
       -0.012292489 -0.08552565 -0.038684685 -0.053551402
000210 a6 09 05 bd f5 72 ff 3d 89 3f 23 bd 1e ba b4 3d
       -0.032479905 0.12473098 -0.039855514 0.088245615
000220 0b 21 a2 bd 5b 08 3a bd 1b 59 ef bd aa 81 ce 3d
       -0.07916459 -0.045418125 -0.116869174 0.10083325
000230 aa fe b6 3d f1 71 97 bd 3d f0 ac bd ca ad 80 bc
       0.08935292 -0.073947795 -0.08444259 -0.01570787
000240 13 d0 ea 3d f2 2c 35 bd cb d6 43 bc 0e 78 ca bd
       0.11465468 -0.044232316 -0.011953066 -0.0988618
000250 26 32 dc 3d 3b 31 8d bd 71 06 f1 bd 54 6e 9c bd
       0.107517526 -0.068941556 -0.11768807 -0.07638231
000260 71 20 67 bd 61 05 95 3d 6f 7e 85 3d 96 90 1f 3d
       -0.056427423 0.072764166 0.06518256 0.038956247
000270 41 f0 ed 3d 22 9f 99 bc c0 f1 c4 3b b5 cb f0 bd
       0.116180904 -0.018752638 0.006010264 -0.11757604
000280 cb 37 98 bd 32 39 a7 3d 40 43 38 bd 60 bf 3f 3d
       -0.07432517 0.08165206 -0.04498601 0.04681337
000290 54 25 4a bb c2 54 e8 3d e4 9e 9f 3c fe 4f f1 3d
       -0.0030845003 0.11344291 0.019484945 0.117828354
0002a0 bc 50 ff 3b 4b b8 f9 bc e5 18 ad 3d 10 7d 61 3d
       0.0077916067 -0.030483386 0.08452014 0.05505091
0002b0 5f 08 8a bc bd 5c b8 bd 83 0a 66 bd af 4a 70 3d
       -0.016849695 -0.090020634 -0.05616237 0.058664974
0002c0 d8 3d dd 3c cf 12 40 bd 92 37 20 bd 9d d1 f3 3d
       0.027007028 -0.046892937 -0.039115496 0.11905215
0002d0 c4 e0 a6 bd ff d4 73 bd a8 95 ca 3d f3 c8 41 bd
       -0.081483394 -0.0595293 0.09891826 -0.04731078
0002e0 f1 22 2b 3c ae 43 cc bd 55 5f a2 bd cd e0 0e 3c
       0.010445342 -0.099738464 -0.079283394 0.008720589
0002f0 80 6b f2 bd 84 36 65 bd 1a 72 2a bd 3d 16 ef 3d
       -0.1183691 -0.055960193 -0.041612722 0.116741635
000300 d0 ab 84 3d 80 dd b6 3b 14 98 83 bd d2 41 f4 3d
       0.06478083 0.005580604 -0.06425491 0.11926617
000310 c0 17 b5 3c 04 fd c4 3d c6 8f f8 3d 24 52 e8 3d
       0.022106051 0.096185714 0.121367976 0.11343792
000320 ae db 93 3d 22 ae 96 3d 38 2e b9 3d b0 3d 44 bd
       0.07219635 0.07357432 0.09042019 -0.047910392
000330 ee 75 8f 3d c8 2d 2d 3d 08 fb 32 bd c0 74 2c bc
       0.07004915 0.04227999 -0.043696433 -0.010525882
000340 cc 3b 28 3d 84 a5 f8 3d 8c a1 3c 3d 70 f8 11 bd
       0.04107265 0.121409446 0.0460525 -0.03563732
000350 90 dd 10 bc 88 5d b7 3c 24 17 37 3d c6 5d c2 3d
       -0.008841887 0.022383466 0.044699803 0.09490542
000360 c0 fb 48 3b e0 ce a9 3d 80 ea 7f bd ca 7a ef bd
       0.0030667633 0.082914114 -0.062479496 -0.11693342
000370 1e c3 db 3d 7c bc aa bd d0 9c 46 3c 40 9f 59 3b
       0.10730575 -0.08336732 0.012122348 0.0033206493
000380 70 d6 e6 bd 00 03 33 bd 06 e5 a4 bd 5c e8 93 bd
       -0.112713695 -0.043704033 -0.08051495 -0.072220534
000390 16 54 ce bd 30 64 e8 bd 24 fc af 3d f8 9f 15 3d
       -0.10074632 -0.11347234 0.08593014 0.03652951
0003a0 52 57 b2 bd 4c 52 23 3d 68 37 f4 bc e8 47 3a 3d
       -0.08708061 0.039873406 -0.029811576 0.04547873
0003b0 18 a8 ed bc 20 1e 5a 3d 06 78 e3 3d 6e 31 d0 3d
       -0.029010817 0.053251386 0.11106877 0.10165678
0003c0 06 2e fc 3d a0 13 eb bb d4 09 81 bd cc 78 a1 3d
       0.12313466 -0.0071739703 -0.06300703 0.07884368
0003d0 c4 35 ba bd 10 1a 85 3c 7a db 9f bd 2c f2 64 3d
       -0.09092286 0.01624778 -0.07805534 0.055895016
0003e0 c0 d2 26 3d 30 22 02 3c a0 00 38 bd 40 7d a5 bb
       0.04072833 0.007942721 -0.04492247 -0.0050503314
0003f0 78 17 1f bd 04 5a 9b bd b4 c6 1e 3d 30 d1 aa 3d
       -0.03884074 -0.075855285 0.038763717 0.083406806

fc.0.bias f4 [64]
000000 9c 44 9f 3d ac 96 e8 bd e3 de c6 3d 1c 4e 93 bd
       0.07776758 -0.113568634 0.09710481 -0.071926326
000010 70 95 16 3d e0 9c 8b bd d4 8e b6 3d 39 19 e0 bb
       0.03676361 -0.06817031 0.08913961 -0.0068389443
000020 62 15 f1 3d a5 48 95 3d 24 08 dc ba 5a 54 ab bd
       0.117716566 0.072892465 -0.0016787094 -0.08365698
000030 3a 5b b2 bd c3 55 51 3c f2 7e d4 bd 75 21 b4 3d
       -0.08708806 0.012776795 -0.103757754 0.08795444
000040 4f 32 32 3b 54 eb c9 3d 60 fb 74 bd b8 f6 22 bd
       0.002719063 0.098593384 -0.059810042 -0.03978607
000050 c4 c8 97 3d 8e 64 d4 3c 08 ce 31 bd 90 5c 91 bd
       0.0741134 0.025926854 -0.043409377 -0.07097733
000060 75 46 51 3d cc a4 ba bd 60 bb cf bd f0 a4 28 bd
       0.051092584 -0.09113464 -0.10143161 -0.04117292
000070 9e 12 6d 3d 19 d1 cf 3c 62 bf fd 3d 44 41 57 bd
       0.057879083 0.02536826 0.12390019 -0.052552477
000080 ec 4d 8e bd 78 d5 3e bd ae a3 5c 3c 68 8a e8 3d
       -0.06948456 -0.0465903 0.013466759 0.11354524
000090 3d ce 1e 3c 02 43 a4 bd 78 d4 dd bc 89 1a e2 3d
       0.009692726 -0.08020593 -0.027078852 0.110402174
0000a0 88 61 b0 bc c1 21 f2 3d 88 44 41 bd 71 de 85 3d
       -0.021530882 0.11822844 -0.047184497 0.06536568
0000b0 5c 8e 8f 3d 25 70 bd 3d 64 fc b6 3d 1a 4f a6 3d
       0.07009575 0.092499055 0.089348584 0.08120556
0000c0 69 03 e2 3d 30 9c d8 bd bc 0b 2e bd 32 34 c4 bd
       0.11035807 -0.105766654 -0.04249166 -0.09580268
0000d0 5a fa fd 3d 08 65 01 bc 38 42 b5 3d 48 fd d3 3d
       0.124012664 -0.007897623 0.08850521 0.10351044
0000e0 1b 17 dd 3d 84 27 cc 3d 8e 95 90 bd 64 87 16 bd
       0.10795423 0.099684745 -0.07059775 -0.036750212
0000f0 86 65 5a 3d 30 71 19 bd 00 65 1f ba 8f 94 e4 3d
       0.053319477 -0.03746146 -0.0006080419 0.11161148

fc.2.weight f4 [1, 64]
000000 4a 0a e1 3b d0 d2 4f bc 97 55 d2 bd f0 ce fc bd
       0.0068676816 -0.012684539 -0.10270231 -0.12344158
000010 ed eb 65 3d 1c fa 96 3d 0e a9 0c bd fb ec 24 bd
       0.0561332 0.07371923 -0.03434091 -0.040265065
000020 4d bc 73 bd e0 9f dd bd 53 29 9b 3c 48 c3 9c 3d
       -0.05950575 -0.10821509 0.018940603 0.076544344
000030 94 fa db 3d 5c 1e 42 3d 48 36 85 3c 25 0c d2 3d
       0.10741153 0.047392234 0.016261235 0.10256223
000040 67 f2 ce 3d 8a ea d0 3d 2c 0c 61 3d 26 b8 91 3d
       0.10104828 0.10200985 0.05494325 0.07115202
000050 21 f7 ba bc 7a 31 c6 bd 7c 77 b3 3d 32 ab a0 bd
       -0.022822918 -0.09677406 0.08763024 -0.07845153
000060 dc e5 9d bd a8 8f c3 3c a8 9d ed 3d 60 f9 b0 3d
       -0.07709858 0.023872212 0.11602336 0.086413145
000070 50 c0 c8 bd 64 99 8c bd 5f e0 dd 3d f0 39 3a bd
       -0.09802306 -0.068651944 0.10833811 -0.04546541
000080 f2 61 db 3d ca 03 be bd 67 8a 42 3d 39 e8 83 3d
       0.10712041 -0.092780665 0.047495272 0.06440777
000090 4a 48 ea bc 68 72 90 bc 80 19 d1 3c 69 96 ed bc
       -0.028598923 -0.017632678 0.025524855 -0.029002385
0000a0 40 41 38 3c d4 91 b2 bb 8c 84 71 3d cf 4e de bd
       0.011246026 -0.005449513 0.058964297 -0.10854875
0000b0 11 b9 1d bd 4f 3f 3f 3d 9c 50 d9 bd b0 ef d3 bd
       -0.03850657 0.046691235 -0.10611078 -0.10348451
0000c0 16 e9 cb bd 08 de 87 3c 10 3c 1e bd 00 9b 0e bc
       -0.09956567 0.016585365 -0.0386315 -0.008703947
0000d0 2d 47 85 bc 25 fd 4a bd 11 48 d5 3d ab 59 a3 bd
       -0.01626929 -0.049557824 0.10414136 -0.07976087
0000e0 d6 23 a8 3d ab 27 7d bd d6 61 8f 3d 9c a0 15 bd
       0.0820996 -0.06180541 0.070010826 -0.036530122
0000f0 07 3f 00 3d 24 ea e0 3d f0 6c 71 3c d3 bb 00 3d
       0.031310108 0.10982159 0.014735445 0.031429123
