data_files/out_gen/discriminator_epoch7.pt (torch, 137429 bytes, 9 tensors)

conv1.bias f4 [64]
-0.0007383227 0.00053151144 0.00077172223 0.0007488271 0.0 -0.00081470795 0.0 6.1013266e-06
0.0007507304 -0.00058993837 0.0 -0.00041033296 0.0 0.0007312597 0.0 0.0003349132
0.00044563846 -0.00035116798 -0.0006656531 -0.0008932892 4.3321037e-05 0.0 -0.0007240814 0.0
0.0 0.00069524854 -0.00033142438 0.0 0.0 0.0 -0.00073033443 0.0002741633
0.00037813693 0.00036810813 -0.0007201544 -0.0007985954 0.0 -0.00088293984 -0.00026198116 0.0
0.00073586457 0.0 0.0 0.0007374234 0.0 0.0 0.0 0.0
0.0 0.0 -0.0006105141 0.0 0.0 -0.00076813134 -0.0007926092 0.0006517443
0.000114133145 0.0 -0.0004874153 -0.00074730767 -0.00015017406 -0.0006254861 0.0 0.0008103911
00000000: ff8b 41ba 2155 0b3a 674d 4a3a f04c 443a
00000010: 0000 0000 2092 55ba 0000 0000 ffb9 cc36
00000020: aacc 443a 18a6 1aba 0000 0000 f521 d7b9
00000030: 0000 0000 02b2 3f3a 0000 0000 4a97 af39
00000040: 95a4 e939 f81c b8b9 397f 2eba a02b 6aba
00000050: 9cb3 3538 0000 0000 48d0 3dba 0000 0000
00000060: 0000 0000 5741 363a 07c3 adb9 0000 0000
00000070: 0000 0000 0000 0000 ea73 3fba 93bd 8f39
00000080: ae40 c639 a3fe c039 bec8 3cba d558 51ba
00000090: 0000 0000 1775 67ba 845a 89b9 0000 0000
000000a0: 09e7 403a 0000 0000 0000 0000 a64f 413a
000000b0: 0000 0000 0000 0000 0000 0000 0000 0000
000000c0: 0000 0000 0000 0000 e80a 20ba 0000 0000
000000d0: 0000 0000 6c5c 49ba 1ac7 4fba d2d9 2a3a
000000e0: c45a ef38 0000 0000 c68b ffb9 f8e6 43ba
000000f0: 0b78 1db9 a9f7 23ba 0000 0000 6d70 543a

conv1.lin.weight f4 [64, 2]
0.19520435 -0.21392949 0.038796667 0.19322726 0.0055239443 0.18250382 0.06467728 -0.09892154
-0.24729244 0.1062923 0.17642239 0.10952965 -0.041076902 -0.051304147 0.18857864 -0.23270999
0.07952641 0.1847928 -0.031264123 0.08268071 -0.12414897 -0.28662956 0.28325462 0.0052639586
-0.29410312 -0.0009754558 0.0146856 -0.25307286 -0.22951218 0.1427194 0.15922639 -0.29491347
0.14322366 -0.0577246 0.012677589 -0.26090288 0.2658395 -0.29246756 -0.20030157 0.19476217
0.13863562 -0.20962071 -0.05993606 -0.064691134 0.24674772 0.048200026 -0.15949833 -0.27266207
-0.00952075 -0.015162715 0.192828 -0.059078243 0.060971867 0.22672105 -0.13463698 -0.24438664
-0.12275309 0.07550914 -0.18966554 -0.09546933 0.22247331 6.4894135e-05 0.06895205 0.08300473
0.29447034 -0.2695483 0.12987722 -0.047045365 -0.15411994 0.28875318 -0.13583605 0.27567035
-0.27200282 0.09231951 -0.15186265 0.12476229 0.25093958 0.02873874 -0.1816278 0.102586076
0.16141911 -0.11570964 -0.28055623 0.15801461 -0.27916393 0.14593476 0.09266483 -0.15054137
-0.051011316 -0.2576399 -0.111935556 0.027904492 -0.20137112 0.001837907 -0.1376861 0.04040649
-0.27440515 0.016168363 -0.28753975 -0.12278447 0.08940375 0.09682154 -0.02684324 -0.106853224
-0.12378649 -0.017784717 0.111087196 -0.027032062 0.06576043 0.17320706 0.27593416 0.111781634
0.09829443 -0.228762 -0.28576627 0.14805165 -0.051827982 0.22264373 -0.05320925 0.097484566
0.2837118 -0.15388839 0.19298142 0.15495963 -0.22800739 -0.12005795 0.27539513 0.095918156
00000000: a6e3 473e 5510 5bbe 41e9 1e3d 5edd 453e
00000010: 3402 b53b 48e2 3a3e 8675 843d 6097 cabd
00000020: 3b3a 7dbe c7af d93d 12a8 343e 1551 e03d
00000030: 4140 28bd 4c24 52bd c21a 413e 874b 6ebe
00000040: bede a23d 533a 3d3e cf0e 00bd 8154 a93d
00000050: d141 febd 1cc1 92be c006 913e 497d ac3b
00000060: af94 96be bbb5 7fba df9b 703c c492 81be
00000070: 3e05 6bbe 0925 123e 3e0c 233e e6fe 96be
00000080: 39a9 123e a170 6cbd aab5 4f3c 1095 85be
00000090: 1d1c 883e 4fbe 95be db1b 4dbe bc6f 473e
000000a0: 7ff6 0d3e d0a6 56be 847f 75bd c97c 84bd
000000b0: 6fab 7c3e 646d 453d 8853 23be 5d9a 8bbe
000000c0: ebfc 1bbc 096d 78bc b474 453e 07fc 71bd
000000d0: a3bd 793d 9029 683e 47de 09be 7e40 7abe
000000e0: f965 fbbd 89a4 9a3d af37 42be 6d85 c3bd
000000f0: 0bd0 633e c617 8838 bb36 8d3d 62fe a93d
00000100: d1c4 963e 3c02 8abe 89fe 043e a4b2 40bd
00000110: 9ed1 1dbe 75d7 933e 9b18 0bbe aa24 8d3e
00000120: f443 8bbe 0312 bd3d e281 1bbe 5f83 ff3d
00000130: 277b 803e 826d eb3c a3fc 39be a618 d23d
00000140: 0d4b 253e 2df9 ecbd 11a5 8fbe 95ce 213e
00000150: 93ee 8ebe ec6f 153e 0fc7 bd3d 8427 1abe
00000160: 3ef1 50bd 61e9 83be 783e e5bd f697 e43c
00000170: 3b34 4ebe ede5 f03a 96fd 0cbe 4781 253d
00000180: d57e 8cbe 8473 843c 6938 93be 6d76 fbbd
00000190: 5019 b73d 5f4a c63d 5be6 dbbc ddd5 dabd
000001a0: c583 fdbd 41b1 91bc af81 e33d 5872 ddbc
000001b0: 68ad 863d 315d 313e 3e47 8d3e c5ed e43d
000001c0: 974e c93d 9640 6abe f54f 92be da9a 173e
000001d0: 9449 54bd b8fc 633e f1f1 59bd fda5 c73d
000001e0: ac42 913e eb94 1dbe ec9c 453e bdad 1e3e
000001f0: c57a 69be f1e0 f5bd 9700 8d3e bd70 c43d

conv2.bias f4 [64]
-0.00042726475 0.0 -0.000382045 -0.0007375189 -0.00034533552 -0.00030922433 0.00048103734 0.0
-0.00016706219 0.0007888593 0.0008799816 -0.000199016 -0.0005314365 -0.00053884526 0.00010066228 0.00014166783
0.0 0.0 0.0 0.0005371874 -0.00016977411 0.0 -7.732069e-05 0.0
0.00050866517 0.00054114865 0.0004223262 0.00055766135 -0.000810803 0.0 0.0 -5.4018637e-05
0.0 -0.0006482535 0.0007341988 -0.00014995363 -0.00073535746 -0.00053497416 0.0 0.0007392307
-0.0005515846 -0.00020939842 0.0 0.00055565214 0.0 0.0 -0.0008206512 -0.00041650917
-0.00081712933 0.0002764862 -0.00037504936 0.0005841877 0.0 -0.00060285255 0.0008177239 0.00017982475
-0.00061110355 -0.00058122526 0.00078629126 0.0 -0.00031047748 -0.0007200837 -0.00019901927 -0.00010736016
00000000: 8102 e0b9 0000 0000 364d c8b9 0e56 41ba
00000010: 260e b5b9 631f a2b9 bd33 fc39 0000 0000
00000020: 6a2d 2fb9 74cb 4e3a 91ae 663a f3ae 50b9
00000030: 1a50 0bba 4b41 0dba a61a d338 ab8c 1439
00000040: 0000 0000 0000 0000 0000 0000 09d2 0c3a
00000050: 6405 32b9 0000 0000 3b27 a2b8 0000 0000
00000060: f157 053a dfdb 0d3a aa6b dd39 0530 123a
00000070: 118c 54ba 0000 0000 0000 0000 1292 62b8
00000080: 0000 0000 8eef 29ba 3f77 403a df3c 1db9
00000090: 01c5 40ba 823d 0cba 0000 0000 efc8 413a
000000a0: 3798 10ba f691 5bb9 0000 0000 2fa9 113a
000000b0: 0000 0000 0000 0000 f820 57ba ea5e dab9
000000c0: 9f34 56ba 59f5 9039 46a2 c4b9 2c24 193a
000000d0: 0000 0000 c008 1eba 865c 563a 578f 3c39
000000e0: 7732 20ba 5e5d 18ba 1d1f 4e3a 0000 0000
000000f0: 95c7 a2b9 00c4 3cba d4af 50b9 8c26 e1b8

conv2.lin.weight f4 [64, 64]
-0.1889296 -0.2111905 -0.12027369 -0.11490695 -0.18103376 0.16201483 0.06945504 0.091722965
-0.0011565062 -0.18386433 -0.13504903 0.13125505 0.010795342 0.18905166 -0.060415912 -0.20309715
0.00235061 0.12522419 0.09366219 0.14336106 0.09564883 -0.0259724 0.012327007 -0.16175762
0.03128925 -0.09940774 0.04039634 -0.00068457297 -0.04428953 0.17856714 0.03494246 0.08474201
0.16625458 -0.20968987 -0.082747966 -0.03315875 0.048846982 -0.16505183 0.19227673 -0.046803303
-0.14216103 0.0607741 -0.17824914 0.029294651 0.08714823 0.091684744 -0.0016926173 0.11747836
-0.08526539 0.12865184 0.033021495 0.14171016 -0.11070601 0.1858703 0.15609916 -0.024545878
0.10391574 -0.1506738 0.1669844 0.11694571 -0.137284 0.111705214 -0.062216107 0.200391
0.009438585 0.08859766 -0.06439144 -0.030036634 0.09558736 0.018701922 0.17411655 -0.20249811
0.021229634 0.10060311 -0.08936963 0.08854876 -0.035634704 0.11977173 0.14603451 0.20577624
0.07317018 0.16258751 0.1436885 -0.10577966 -0.15534075 0.19668227 -0.07999438 0.07852259
0.121716164 -0.15236859 0.12755413 -0.08022274 -0.17799315 0.12266733 -0.065399535 -0.002254982
0.101318635 -0.18004365 -0.0981104 0.21421446 -0.19970597 -0.045431215 0.18903852 -0.006953304
-0.2024366 0.19129251 -0.16675048 0.10675596 0.17327927 0.18980934 -0.17874037 0.04986953
0.16227564 0.006493016 0.13751699 0.10722985 0.19938727 0.04687358 -0.062376022 -0.16688175
0.021974085 0.028535755 0.034165647 0.053564608 0.10244966 -0.09336784 0.11021047 -0.16409194
0.051003337 -0.1761379 0.111724004 0.07194938 -0.1303451 -0.20269491 -0.15868269 0.052221637
0.050382104 -0.14831024 0.030094989 0.09421504 -0.020235501 -0.21287058 -0.040608775 -0.1839938
0.12922758 0.17101571 -0.066200964 0.12384851 -0.19526997 -0.13218716 -0.11875551 -0.034471646
-0.10409858 -0.056015786 -0.11373677 0.19145122 -0.09136561 -0.103874065 0.15376122 0.0038957086
0.13535139 -0.19891427 -0.07792366 -0.029596474 0.07097267 -0.1698149 0.03015258 0.04500004
-0.11559228 0.009954054 -0.01728552 0.16346885 -0.1964767 0.08424628 -0.035337016 -0.0035557842
-0.13970526 -0.06388252 0.09588 0.1806328 -0.06931593 0.012805254 -0.08013508 0.09655234
-0.032743383 -0.075956784 -0.120204665 0.08979933 0.08156961 0.1636302 -0.097772576 0.059973635
-0.099517345 0.15350948 -0.08442472 -0.05373879 -0.17179431 0.017996272 -0.19875158 0.1346609
0.0062480546 0.1258985 0.041834652 -0.11537825 0.014225692 0.09216095 -0.21138896 -0.037175123
-0.11669676 0.08441464 0.120280184 0.143299 -0.16033152 -0.19027929 0.006082539 0.16675445
0.014883913 0.18600312 -0.09451085 -0.13670515 0.08119538 -0.027114473 -0.09547136 0.096247725
-0.16783081 -0.13795756 0.059362512 -0.04073485 0.055903755 0.21114786 0.2130999 0.21481006
-0.13022527 0.09479142 -0.018284969 0.10236291 0.07488636 -0.05847697 0.11050986 -0.078044675
0.024820907 -0.13393271 -0.027433747 0.15938988 -0.17886443 -0.19337255 0.15798818 0.053270113
-0.11468861 0.020623857 0.14222091 0.17554092 0.12471799 0.06291415 -0.033088718 -0.20109713
00000000: c376 41be 5342 58be 0d52 f6bd 5654 ebbd
00000010: ea60 39be 37e7 253e 723e 8e3d 40d9 bb3d
00000020: e995 97ba ee46 3cbe 4b4a 0abe b967 063e
00000030: f2de 303c c296 413e ad76 77bd b3f8 4fbe
00000040: b10c 1a3b c53a 003e f6d1 bf3d 3ecd 123e
00000050: 89e3 c33d 12c4 d4bc 37f7 493c caa3 25be
00000060: 2829 003d 4996 cbbd a276 253d ea74 33ba
00000070: f068 35bd 4eda 363e d31f 0f3d 388d ad3d
00000080: a43e 2a3e f1b8 56be c477 a9bd 78d1 07bd
00000090: c613 483d 5903 29be 31e4 443e d2b4 3fbd
000000a0: a992 11be 43ee 783d f186 36be 56fb ef3c
000000b0: c57a b23d 36c5 bb3d d0da ddba 7f98 f03d
000000c0: 9f9f aebd 4fbd 033e 8c41 073d 781c 113e
000000d0: d5b9 e2bd c954 3e3e 75d8 1f3e 7014 c9bc
000000e0: c7d1 d43d 3c4a 1abe f5fd 2a3e 3b81 ef3d
000000f0: 2d94 0cbe b4c5 e43d 51d6 7ebd 4c33 4d3e
00000100: 4ba4 1a3c b172 b53d a9df 83bd 630f f6bc
00000110: 4ec3 c33d c634 993c 9c4b 323e aa5b 4fbe
00000120: c5e9 ad3c 0109 ce3d 6d07 b7bd 0d59 b53d
00000130: b2f5 11bd e14a f53d 128a 153e 02b7 523e
00000140: 3fda 953d 577d 263e 1423 133e 02a3 d8bd
00000150: a511 1fbe 1467 493e 18d4 a3bd 74d0 a03d
00000160: 5346 f93d 8306 1cbe 8d9d 023e d24b a4bd
00000170: d643 36be 0239 fb3d 31f0 85bd 52c8 13bb
00000180: 2580 cf3d 5d5d 38be 1bee c8bd 095b 5b3e
00000190: b97f 4cbe 1516 3abd 5093 413e 8bd8 e3bb
000001a0: 8a4b 4fbe 2fe2 433e a3c0 2abe dea2 da3d
000001b0: 1f70 313e 615d 423e b707 37be fe43 4c3d
000001c0: 962b 263e 5ec3 d43b 41d1 0c3e 539b db3d
000001d0: 2d2c 4c3e 83fe 3f3d 007e 7fbd 0de3 2abe
000001e0: ff02 b43c d1c3 e93c 47f1 0b3d 9066 5b3d
000001f0: 21d1 d13d a337 bfbd 07b6 e13d b807 28be
00000200: e0e8 503d 7e5d 34be 8ecf e43d 325a 933d
00000210: 3079 05be 418f 4fbe b77d 22be 5be6 553d
00000220: 775d 4e3d a4de 17be c489 f63c d1f3 c03d
00000230: ecc4 a5bc bffa 59be 6355 26bd df68 3cbe
00000240: 3c54 043e be1e 2f3e 5f94 87bd 4aa4 fd3d
00000250: daf4 47be 125c 07be 1736 f3bd 2432 0dbd
00000260: a331 d5bd cf70 65bd d3ee e8bd ca0b 443e
00000270: e51d bbbd edbb d4bd 9573 1d3e 254f 7f3b
00000280: 8e99 0a3e 2fb0 4bbe 7196 9fbd 4e74 f2bc
00000290: 1f5a 913d f5e3 2dbe 8b02 f73c f651 383d
000002a0: a5bb ecbd 5416 233c 5d9a 8dbc 6164 273e
000002b0: 3031 49be 5089 ac3d 8cbd 10bd 2908 69bb
000002c0: e50e 0fbe d7d4 82bd bc5c c43d cef7 383e
000002d0: 83f5 8dbd 21cd 513c dc1d a4bd 3cbd c53d
000002e0: ed1d 06bd 3b8f 9bbd dd2d f6bd b6e8 b73d
000002f0: f80d a73d ad8e 273e fd3c c8bd eaa6 753d
00000300: c0cf cbbd 9731 1d3e dee6 acbd 351d 5cbd
00000310: d9ea 2fbe eb6c 933c 8985 4bbe 8ce4 093e
00000320: 7bbc cc3b 89eb 003e d05a 2b3d 6f4b ecbd
00000330: e012 693c e1be bc3d 5976 58be f144 18bd
00000340: b6fe eebd 95e1 ac3d 7555 f63d f9bc 123e
00000350: f22d 24be 93d8 42be 0950 c73b aec1 2a3e
00000360: a8db 733c 9a77 3e3e e88e c1bd 6ffc 0bbe
00000370: c349 a63d 2c1f debc 7d86 c3bd 871d c53d
00000380: d7db 2bbe bf44 0dbe 1b26 733d 96d9 26bd
00000390: 56fb 643d 2537 583e dc36 5a3e 2bf7 5b3e
000003a0: c659 05be 0122 c23d 5cca 95bc a5a3 d13d
000003b0: 055e 993d 8c85 6fbd fe52 e23d e3d5 9fbd
000003c0: 3755 cb3c a825 09be bdbc e0bc 1a37 233e
000003d0: 3d28 37be 7403 46be a7c7 213e c331 5a3d
000003e0: dde1 eabd 5df3 a83c 5ca2 113e 00c1 333e
000003f0: 256c ff3d 22d9 803d 0988 07bd 68ec 4dbe

conv1d.weight f4 [64, 128, 3]
-0.037518963 0.035468157 0.039170727 0.04906228 -0.010933326 0.030666312 0.043806817 0.022887032
0.033681646 0.044550147 0.027612057 -0.046223864 0.016806208 -0.0401768 0.0424642 0.04901616
0.03362153 -0.00438186 -0.0016604691 0.03236749 -0.021964958 -0.042765237 0.048450317 0.027710333
0.045907766 0.018480754 0.0339853 -0.048855357 0.049826913 -0.023093624 0.0029025662 0.001141971
-0.014016604 0.043817695 -0.009466016 0.010442665 0.042483468 -0.04867888 -0.008354601 0.011991784
-0.0058518527 0.03739897 -0.007302652 0.010087627 0.030451203 0.008970239 -0.032288864 -0.02947181
-0.02377779 0.009437047 0.0015581346 0.02211787 0.02867232 0.02737068 0.0035689087 -0.012538734
0.018483443 0.048138447 -0.02146379 -0.047284536 0.03356932 -0.038481973 0.013390595 -0.026503794
0.048369087 0.0453571 -0.032637354 -0.04456542 0.001948967 0.0135906525 -0.016393099 -0.028670685
-0.015896684 -0.01574517 0.012830827 -0.01976414 -0.05049876 0.028009387 0.016285077 -0.029288337
-0.048431076 -0.000867045 0.0018778888 -0.009510674 -0.04726888 0.05005887 -0.007405072 0.018645875
-0.032510985 -0.006865884 -0.020876033 0.003109182 0.018012024 -0.027433436 -0.028396422 -0.018326394
0.017741308 0.0129367085 0.0033473035 0.0016656703 -0.044045158 -0.03625327 -0.04947603 0.01268232
-0.04657669 0.03758616 -0.03831809 0.043000754 -0.0027859844 0.046930578 0.045118023 0.03494383
-0.024879776 0.049081177 -0.0064025866 -0.013753827 -0.0049938476 0.015161525 -0.006001516 -0.017495394
0.03778914 0.039077986 -0.027757213 0.029208353 0.0005905861 -0.039340444 0.02106744 -0.0029066908
0.002622141 -0.046615493 0.0055343495 -0.00897794 -0.010261666 -0.01753805 0.039765608 -0.019083628
-0.008832736 0.010614119 -0.039780397 0.013391684 0.02859246 -0.015861819 0.0030771592 -0.015186157
0.046725936 -0.023317663 -0.045692414 -0.030251341 0.04453283 -0.029841729 -0.014695326 -0.02008418
0.0026030573 -0.03284789 0.0345898 0.036768783 -0.017772071 -0.022839796 0.033266034 -0.039914306
0.0508218 -0.011467409 -0.00690146 0.031848956 0.017410258 -0.01693444 0.025005208 0.0039871954
0.0009170625 0.048839338 -0.034917846 -0.0073742173 -0.026029302 0.036113564 0.006679502 0.026668288
-0.031194903 0.00022998195 0.050358523 -0.027676485 -0.03578861 0.037052862 0.0046782605 0.04573068
-0.028285425 -0.026517792 0.013258574 -0.0024616495 -0.032953832 -0.019709017 -0.04659821 0.009252392
-0.012260438 -0.042357802 0.04019131 0.040989984 0.011297707 0.029096004 -0.017427929 -0.029107131
-0.03252457 0.0392208 0.035490677 -0.01072806 0.0037698545 0.041663885 -0.016730415 0.012736754
-0.011336282 -0.0034516517 0.032232396 0.014546588 0.010528574 -0.03899509 -0.044103585 0.038324732
0.0068424935 -0.0050465297 -0.0042370153 0.05070066 -0.033847906 -0.00025994255 0.04291431 -0.04481261
0.03559566 0.03567099 0.037071392 0.03788014 -0.043697458 0.02791235 0.031986482 -0.021105109
0.01968559 0.04457754 0.028495356 0.0022784972 0.039341107 0.038459048 0.03915404 0.04057101
0.045791417 0.016792137 0.039470676 -0.04493199 -0.00066680467 0.01383459 0.032347463 -0.026236763
-0.004297934 0.0071471613 -0.013833106 -0.039862707 0.03437488 0.034487195 0.01762708 0.044298757
00000000: 7cad 19bd 0f47 113d 7c71 203d 88f5 483d
00000010: b121 33bc eb37 fb3c c76e 333d 967d bb3c
00000020: c4f5 093d 377a 363d ae32 e23c 3c55 3dbd
00000030: 2cad 893c 6e90 24bd f1ee 2d3d 2bc5 483d
00000040: bbb6 093d b595 8fbb 19a4 d9ba c693 043d
00000050: dbef b3bc 9a2a 2fbd d773 463d c800 e33c
00000060: c809 3c3d f364 973c 2c34 0b3d 8e1c 48bd
00000070: 4e17 4c3d d72e bdbc fb38 3e3b 30ae 953a
00000080: e6a5 65bc 2f7a 333d 5917 1bbc b617 2b3c
00000090: 2503 2e3d 8163 47bd bde1 08bc 3079 443c
000000a0: e6c0 bfbb aa2f 193d 164b efbb 9346 253c
000000b0: cd74 f93c e9f7 123c 5441 04bd de6e f1bc
000000c0: a4c9 c2bc d89d 1a3c 523a cc3a 8930 b53c
000000d0: 37e2 ea3c 7a38 e03c 5ae4 693b 436f 4dbc
000000e0: 976a 973c d22c 453d d5d4 afbc 6ead 41bd
000000f0: fc7f 093d 469f 1dbd 3a64 5b3c 7c1e d9bc
00000100: aa1e 463d 5ec8 393d bfae 05bd 3b8a 36bd
00000110: 7b74 ff3a 54ab 5e3c d24a 86bc c9de eabc
00000120: c339 82bc 04fc 80bc 6438 523c 68e8 a1bc
00000130: cad7 4ebd f173 e53c 4868 853c 18ee efbc
00000140: aa5f 46bd 684a 63ba 7e23 f63a a8d2 1bbc
00000150: 039d 41bd 880a 4d3d 3fa6 f2bb 3cbf 983c
00000160: 3d2a 05bd 36fb e0bb 3704 abbc 6bc3 4b3b
00000170: f48d 933c 16bc e0bc 9d9f e8bc 3c21 96bc
00000180: 3856 913c 7df4 533c 6f5e 5b3b 9f52 da3a
00000190: b268 34bd 4f7e 14bd 61a7 4abd 81c9 4f3c
000001a0: 33c7 3ebd f2f3 193d 6ef3 1cbd 8f21 303d
000001b0: 1095 36bb 473a 403d adcd 383d 4321 0f3d
000001c0: acd0 cbbc 5809 493d cacc d1bb bb57 61bc
000001d0: 6ea3 a3bb 0c68 783c 5da8 c4bb 8052 8fbc
000001e0: c9c8 1a3d 3d10 203d 1863 e3bc 5b46 ef3c
000001f0: 90d1 1a3a 7223 21bd a095 ac3c 2e7e 3ebb
00000200: 3ad8 2b3b e3ef 3ebd 7d59 b53b 3618 13bc
00000210: 8c20 28bc f5ab 8fbc 43e1 223d 4555 9cbc
00000220: 2eb7 10bc d7e6 2d3c c5f0 22bd cb68 5b3c
00000230: bc3a ea3c a5f0 81bc 2aaa 493b 5ccf 78bc
00000240: b263 3f3d af04 bfbc f827 3bbd a9d1 f7bc
00000250: 0f68 363d a476 f4bc aac4 70bc 9487 a4bc
00000260: 0e98 2a3b 828b 06bd 09ae 0d3d dd9a 163d
00000270: bc96 91bc 861a bbbc f741 083d 2f7d 23bd
00000280: 852a 503d cde1 3bbc a425 e2bb 0d74 023d
00000290: f59f 8e3c 18ba 8abc b9d7 cc3c 05a7 823b
000002a0: 0667 703a c20b 483d 0406 0fbd 6ba3 f1bb
000002b0: 673b d5bc d1eb 133d b9df da3b 7477 da3c
000002c0: 748c ffbc 4f27 7139 bd44 4e3d ccb9 e2bc
000002d0: 1497 12bd bec4 173d 184c 993b 1850 3b3d
000002e0: d6b6 e7bc d73b d9bc 7d3a 593c a053 21bb
000002f0: 99fa 06bd ce74 a1bc c4dd 3ebd 5897 173c
00000300: 01e0 48bc 607f 2dbd a59f 243d 1de5 273d
00000310: 051a 393c be5a ee3c 04c5 8ebc 1472 eebc
00000320: 7c38 05bd fda5 203d ac5e 113d bfc4 2fbc
00000330: aa0f 773b c0a7 2a3d 390e 89bc d1ad 503c
00000340: d0bb 39bc 1b35 62bb 1e06 043d d054 6e3c
00000350: 0a80 2c3c 51b9 1fbd f6a5 34bd 65fa 1c3d
00000360: ff36 e03b 5c5d a5bb a9d6 8abb 7fab 4f3d
00000370: 1aa4 0abd e648 88b9 eac6 2f3d 6d8d 37bd
00000380: c1cc 113d be1b 123d 2cd8 173d 3528 1b3d
00000390: 1bfc 32bd 71a8 e43c 4204 033d 9fe4 acbc
000003a0: ad43 a13c f096 363d 186f e93c d752 153b
000003b0: 2424 213d 3c87 1d3d fd5f 203d ca2d 263d
000003c0: c88f 3b3d aa8f 893c 01ac 213d 9b0a 38bd
000003d0: 81cc 2eba 7aaa 623c c67e 043d 7bee d6bc
000003e0: afd5 8cbb bc32 ea3b 40a4 62bc 1447 23bd
000003f0: adcc 0c3d 7242 0d3d ab66 903c 9d72 353d

conv1d.bias f4 [64]
-0.022641094 -0.030951086 0.0049924576 0.03364033 0.04972786 0.009916468 -0.03375486 0.04676187
-0.010045849 0.05063003 -0.012468265 0.004991741 -0.028249394 -0.045624632 0.047133867 -0.018858382
0.013891516 0.008259577 0.016016634 0.01111913 -0.005055596 -0.015387092 0.050354082 0.046246786
-0.009624901 -0.033852793 0.014638016 0.021088036 0.0014028669 -0.030145228 -0.017201846 0.028022131
-0.041581474 -0.01865573 -0.03984933 -0.011596608 0.010173348 0.044164393 -0.0009968553 0.027974643
-0.008584847 0.049393438 0.0054926537 -0.03787672 0.032247096 0.03830278 -0.026502505 -0.012949698
0.035654757 -0.004821122 -0.0028017315 0.046302367 -0.0068128314 0.029280948 -0.032026492 -0.020989314
0.016679151 -0.02668622 0.02623322 0.0046603777 0.0029054594 0.0028125942 -0.024457641 0.045676876
00000000: d179 b9bc 228d fdbc c597 a33b 71ca 093d
00000010: 71af 4b3d ae78 223c 8942 0abd 6089 3f3d
00000020: 5897 24bc 6f61 4f3d b247 4cbc c291 a33b
00000030: 466b e7bc e5e0 3abd 710f 413d e57c 9abc
00000040: 3e99 633c 2d53 073c 5135 833c 032d 363c
00000050: 6aa9 a5bb 241a 7cbc 1540 4e3d 456d 3d3d
00000060: c3b1 1dbc 3aa9 0abd 4ad4 6f3c d1c0 ac3c
00000070: 67e0 b73a 20f3 f6bc e3ea 8cbc ab8e e53c
00000080: 5651 2abd e7d3 98bc 0d39 23bd b3ff 3dbc
00000090: 1dae 263c b9e5 343d eaa8 82ba 142b e53c
000000a0: 75a7 0cbc c650 4a3d b8fb b33b 9f24 1bbd
000000b0: 8815 043d 60e3 1c3d c81b d9bc f82a 54bc
000000c0: b90a 123d 81fa 9dbb 419d 37bb 8da7 3d3d
000000d0: 2c3e dfbb 99de ef3c 362e 03bd c8f1 abbc
000000e0: b7a2 883c 0f9d dabc 0de7 d63c 15b6 983b
000000f0: 8569 3e3b 8053 383b 645b c8bc ad17 3b3d

fc.0.weight f4 [64, 64]
-0.066282645 -0.075299054 -0.10314669 0.08938055 -0.121730246 0.08373182 -0.11730977 0.08972545
0.040792137 -0.064338595 0.093765736 0.018634826 0.0249416 0.11279028 0.056381013 0.10274092
-0.0594932 0.018200615 -0.05030549 0.12549692 -0.12505601 0.03636668 0.021288268 -0.05707552
-0.041806705 0.019172968 -0.101101995 0.07769613 -0.049785696 0.013235212 0.054953426 0.08664796
0.086327724 0.09031993 0.024588853 -0.054293737 -0.12175724 -0.008378039 0.06980462 0.11066592
0.107055254 -0.02627527 -0.04255236 0.017563641 -0.02970843 0.08507445 -0.04191467 -0.07297849
0.014742364 0.05851769 0.12355616 -0.08645904 0.1164355 -0.09631772 0.033380404 0.07511045
-0.013803525 -0.09318386 -0.066312425 -0.07735621 -0.064627804 -0.010665086 0.019235559 -0.09814909
0.11742285 0.10644126 0.11009237 0.014808565 -0.016891599 -0.057357714 0.025665596 0.014298573
-0.058293372 0.091987655 -0.02699253 -0.013242647 -0.045752645 0.08772716 0.10827187 0.073332205
-0.0998947 -0.06388666 0.013105854 0.026964217 0.08542134 -0.025755182 0.06344648 -0.0146431625
0.024652809 -0.035657585 -0.11980061 0.07106462 0.11640841 0.05331394 -0.08004521 -0.07319391
0.09817152 -0.08140141 0.048080757 0.092871994 -0.07108556 -0.08080442 0.07312596 -0.089943886
0.10901947 -0.04267171 0.12310323 0.12208295 -0.024536237 0.029646695 -0.004183471 0.008950189
-0.004691556 0.07166478 0.036765292 0.024573863 0.10591468 -0.009092957 0.012816057 -0.020334095
-0.09878464 0.08339855 -0.05984342 0.06718467 0.10124643 -0.11144452 0.10955092 -0.06250848
-0.012292489 -0.08552565 -0.038357828 -0.05343616 -0.032669984 0.12491294 -0.04013409 0.087696366
-0.0794141 -0.045069452 -0.11699825 0.10085508 0.08913468 -0.07344242 -0.08419939 -0.01601494
0.11512872 -0.044595003 -0.012224334 -0.09926504 0.10801747 -0.069177456 -0.11728342 -0.07619315
-0.056074895 0.07239146 0.064973414 0.038601562 0.11674339 -0.018854303 0.006010264 -0.11727355
-0.0737711 0.08225441 -0.04498601 0.04681337 -0.0032375918 0.113436475 0.019985832 0.117921345
0.007817507 -0.030903723 0.084447876 0.05505091 -0.016682263 -0.09035925 -0.056466162 0.05838329
0.026964068 -0.046967436 -0.03865049 0.11909306 -0.08129673 -0.059913155 0.09891826 -0.047769055
0.0102193905 -0.09929709 -0.07974738 0.008663216 -0.1183058 -0.055993274 -0.0411122 0.11652505
0.06478083 0.005580604 -0.06425491 0.11926617 0.022106051 0.096185714 0.121367976 0.11343792
0.07219635 0.07357432 0.09042019 -0.047910392 0.07004915 0.04227999 -0.043696433 -0.010525882
0.04107265 0.121409446 0.0460525 -0.03563732 -0.008841887 0.022383466 0.044699803 0.09490542
0.0030667633 0.082914114 -0.062479496 -0.11693342 0.10730575 -0.08336732 0.012122348 0.0033206493
-0.112713695 -0.043704033 -0.08051495 -0.072220534 -0.10074632 -0.11347234 0.08593014 0.03652951
-0.08708061 0.039873406 -0.029811576 0.04547873 -0.029010817 0.053251386 0.11106877 0.10165678
0.12313466 -0.0071739703 -0.06300703 0.07884368 -0.09092286 0.01624778 -0.07805534 0.055895016
0.04072833 0.007942721 -0.04492247 -0.0050503314 -0.03884074 -0.075855285 0.038763717 0.083406806
00000000: 32bf 87bd 6436 9abd 923e d3bd 260d b73d
00000010: b54d f9bd 977b ab3d 1b40 f0bd fac1 b73d
00000020: a815 273d f4c3 83bd 4008 c03d 10a8 983c
00000030: 5452 cc3c 97fe e63d c7ef 663d d569 d23d
00000040: 24af 73bd 7519 953c 210d 4ebd 4482 003e
00000050: af0e 00be 3af5 143d bc64 ae3c 05c8 69bd
00000060: 823d 2bbd a110 9d3c 900e cfbd 261f 9f3d
00000070: 16ec 4bbd 81d8 583c d816 613d 7c74 b13d
00000080: 97cc b03d a8f9 b83d 906e c93c 1c63 5ebd
00000090: dc5b f9bd 0b44 09bc baf5 8e3d d0a4 e23d
000000a0: c93f db3d 3c3f d7bc 624b 2ebd a0e1 8f3c
000000b0: 185f f3bc 833b ae3d b8ae 2bbd bf75 95bd
000000c0: f589 713c 3fb0 6f3d 030b fd3d 7011 b1bd
000000d0: bc75 ee3d 3a42 c5bd e4b9 083d 82d3 993d
000000e0: 2e28 62bc 2ed7 bebd cfce 87bd ef6c 9ebd
000000f0: 955b 84bd 9dbc 2ebc e493 9d3c 6402 c9bd
00000100: 647b f03d e0fd d93d 1c78 e13d a09f 723c
00000110: 4060 8abc ecef 6abd a840 d23c 9044 6a3c
00000120: 08c5 6ebd 0664 bc3d 701f ddbc b0f7 58bc
00000130: 2067 3bbd 4caa b33d a4bd dd3d 322f 963d
00000140: 9895 ccbd 02d7 82bd f0b9 563c 10e4 dc3c
00000150: 62f1 ae3d 88fc d2bc 3af0 813d e0e9 6fbc
00000160: b0f4 c93c b00d 12bd 065a f5bd 548a 913d
00000170: 8867 ee3d b85f 5a3d beee a3bd b0e6 95bd
00000180: 260e c93d c8b5 a6bd 54f0 443d ac33 be3d
00000190: 4e95 91bd ca7c a5bd 10c3 953d 8034 b8bd
000001a0: 9a45 df3d 88c8 2ebd 8c1d fc3d a006 fa3d
000001b0: 3800 c9bc a0dd f23c 8015 89bb d0a3 123c
000001c0: a0bb 99bb fcc4 923d 3497 163d 204f c93c
000001d0: cce9 d83d a0fa 14bc 70fa 513c b093 a6bc
000001e0: 9a4f cabd dccc aa3d 601e 75bd 1e98 893d
000001f0: 4a5a cf3d 063d e4bd 3c5c e03d 7204 80bd
00000200: 7066 49bc 1228 afbd 191d 1dbd e0df 5abd
00000210: f6d0 05bd 5bd2 ff3d a563 24bd 279a b33d
00000220: dca3 a2bd bf9a 38bd c79c efbd 1c8d ce3d
00000230: 3e8c b63d fb68 96bd bb70 acbd c331 83bc
00000240: 9bc8 eb3d 40a9 36bd 9348 48bc 784b cbbd
00000250: 4338 dd3d e9ac 8dbd 4a32 f0bd 270b 9cbd
00000260: caae 65bd f941 943d c810 853d ac1c 1e3d
00000270: 2917 ef3d 5774 9abc c0f1 c43b 1d2d f0bd
00000280: 4d15 97bd 0075 a83d 4043 38bd 60bf 3f3d
00000290: c72d 54bb 6251 e83d 54b9 a33c bf80 f13d
000002a0: 0015 003c ce29 fdbc 02f3 ac3d 107d 613d
000002b0: 3ea9 88bc 450e b9bd 1049 67bd 5123 6f3d
000002c0: c0e3 dc3c ed60 40bd fa4f 1ebd 10e7 f33d
000002d0: e67e a6bd 7f67 75bd a895 ca3d 7ca9 43bd
000002e0: 3b6f 273c 465c cbbd 9852 a3bd 29f0 0d3c
000002f0: 504a f2bd 3459 65bd 4465 28bd afa4 ee3d
00000300: d0ab 843d 80dd b63b 1498 83bd d241 f43d
00000310: c017 b53c 04fd c43d c68f f83d 2452 e83d
00000320: aedb 933d 22ae 963d 382e b93d b03d 44bd
00000330: ee75 8f3d c82d 2d3d 08fb 32bd c074 2cbc
00000340: cc3b 283d 84a5 f83d 8ca1 3c3d 70f8 11bd
00000350: 90dd 10bc 885d b73c 2417 373d c65d c23d
00000360: c0fb 483b e0ce a93d 80ea 7fbd ca7a efbd
00000370: 1ec3 db3d 7cbc aabd d09c 463c 409f 593b
00000380: 70d6 e6bd 0003 33bd 06e5 a4bd 5ce8 93bd
00000390: 1654 cebd 3064 e8bd 24fc af3d f89f 153d
000003a0: 5257 b2bd 4c52 233d 6837 f4bc e847 3a3d
000003b0: 18a8 edbc 201e 5a3d 0678 e33d 6e31 d03d
000003c0: 062e fc3d a013 ebbb d409 81bd cc78 a13d
000003d0: c435 babd 101a 853c 7adb 9fbd 2cf2 643d
000003e0: c0d2 263d 3022 023c a000 38bd 407d a5bb
000003f0: 7817 1fbd 045a 9bbd b4c6 1e3d 30d1 aa3d

fc.0.bias f4 [64]
0.07827341 -0.113568634 0.09661166 -0.071926326 0.0371365 -0.06817031 0.08864803 -0.0069706417
0.11722401 0.07239921 -0.0011817723 -0.08365698 -0.08708806 0.012855675 -0.103757754 0.08844891
0.0027515409 0.099088065 -0.059810042 -0.03978607 0.073623344 0.025838181 -0.043409377 -0.07097733
0.050598312 -0.09113464 -0.10143161 -0.04117292 0.057386003 0.024873279 0.12439464 -0.052552477
-0.06948456 -0.0465903 0.013820146 0.11404031 0.009200752 -0.08020593 -0.027078852 0.10991088
-0.021530882 0.11775037 -0.047184497 0.06487247 0.06960129 0.09299474 0.08885532 0.08071231
0.10986494 -0.105766654 -0.04249166 -0.09580268 0.12352401 -0.007956113 0.088999934 0.1030175
0.1084491 0.099192165 -0.07059775 -0.036750212 0.05381536 -0.03746146 -0.0006080419 0.11210795
00000000: cf4d a03d ac96 e8bd 56dc c53d 1c4e 93bd
00000010: 711c 183d e09c 8bbd 198d b53d fb69 e4bb
00000020: 2413 f03d 0946 943d b3e5 9aba 5a54 abbd
00000030: 3a5b b2bd 9ca0 523c f27e d4bd b424 b53d
00000040: 3253 343b afee ca3d 60fb 74bd b8f6 22bd
00000050: d6c7 963d 98aa d33c 08ce 31bd 905c 91bd
00000060: 2d40 4f3d cca4 babd 60bb cfbd f0a4 28bd
00000070: 960d 6b3d 0cc3 cb3c 9ec2 fe3d 4441 57bd
00000080: ec4d 8ebd 78d5 3ebd e56d 623c f78d e93d
00000090: c0be 163c 0243 a4bd 78d4 ddbc f518 e13d
000000a0: 8861 b0bc 1b27 f13d 8844 41bd dcdb 843d
000000b0: 1f8b 8e3d 0774 be3d c7f9 b53d 7f4c a53d
000000c0: df00 e13d 309c d8bd bc0b 2ebd 3234 c4bd
000000d0: 28fa fc3d 5b5a 02bc 9945 b63d d7fa d23d
000000e0: 901a de3d 4325 cb3d 8e95 90bd 6487 16bd
000000f0: 7f6d 5c3d 3071 19bd 0065 1fba da98 e53d

fc.2.weight f4 [1, 64]
0.0073988577 -0.012684539 -0.10224619 -0.12344158 0.056521084 0.07371923 -0.033911295 -0.04077018
-0.059040233 -0.107839875 0.01913593 0.076544344 0.10741153 0.047229853 0.016261235 0.10309416
0.10139477 0.10257132 0.05494325 0.07115202 -0.022280129 -0.097191244 0.08763024 -0.07845153
-0.07716551 0.023872212 0.11602336 0.086413145 -0.09755919 -0.069132574 0.10886648 -0.04546541
0.10712041 -0.092780665 0.04772117 0.0648703 -0.028347602 -0.017632678 0.025524855 -0.02857173
0.011246026 -0.0049282974 0.058964297 -0.10812807 -0.038473304 0.04722036 -0.10567806 -0.10314721
-0.09911992 0.016585365 -0.0386315 -0.008703947 -0.015767368 -0.049950443 0.104700595 -0.07932301
0.082597785 -0.061313484 0.070010826 -0.036530122 0.03164581 0.10982159 0.014735445 0.03193317
00000000: 1e72 f23b d0d2 4fbc 7366 d1bd f0ce fcbd
00000010: a782 673d 1cfa 963d 92e6 0abd a2fe 26bd
00000020: 2cd4 71bd 27db dcbd f4c2 9c3c 48c3 9c3d
00000030: 94fa db3d 1774 413d 4836 853c 0823 d33d
00000040: 10a8 cf3d ea10 d23d 2c0c 613d 26b8 913d
00000050: d184 b6bc 340c c7bd 7c77 b33d 32ab a0bd
00000060: f308 9ebd a88f c33c a89d ed3d 60f9 b03d
00000070: 1dcd c7bd 6195 8dbd 64f5 de3d f039 3abd
00000080: f261 db3d ca03 bebd 4677 433d b8da 843d
00000090: 3b39 e8bc 6872 90bc 8019 d13c 430f eabc
000000a0: 4041 383c 8e7d a1bb 8c84 713d 4072 ddbd
000000b0: 2f96 1dbd 236a 413d bd6d d8bd d83e d3bd
000000c0: 62ff cabd 08de 873c 103c 1ebd 009b 0ebc
000000d0: 912a 81bc d698 4cbd 446d d63d 1a74 a2bd
000000e0: 0729 a93d d923 7bbd d661 8f3d 9ca0 15bd
000000f0: 099f 013d 24ea e03d f06c 713c 5bcc 023d
