data_files/out_gen/discriminator_epoch6.pt (torch, 137429 bytes, 9 tensors)

conv1.bias f4 [64]
00000000: 0905 30ba 4204 f139 b7b5 313a 025f 2c3a
00000010: 0000 0000 fe9d 3bba 0000 0000 d74a 8634
00000020: 5d7f 2c3a 9d08 03ba 0000 0000 434a b1b9
00000030: 0000 0000 4ad2 223a 0000 0000 0217 ad39
00000040: 1920 b939 2ae2 abb9 f452 23ba ae52 47ba
00000050: bd57 a1b7 0000 0000 43db 23ba 0000 0000
00000060: 0000 0000 3df2 233a 7b37 98b9 0000 0000
00000070: 0000 0000 0000 0000 8664 28ba 0dac 4b39
00000080: e97b a039 7677 9939 e627 2cba ea3e 3cba
00000090: 0000 0000 3990 46ba 42c0 80b9 0000 0000
000000a0: e711 2a3a 0000 0000 0000 0000 34f3 273a
000000b0: 0000 0000 0000 0000 0000 0000 0000 0000
000000c0: 0000 0000 0000 0000 2c13 08ba 0000 0000
000000d0: 0000 0000 9e40 2fba 8209 34ba d845 113a
000000e0: fd2e ef38 0000 0000 7ee9 dfb9 8dd3 27ba
000000f0: 9602 58b9 5501 13ba 0000 0000 6e4a 383a
-0.00067146175 0.00045970274 0.0006779092 0.00065754366 0.0 -0.00071570266 0.0 2.5013898e-07
0.0006580258 -0.0004998537 0.0 -0.000338154 0.0 0.0006211145 0.0 0.00033014274
0.00035309864 -0.00032784167 -0.00062303175 -0.0007603568 -1.9233552e-05 0.0 -0.0006250629 0.0
0.0 0.0006254053 -0.00029033035 0.0 0.0 0.0 -0.00064236706 0.00019423683
0.00030609898 0.0002927144 -0.00065672246 -0.0007181006 0.0 -0.00075745914 -0.00024557306 0.0
0.0006487653 0.0 0.0 0.00064067845 0.0 0.0 0.0 0.0
0.0 0.0 -0.0005190845 0.0 0.0 -0.0006685349 -0.0006867872 0.00055417186
0.0001140516 0.0 -0.0004270784 -0.0006402068 -0.00020600329 -0.00056078035 0.0 0.0007030134

conv1.lin.weight f4 [64, 2]
00000000: 95f3 473e a701 5bbe c59e 1e3d b0d2 453e
00000010: deed b13b d5c9 3a3e c13f 843d f0cc cabd
00000020: 3b3a 7dbe c7af d93d 5fc0 343e b285 e03d
00000030: 4140 28bd 4c24 52bd 1420 413e 8949 6ebe
00000040: bda6 a23d 361d 3d3e 783e ffbc 265d a93d
00000050: d141 febd 1cc1 92be df0e 913e 58eb ac3b
00000060: af94 96be bbb5 7fba e04f 723c c492 81be
00000070: 3e05 6bbe 0925 123e 7702 233e f406 97be
00000080: 9c8c 123e 8adf 6cbd 254b 503c 1095 85be
00000090: 9322 883e 09b7 95be 02f9 4cbe 9592 473e
000000a0: aada 0d3e e9c3 56be 847f 75bd c97c 84bd
000000b0: eec4 7c3e c0ce 453d 8853 23be 5d9a 8bbe
000000c0: ebfc 1bbc 096d 78bc f95b 453e 2c3f 72bd
000000d0: e5dd 793d 933f 683e 47de 09be 7e40 7abe
000000e0: f965 fbbd 89a4 9a3d af37 42be 6d85 c3bd
000000f0: b5e6 633e 9ac3 fe38 b009 8d3d 17f3 a93d
00000100: b3b4 963e 0b10 8abe b0f4 043e fcc0 40bd
00000110: 3ebb 1dbe bfe1 933e 8f05 0bbe 5a2e 8d3e
00000120: f443 8bbe 0312 bd3d fd60 1bbe 29c5 ff3d
00000130: f17b 803e 8818 eb3c a3fc 39be a618 d23d
00000140: 152e 253e f831 edbd 11a5 8fbe 95ce 213e
00000150: 93ee 8ebe ec6f 153e 8c8b bd3d 2c47 1abe
00000160: 3ef1 50bd 61e9 83be 783e e5bd f697 e43c
00000170: 3b34 4ebe ede5 f03a 96fd 0cbe 4781 253d
00000180: d57e 8cbe 8473 843c 6938 93be 6d76 fbbd
00000190: c944 b73d 4460 c63d 5be6 dbbc ddd5 dabd
000001a0: c583 fdbd 41b1 91bc ceb7 e33d 669c dcbc
000001b0: afe5 863d ef78 313e 1c37 8d3e 9eae e43d
000001c0: 9166 c93d 7d2f 6abe f54f 92be da9a 173e
000001d0: 9001 54bd 66ff 633e a77f 59bd 30dd c73d
000001e0: ba3f 913e 62ad 1dbe 15ab 453e 37bf 1e3e
000001f0: c57a 69be f1e0 f5bd 46f0 8c3e 9f33 c43d
0.19526513 -0.21387349 0.038725633 0.19318652 0.0054299673 0.18241055 0.064574726 -0.0990237
-0.24729244 0.1062923 0.17651509 0.10963 -0.041076902 -0.051304147 0.18859893 -0.23270239
0.07941959 0.18468174 -0.031157717 0.0826972 -0.12414897 -0.28662956 0.28331658 0.0052770786
-0.29410312 -0.0009754558 0.0147895515 -0.25307286 -0.22951218 0.1427194 0.15918909 -0.29497492
0.1431145 -0.05783037 0.012713228 -0.26090288 0.26588878 -0.29241207 -0.20016864 0.1948951
0.13852945 -0.20973171 -0.05993606 -0.064691134 0.24684498 0.048292875 -0.15949833 -0.27266207
-0.00952075 -0.015162715 0.19273366 -0.059142277 0.06100263 0.22680502 -0.13463698 -0.24438664
-0.12275309 0.07550914 -0.18966554 -0.09546933 0.22255976 0.000121480974 0.06886613 0.08298319
0.29434738 -0.26965365 0.12983966 -0.047059044 -0.15403458 0.28883168 -0.13576339 0.27574426
-0.27200282 0.09231951 -0.15173717 0.12488777 0.2509456 0.02869822 -0.1816278 0.102586076
0.1613086 -0.115817964 -0.28055623 0.15801461 -0.27916393 0.14593476 0.09255132 -0.15066212
-0.051011316 -0.2576399 -0.111935556 0.027904492 -0.20137112 0.001837907 -0.1376861 0.04040649
-0.27440515 0.016168363 -0.28753975 -0.12278447 0.089486666 0.0968633 -0.02684324 -0.106853224
-0.12378649 -0.017784717 0.11119042 -0.026930045 0.065867774 0.17331289 0.27581108 0.11166118
0.09834016 -0.22869678 -0.28576627 0.14805165 -0.051759303 0.22265396 -0.053100254 0.09758985
0.28368932 -0.15398172 0.19303544 0.1550263 -0.22800739 -0.12005795 0.27527064 0.095801584

conv2.bias f4 [64]
00000000: 1b4c c9b9 0000 0000 2ae7 e3b9 7ce6 29ba
00000010: 4486 a3b9 9905 8db9 4ac9 d339 0000 0000
00000020: fed0 19b9 94fc 353a 0636 493a c25a 4eb9
00000030: a26a e1b9 8bb3 07ba 6058 a937 0000 0000
00000040: 0000 0000 0000 0000 0000 0000 120f ee39
00000050: b38c 2bb9 0000 0000 0d74 36b8 0000 0000
00000060: cd62 d339 9b31 043a cb13 ca39 3220 f839
00000070: 9ec2 3eba 0000 0000 0000 0000 ce3f 61b8
00000080: 0000 0000 0066 10ba 52a7 1e3a b446 0eb9
00000090: 9320 30ba 56b6 fbb9 0000 0000 f09f 263a
000000a0: 2197 02ba 59ea 56b9 0000 0000 46af 043a
000000b0: 0000 0000 0000 0000 ef2d 39ba a529 a8b9
000000c0: 9e1a 43ba 3d6e 9b39 b0a2 a4b9 fee1 fd39
000000d0: 0000 0000 1e25 07ba e146 323a cae0 0939
000000e0: 18b2 03ba c53b fcb9 4142 313a 0000 0000
000000f0: a464 9eb9 65e1 23ba 9f5b 4eb9 d926 cdb8
-0.0003839441 0.0 -0.00043469045 -0.0006481183 -0.00031189818 -0.00026897786 0.00040395028 0.0
-0.00014669073 0.0006942239 0.00076755916 -0.00019679501 -0.00042994792 -0.00051765953 2.0187523e-05 0.0
0.0 0.0 0.0 0.00045406126 -0.00016360245 0.0 -4.3500262e-05 0.0
0.00040318668 0.0005042792 0.0003854319 0.00047326233 -0.0007276925 0.0 0.0 -5.3703603e-05
0.0 -0.0005508363 0.00060521543 -0.00013568514 -0.0006718721 -0.00048010302 0.0 0.000635623
-0.00049816264 -0.00020495932 0.0 0.0005061518 0.0 0.0 -0.00070640346 -0.00032074485
-0.0007442626 0.00029646038 -0.0003140173 0.00048424298 0.0 -0.0005155372 0.0006800723 0.00013149079
-0.00050237915 -0.00048109717 0.0006761887 0.0 -0.00030211092 -0.0006251543 -0.00019679822 -9.782398e-05

conv2.lin.weight f4 [64, 64]
00000000: 1d6d 41be e53d 58be 164a f6bd 9a49 ebbd
00000010: ea60 39be d3ec 253e 723e 8e3d 7dea bb3d
00000020: a325 95ba 4547 3cbe 4b4a 0abe 1f6e 063e
00000030: f2de 303c e49c 413e ad76 77bd c7fc 4fbe
00000040: d4ed 1b3b b03d 003e 3be5 bf3d 4de0 123e
00000050: 8bed c33d 12c4 d4bc bf58 4a3c caa3 25be
00000060: 2829 003d dc87 cbbd a988 253d ea74 33ba
00000070: f068 35bd 4eda 363e 6739 0f3d c597 ad3d
00000080: 2c49 2a3e 9eb1 56be 0d80 a9bd 84de 07bd
00000090: c613 483d 9cf1 28be 70ea 443e d2b4 3fbd
000000a0: b489 11be 43ee 783d f186 36be 6911 f03c
000000b0: c57a b23d 36c5 bb3d d0da ddba 7f98 f03d
000000c0: 9f9f aebd 4fbd 033e a256 073d 781c 113e
000000d0: d5b9 e2bd 9b5b 3e3e 21dd 1f3e 2be5 c8bc
000000e0: 4eba d43d 3c4a 1abe 5f00 2b3e 3b78 ef3d
000000f0: 448c 0cbe a7d0 e43d 51d6 7ebd 4839 4d3e
00000100: 4ba4 1a3c b172 b53d a9df 83bd 630f f6bc
00000110: 4ec3 c33d c634 993c 9c4b 323e aa5b 4fbe
00000120: c5e9 ad3c 0109 ce3d 6d07 b7bd 0d59 b53d
00000130: b2f5 11bd e14a f53d 128a 153e 02b7 523e
00000140: 3fda 953d 577d 263e 1423 133e 02a3 d8bd
00000150: a511 1fbe 1467 493e 18d4 a3bd 74d0 a03d
00000160: 5346 f93d 8306 1cbe 8d9d 023e d24b a4bd
00000170: d643 36be 0239 fb3d 31f0 85bd 52c8 13bb
00000180: 2580 cf3d 5d5d 38be 1bee c8bd 095b 5b3e
00000190: b97f 4cbe 1516 3abd 5093 413e 8bd8 e3bb
000001a0: 8a4b 4fbe 2fe2 433e a3c0 2abe dea2 da3d
000001b0: 1f70 313e 615d 423e b707 37be fe43 4c3d
000001c0: 962b 263e 5ec3 d43b 41d1 0c3e 539b db3d
000001d0: 2d2c 4c3e 83fe 3f3d 007e 7fbd 0de3 2abe
000001e0: ff02 b43c d1c3 e93c 47f1 0b3d 9066 5b3d
000001f0: 21d1 d13d a337 bfbd 07b6 e13d b807 28be
00000200: ba73 503d 1271 34be 30b2 e43d 3824 933d
00000210: 3079 05be e1ad 4fbe b77d 22be 9a73 553d
00000220: 0ffe 4d3d 9fdb 17be c489 f63c d0af c03d
00000230: ecc4 a5bc 7f0e 5abe 6355 26bd d180 3cbe
00000240: 4131 043e 8908 2f3e f1ce 87bd 8b5a fd3d
00000250: c40f 48be 125c 07be 3c78 f3bd 2432 0dbd
00000260: a331 d5bd c1fc 65bd dc18 e9bd ca0b 443e
00000270: e51d bbbd edbb d4bd 8751 1d3e 2563 783b
00000280: 477a 0a3e 26d3 4bbe 1085 9fbd 5539 f2bc
00000290: 1f5a 913d f407 2ebe 36f6 f53c f651 383d
000002a0: 83fe ecbd 5416 233c 5d9a 8dbc 6d4a 273e
000002b0: 3031 49be 5089 ac3d 8cbd 10bd 2908 69bb
000002c0: e50e 0fbe d7d4 82bd 4524 c43d cef7 383e
000002d0: 83f5 8dbd 4da0 4f3c ce4b a4bd 5d7d c53d
000002e0: 8471 06bd 3b8f 9bbd 6134 f6bd ddfa b73d
000002f0: ddc8 a63d 0971 273e fd3c c8bd d525 753d
00000300: bd8f cbbd 474d 1d3e 79b0 acbd 178e 5bbd
00000310: d9ea 2fbe 6056 943c 8985 4bbe 7005 0a3e
00000320: ce43 d03b bd03 013e d05a 2b3d b30e ecbd
00000330: e012 693c efdb bc3d 5976 58be f7b3 17bd
00000340: 2abe eebd dc28 ad3d ba95 f63d 25c4 123e
00000350: e00a 24be 93d8 42be ae0c cb3b aec1 2a3e
00000360: a8db 733c 4a97 3e3e 5957 c1bd 6ffc 0bbe
00000370: c349 a63d 2c1f debc c549 c3bd f856 c53d
00000380: 21b8 2bbe de24 0dbe e77f 733d c87d 26bd
00000390: 56fb 643d 6d3d 583e fe54 5a3e 2bf7 5b3e
000003a0: bb36 05be 0122 c23d 5cca 95bc 90ec d13d
000003b0: 055e 993d 8c85 6fbd fe52 e23d e3d5 9fbd
000003c0: 3755 cb3c a825 09be d1d6 dfbc 1a37 233e
000003d0: 3d28 37be 63e4 45be 9fe3 213e 2fa8 5a3d
000003e0: d29e eabd 5df3 a83c 0cbc 113e 0cd7 333e
000003f0: 4eae ff3d 2413 813d 0988 07bd b1ce 4dbe
-0.1888928 -0.21117361 -0.120258495 -0.11488648 -0.18103376 0.16203623 0.06945504 0.091755845
-0.0011379014 -0.18386562 -0.13504903 0.13127945 0.010795342 0.18907505 -0.060415912 -0.2031127
0.002379288 0.12523532 0.09369894 0.14343376 0.09566792 -0.0259724 0.01235026 -0.16175762
0.03128925 -0.099380225 0.040413532 -0.00068457297 -0.04428953 0.17856714 0.034966853 0.08476213
0.16629475 -0.20966193 -0.08276377 -0.03317119 0.048846982 -0.16498417 0.19230056 -0.046803303
-0.14212686 0.0607741 -0.17824914 0.029305177 0.08714823 0.091684744 -0.0016926173 0.11747836
-0.08526539 0.12865184 0.033041604 0.14171016 -0.11070601 0.18589632 0.15611698 -0.024523338
0.10387097 -0.1506738 0.1669936 0.11692854 -0.13725382 0.1117261 -0.062216107 0.20041382
0.009438585 0.08859766 -0.06439144 -0.030036634 0.09558736 0.018701922 0.17411655 -0.20249811
0.021229634 0.10060311 -0.08936963 0.08854876 -0.035634704 0.11977173 0.14603451 0.20577624
0.07317018 0.16258751 0.1436885 -0.10577966 -0.15534075 0.19668227 -0.07999438 0.07852259
0.121716164 -0.15236859 0.12755413 -0.08022274 -0.17799315 0.12266733 -0.065399535 -0.002254982
0.101318635 -0.18004365 -0.0981104 0.21421446 -0.19970597 -0.045431215 0.18903852 -0.006953304
-0.2024366 0.19129251 -0.16675048 0.10675596 0.17327927 0.18980934 -0.17874037 0.04986953
0.16227564 0.006493016 0.13751699 0.10722985 0.19938727 0.04687358 -0.062376022 -0.16688175
0.021974085 0.028535755 0.034165647 0.053564608 0.10244966 -0.09336784 0.11021047 -0.16409194
0.050891615 -0.17621258 0.11166799 0.071846426 -0.1303451 -0.20281173 -0.15868269 0.0521122
0.050291117 -0.14829873 0.030094989 0.094085336 -0.020235501 -0.21294592 -0.040608775 -0.18408515
0.12909414 0.170931 -0.06631268 0.12370785 -0.19537264 -0.13218716 -0.11888167 -0.034471646
-0.10409858 -0.056149248 -0.11381695 0.19145122 -0.09136561 -0.103874065 0.15363131 0.0037900892
0.13523208 -0.19904765 -0.077890515 -0.029568354 0.07097267 -0.16995221 0.03002463 0.04500004
-0.11571982 0.009954054 -0.01728552 0.16336985 -0.1964767 0.08424628 -0.035337016 -0.0035557842
-0.13970526 -0.06388252 0.0957723 0.1806328 -0.06931593 0.012672496 -0.08022271 0.09643052
-0.0328231 -0.075956784 -0.12021709 0.08983395 0.081437804 0.16351713 -0.097772576 0.059850533
-0.09939525 0.1536151 -0.08432097 -0.053602304 -0.17179431 0.018107593 -0.19875158 0.13478637
0.006355739 0.12599082 0.041834652 -0.11526241 0.014225692 0.092216365 -0.21138896 -0.037036862
-0.11657365 0.08455059 0.12040277 0.14332636 -0.16019773 -0.19027929 0.00619658 0.16675445
0.014883913 0.186124 -0.09440488 -0.13670515 0.08119538 -0.027114473 -0.09535555 0.096357286
-0.16769458 -0.13783595 0.05944815 -0.040647298 0.055903755 0.21117182 0.21321484 0.21481006
-0.1300916 0.09479142 -0.018284969 0.10250199 0.07488636 -0.05847697 0.11050986 -0.078044675
0.024820907 -0.13393271 -0.027324112 0.15938988 -0.17886443 -0.19325404 0.15809487 0.05338305
-0.11456074 0.020623857 0.1423189 0.17562503 0.12484418 0.06302479 -0.033088718 -0.20098378

conv1d.weight f4 [64, 128, 3]
00000000: 7cad 19bd 0f47 113d 7c71 203d 88f5 483d
00000010: b121 33bc eb37 fb3c c76e 333d 967d bb3c
00000020: c4f5 093d 377a 363d ae32 e23c 3c55 3dbd
00000030: 2cad 893c 6e90 24bd f1ee 2d3d 2bc5 483d
00000040: bbb6 093d b595 8fbb 19a4 d9ba c693 043d
00000050: dbef b3bc 9a2a 2fbd d773 463d c800 e33c
00000060: c809 3c3d f364 973c 2c34 0b3d 8e1c 48bd
00000070: 4e17 4c3d d72e bdbc fb38 3e3b 30ae 953a
00000080: e6a5 65bc 2f7a 333d 5917 1bbc b617 2b3c
00000090: 2503 2e3d 8163 47bd bde1 08bc 3079 443c
000000a0: e6c0 bfbb aa2f 193d 164b efbb 9346 253c
000000b0: cd74 f93c e9f7 123c 5441 04bd de6e f1bc
000000c0: a4c9 c2bc d89d 1a3c 523a cc3a 8930 b53c
000000d0: 37e2 ea3c 7a38 e03c 5ae4 693b 436f 4dbc
000000e0: 976a 973c d22c 453d d5d4 afbc 6ead 41bd
000000f0: fc7f 093d 469f 1dbd 3a64 5b3c 7c1e d9bc
00000100: aa1e 463d 5ec8 393d bfae 05bd 3b8a 36bd
00000110: 7b74 ff3a 54ab 5e3c d24a 86bc c9de eabc
00000120: c339 82bc 04fc 80bc 6438 523c 68e8 a1bc
00000130: cad7 4ebd f173 e53c 4868 853c 18ee efbc
00000140: aa5f 46bd 684a 63ba 7e23 f63a a8d2 1bbc
00000150: 039d 41bd 880a 4d3d 3fa6 f2bb 3cbf 983c
00000160: 3d2a 05bd 36fb e0bb 3704 abbc 6bc3 4b3b
00000170: f48d 933c 16bc e0bc 9d9f e8bc 3c21 96bc
00000180: 3856 913c 7df4 533c 6f5e 5b3b 9f52 da3a
00000190: b268 34bd 4f7e 14bd 61a7 4abd 81c9 4f3c
000001a0: 33c7 3ebd f2f3 193d 6ef3 1cbd 8f21 303d
000001b0: 1095 36bb 473a 403d adcd 383d 4321 0f3d
000001c0: acd0 cbbc 5809 493d cacc d1bb bb57 61bc
000001d0: 6ea3 a3bb 0c68 783c 5da8 c4bb 8052 8fbc
000001e0: c9c8 1a3d 3d10 203d 1863 e3bc 5b46 ef3c
000001f0: 90d1 1a3a 7223 21bd a095 ac3c 2e7e 3ebb
00000200: 3ad8 2b3b e3ef 3ebd 7d59 b53b 3618 13bc
00000210: 8c20 28bc f5ab 8fbc 43e1 223d 4555 9cbc
00000220: 2eb7 10bc d7e6 2d3c c5f0 22bd cb68 5b3c
00000230: bc3a ea3c a5f0 81bc 2aaa 493b 5ccf 78bc
00000240: b263 3f3d af04 bfbc f827 3bbd a9d1 f7bc
00000250: 0f68 363d a476 f4bc aac4 70bc 9487 a4bc
00000260: 0e98 2a3b 828b 06bd 09ae 0d3d dd9a 163d
00000270: bc96 91bc 861a bbbc f741 083d 2f7d 23bd
00000280: 852a 503d cde1 3bbc a425 e2bb 0d74 023d
00000290: f59f 8e3c 18ba 8abc b9d7 cc3c 05a7 823b
000002a0: 0667 703a c20b 483d 0406 0fbd 6ba3 f1bb
000002b0: 673b d5bc d1eb 133d b9df da3b 7477 da3c
000002c0: 748c ffbc 4f27 7139 bd44 4e3d ccb9 e2bc
000002d0: 1497 12bd bec4 173d 184c 993b 1850 3b3d
000002e0: d6b6 e7bc d73b d9bc 7d3a 593c a053 21bb
000002f0: 99fa 06bd ce74 a1bc c4dd 3ebd 5897 173c
00000300: 01e0 48bc 607f 2dbd a59f 243d 1de5 273d
00000310: 051a 393c be5a ee3c 04c5 8ebc 1472 eebc
00000320: 7c38 05bd fda5 203d ac5e 113d bfc4 2fbc
00000330: aa0f 773b c0a7 2a3d 390e 89bc d1ad 503c
00000340: d0bb 39bc 1b35 62bb 1e06 043d d054 6e3c
00000350: 0a80 2c3c 51b9 1fbd f6a5 34bd 65fa 1c3d
00000360: ff36 e03b 5c5d a5bb a9d6 8abb 7fab 4f3d
00000370: 1aa4 0abd e648 88b9 eac6 2f3d 6d8d 37bd
00000380: c1cc 113d be1b 123d 2cd8 173d 3528 1b3d
00000390: 1bfc 32bd 71a8 e43c 4204 033d 9fe4 acbc
000003a0: ad43 a13c f096 363d 186f e93c d752 153b
000003b0: 2424 213d 3c87 1d3d fd5f 203d ca2d 263d
000003c0: c88f 3b3d aa8f 893c 01ac 213d 9b0a 38bd
000003d0: 81cc 2eba 7aaa 623c c67e 043d 7bee d6bc
000003e0: afd5 8cbb bc32 ea3b 40a4 62bc 1447 23bd
000003f0: adcc 0c3d 7242 0d3d ab66 903c 9d72 353d
-0.037518963 0.035468157 0.039170727 0.04906228 -0.010933326 0.030666312 0.043806817 0.022887032
0.033681646 0.044550147 0.027612057 -0.046223864 0.016806208 -0.0401768 0.0424642 0.04901616
0.03362153 -0.00438186 -0.0016604691 0.03236749 -0.021964958 -0.042765237 0.048450317 0.027710333
0.045907766 0.018480754 0.0339853 -0.048855357 0.049826913 -0.023093624 0.0029025662 0.001141971
-0.014016604 0.043817695 -0.009466016 0.010442665 0.042483468 -0.04867888 -0.008354601 0.011991784
-0.0058518527 0.03739897 -0.007302652 0.010087627 0.030451203 0.008970239 -0.032288864 -0.02947181
-0.02377779 0.009437047 0.0015581346 0.02211787 0.02867232 0.02737068 0.0035689087 -0.012538734
0.018483443 0.048138447 -0.02146379 -0.047284536 0.03356932 -0.038481973 0.013390595 -0.026503794
0.048369087 0.0453571 -0.032637354 -0.04456542 0.001948967 0.0135906525 -0.016393099 -0.028670685
-0.015896684 -0.01574517 0.012830827 -0.01976414 -0.05049876 0.028009387 0.016285077 -0.029288337
-0.048431076 -0.000867045 0.0018778888 -0.009510674 -0.04726888 0.05005887 -0.007405072 0.018645875
-0.032510985 -0.006865884 -0.020876033 0.003109182 0.018012024 -0.027433436 -0.028396422 -0.018326394
0.017741308 0.0129367085 0.0033473035 0.0016656703 -0.044045158 -0.03625327 -0.04947603 0.01268232
-0.04657669 0.03758616 -0.03831809 0.043000754 -0.0027859844 0.046930578 0.045118023 0.03494383
-0.024879776 0.049081177 -0.0064025866 -0.013753827 -0.0049938476 0.015161525 -0.006001516 -0.017495394
0.03778914 0.039077986 -0.027757213 0.029208353 0.0005905861 -0.039340444 0.02106744 -0.0029066908
0.002622141 -0.046615493 0.0055343495 -0.00897794 -0.010261666 -0.01753805 0.039765608 -0.019083628
-0.008832736 0.010614119 -0.039780397 0.013391684 0.02859246 -0.015861819 0.0030771592 -0.015186157
0.046725936 -0.023317663 -0.045692414 -0.030251341 0.04453283 -0.029841729 -0.014695326 -0.02008418
0.0026030573 -0.03284789 0.0345898 0.036768783 -0.017772071 -0.022839796 0.033266034 -0.039914306
0.0508218 -0.011467409 -0.00690146 0.031848956 0.017410258 -0.01693444 0.025005208 0.0039871954
0.0009170625 0.048839338 -0.034917846 -0.0073742173 -0.026029302 0.036113564 0.006679502 0.026668288
-0.031194903 0.00022998195 0.050358523 -0.027676485 -0.03578861 0.037052862 0.0046782605 0.04573068
-0.028285425 -0.026517792 0.013258574 -0.0024616495 -0.032953832 -0.019709017 -0.04659821 0.009252392
-0.012260438 -0.042357802 0.04019131 0.040989984 0.011297707 0.029096004 -0.017427929 -0.029107131
-0.03252457 0.0392208 0.035490677 -0.01072806 0.0037698545 0.041663885 -0.016730415 0.012736754
-0.011336282 -0.0034516517 0.032232396 0.014546588 0.010528574 -0.03899509 -0.044103585 0.038324732
0.0068424935 -0.0050465297 -0.0042370153 0.05070066 -0.033847906 -0.00025994255 0.04291431 -0.04481261
0.03559566 0.03567099 0.037071392 0.03788014 -0.043697458 0.02791235 0.031986482 -0.021105109
0.01968559 0.04457754 0.028495356 0.0022784972 0.039341107 0.038459048 0.03915404 0.04057101
0.045791417 0.016792137 0.039470676 -0.04493199 -0.00066680467 0.01383459 0.032347463 -0.026236763
-0.004297934 0.0071471613 -0.013833106 -0.039862707 0.03437488 0.034487195 0.01762708 0.044298757

conv1d.bias f4 [64]
00000000: d179 b9bc 228d fdbc f0f7 a43b 6701 0a3d
00000010: 69f1 4b3d 8c1c 223c 1525 0abd 6875 3f3d
00000020: 9ec0 25bc a27d 4f3d a395 4abc 03ca a23b
00000030: 5d1e e7bc 6864 3abd e22a 413d 40cd 99bc
00000040: 856c 623c 45db 063c e9f6 833c f91c 363c
00000050: a1e2 a3bb 20a7 7bbc b1dd 4d3d e6c7 3d3d
00000060: ba79 1cbc 2b42 0abd cf11 713c 1918 ac3c
00000070: e81a b13a d2a0 f6bc e3ea 8cbc 8dd7 e43c
00000080: 70d7 2abd 01be 99bc 0d39 23bd b3ff 3dbc
00000090: 248a 263c 582b 353d e0a7 7aba be2f e53c
000000a0: aad8 0dbc 9118 4a3d 966c b63b 9f24 1bbd
000000b0: d84c 043d 9807 1d3d d389 d8bc e308 52bc
000000c0: 03ac 113d 1417 9fbb 9cd0 3ebb adfc 3d3d
000000d0: 9d20 e3bb c9fb ef3c 362e 03bd 756b abbc
000000e0: 6033 893c 3ed9 d9bc 2c9e d73c 7ded 973b
000000f0: d299 393b 860f 3d3b bd8d c8bc 85d1 3a3d
-0.022641094 -0.030951086 0.0050344393 0.033692744 0.049790774 0.009894501 -0.03372677 0.046742827
-0.010116724 0.050656922 -0.012364778 0.0049679293 -0.02821272 -0.04550591 0.047160037 -0.018774629
0.013819818 0.008230989 0.016108947 0.011115306 -0.0050013815 -0.01535967 0.05026025 0.046333216
-0.009550506 -0.03375451 0.014713719 0.021007584 0.0013512047 -0.030105982 -0.017201846 0.027934814
-0.041709363 -0.018767359 -0.03984933 -0.011596608 0.010164771 0.04423079 -0.00095617585 0.027976867
-0.008657614 0.049339835 0.0055671437 -0.03787672 0.032299846 0.03833732 -0.026432907 -0.012819502
0.035564434 -0.004855046 -0.002911604 0.04638355 -0.006931378 0.029294865 -0.032026492 -0.020925263
0.01674813 -0.026592847 0.02632054 0.004636465 0.0028320444 0.0028848364 -0.024481649 0.04560997

fc.0.weight f4 [64, 64]
00000000: 32bf 87bd 6436 9abd a112 d3bd 6412 b73d
00000010: 543b f9bd f099 ab3d 8e6d f0bd 5c85 b73d
00000020: 82b9 263d 6c8c 83bd aff6 bf3d 37bd 983c
00000030: 0ffa cb3c e236 e73d 1843 673d 813e d23d
00000040: fc40 73bd da4b 943c 305a 4ebd 6473 003e
00000050: c1e6 ffbd 93ac 143d c64b af3c 9784 69bd
00000060: 4704 2bbd b6b3 9c3c eb31 cfbd 11eb 9e3d
00000070: a16a 4bbd bf91 583c d816 613d 6198 b13d
00000080: f60b b13d b642 b93d 906e c93c 1c63 5ebd
00000090: ed66 f9bd 8ea0 09bc 4220 8f3d 0fc1 e23d
000000a0: 2a2e db3d ce17 d8bc d873 2ebd a0e1 8f3c
000000b0: bcde f2bc b90d ae3d 54db 2bbd 469f 95bd
000000c0: a76c 713c 487c 6f3d c046 fd3d 71fe b0bd
000000d0: 7864 ee3d 5f76 c5bd e4b9 083d 809b 993d
000000e0: 7e50 63bc 17b3 bebd c1fa 87bd 8a87 9ebd
000000f0: de53 84bd f136 2fbc 7938 9e3c 5f2b c9bd
00000100: 647b f03d e0fd d93d 1c78 e13d a09f 723c
00000110: 4060 8abc ecef 6abd a840 d23c 9044 6a3c
00000120: 08c5 6ebd 0664 bc3d 701f ddbc b0f7 58bc
00000130: 2067 3bbd 4caa b33d a4bd dd3d 322f 963d
00000140: 9895 ccbd 02d7 82bd f0b9 563c 10e4 dc3c
00000150: 62f1 ae3d 88fc d2bc 3af0 813d e0e9 6fbc
00000160: b0f4 c93c b00d 12bd 065a f5bd 548a 913d
00000170: 8867 ee3d b85f 5a3d beee a3bd b0e6 95bd
00000180: 260e c93d c8b5 a6bd 54f0 443d ac33 be3d
00000190: 4e95 91bd ca7c a5bd 10c3 953d 8034 b8bd
000001a0: 9a45 df3d 88c8 2ebd 8c1d fc3d a006 fa3d
000001b0: 3800 c9bc a0dd f23c 8015 89bb d0a3 123c
000001c0: a0bb 99bb fcc4 923d 3497 163d 204f c93c
000001d0: cce9 d83d a0fa 14bc 70fa 513c b093 a6bc
000001e0: 9a4f cabd dccc aa3d 601e 75bd 1e98 893d
000001f0: 4a5a cf3d 063d e4bd 3c5c e03d 7204 80bd
00000200: 7066 49bc 1228 afbd 6c71 1dbd 1bea 5abd
00000210: 0af3 05bd 38b6 ff3d 9a0d 24bd f2d4 b33d
00000220: 3378 a2bd ac04 39bd 5e8c efbd 3388 ce3d
00000230: baa0 b63d 8a9f 96bd cc97 acbd de8e 82bc
00000240: 4293 eb3d 7547 36bd 4927 47bc df2e cbbd
00000250: 8503 dd3d f88a 8dbd 9569 f0bd a62a 9cbd
00000260: 5de6 65bd f060 943d bf31 853d a87f 1e3d
00000270: 28d8 ee3d 9853 9abc c0f1 c43b d54e f0bd
00000280: 1c53 97bd ba2c a83d 4043 38bd 60bf 3f3d
00000290: 25df 52bb f95b e83d 8a14 a33c 6066 f13d
000002a0: 1f98 003c 0d5b fcbc b005 ad3d 107d 613d
000002b0: 5124 89bc 09e3 b8bd 171f 67bd 4a71 6f3d
000002c0: ebf1 dc3c 6a30 40bd a5c3 1ebd 69d5 f33d
000002d0: e96e a6bd 4f04 75bd a895 ca3d 663d 43bd
000002e0: 4f84 283c 407f cbbd 9028 a3bd fbb5 0e3c
000002f0: 7751 f2bd fd3c 65bd 3cb5 28bd 22cb ee3d
00000300: d0ab 843d 80dd b63b 1498 83bd d241 f43d
00000310: c017 b53c 04fd c43d c68f f83d 2452 e83d
00000320: aedb 933d 22ae 963d 382e b93d b03d 44bd
00000330: ee75 8f3d c82d 2d3d 08fb 32bd c074 2cbc
00000340: cc3b 283d 84a5 f83d 8ca1 3c3d 70f8 11bd
00000350: 90dd 10bc 885d b73c 2417 373d c65d c23d
00000360: c0fb 483b e0ce a93d 80ea 7fbd ca7a efbd
00000370: 1ec3 db3d 7cbc aabd d09c 463c 409f 593b
00000380: 70d6 e6bd 0003 33bd 06e5 a4bd 5ce8 93bd
00000390: 1654 cebd 3064 e8bd 24fc af3d f89f 153d
000003a0: 5257 b2bd 4c52 233d 6837 f4bc e847 3a3d
000003b0: 18a8 edbc 201e 5a3d 0678 e33d 6e31 d03d
000003c0: 062e fc3d a013 ebbb d409 81bd cc78 a13d
000003d0: c435 babd 101a 853c 7adb 9fbd 2cf2 643d
000003e0: c0d2 263d 3022 023c a000 38bd 407d a5bb
000003f0: 7817 1fbd 045a 9bbd b4c6 1e3d 30d1 aa3d
-0.066282645 -0.075299054 -0.103062876 0.089390546 -0.12169519 0.083789706 -0.11739646 0.08960983
0.040704258 -0.06423268 0.09373223 0.018644912 0.02489951 0.11289765 0.05646047 0.10265828
-0.059388146 0.018102575 -0.05037898 0.12544018 -0.12495185 0.036297392 0.021398436 -0.057011213
-0.041752126 0.019128662 -0.10116943 0.07759679 -0.049662236 0.013218342 0.054953426 0.08671642
0.086448595 0.09045927 0.024588853 -0.054293737 -0.12177835 -0.008400096 0.069885746 0.11071979
0.107021645 -0.026378538 -0.042590946 0.017563641 -0.029647224 0.08498711 -0.041957214 -0.073057696
0.014735377 0.058468133 0.1236701 -0.08642281 0.11640257 -0.09641718 0.033380404 0.075003624
-0.013874171 -0.093115024 -0.066396244 -0.07740696 -0.06461309 -0.010694251 0.019314038 -0.098227255
0.11742285 0.10644126 0.11009237 0.014808565 -0.016891599 -0.057357714 0.025665596 0.014298573
-0.058293372 0.091987655 -0.02699253 -0.013242647 -0.045752645 0.08772716 0.10827187 0.073332205
-0.0998947 -0.06388666 0.013105854 0.026964217 0.08542134 -0.025755182 0.06344648 -0.0146431625
0.024652809 -0.035657585 -0.11980061 0.07106462 0.11640841 0.05331394 -0.08004521 -0.07319391
0.09817152 -0.08140141 0.048080757 0.092871994 -0.07108556 -0.08080442 0.07312596 -0.089943886
0.10901947 -0.04267171 0.12310323 0.12208295 -0.024536237 0.029646695 -0.004183471 0.008950189
-0.004691556 0.07166478 0.036765292 0.024573863 0.10591468 -0.009092957 0.012816057 -0.020334095
-0.09878464 0.08339855 -0.05984342 0.06718467 0.10124643 -0.11144452 0.10955092 -0.06250848
-0.012292489 -0.08552565 -0.038438246 -0.053445917 -0.032702483 0.12485927 -0.040052034 0.087808505
-0.079330824 -0.04517047 -0.11696695 0.10084572 0.08917375 -0.073546484 -0.084273905 -0.015937265
0.115026966 -0.04450174 -0.012155362 -0.09921049 0.10791687 -0.06911272 -0.11738888 -0.07625322
-0.056127895 0.07245052 0.06503629 0.03869596 0.11662322 -0.018838689 0.006010264 -0.11733786
-0.07388899 0.08211656 -0.04498601 0.04681337 -0.0032176462 0.113456674 0.019907255 0.117871046
0.0078487685 -0.030805135 0.084483504 0.05505091 -0.01674095 -0.090276785 -0.056426134 0.05845765
0.026970824 -0.04692117 -0.0387608 0.11905939 -0.08126623 -0.059818562 0.09891826 -0.047665976
0.010285451 -0.099363804 -0.07966721 0.00871038 -0.118319444 -0.055966366 -0.041188464 0.11659838
0.06478083 0.005580604 -0.06425491 0.11926617 0.022106051 0.096185714 0.121367976 0.11343792
0.07219635 0.07357432 0.09042019 -0.047910392 0.07004915 0.04227999 -0.043696433 -0.010525882
0.04107265 0.121409446 0.0460525 -0.03563732 -0.008841887 0.022383466 0.044699803 0.09490542
0.0030667633 0.082914114 -0.062479496 -0.11693342 0.10730575 -0.08336732 0.012122348 0.0033206493
-0.112713695 -0.043704033 -0.08051495 -0.072220534 -0.10074632 -0.11347234 0.08593014 0.03652951
-0.08708061 0.039873406 -0.029811576 0.04547873 -0.029010817 0.053251386 0.11106877 0.10165678
0.12313466 -0.0071739703 -0.06300703 0.07884368 -0.09092286 0.01624778 -0.07805534 0.055895016
0.04072833 0.007942721 -0.04492247 -0.0050503314 -0.03884074 -0.075855285 0.038763717 0.083406806

fc.0.bias f4 [64]
00000000: 7e18 a03d ac96 e8bd 8b0f c63d 1c4e 93bd
00000010: dfe5 173d e09c 8bbd 0dc0 b53d 1f04 e3bb
00000020: 4146 f03d 4479 943d 07d6 a7ba 5a54 abbd
00000030: 3a5b b2bd 3cf7 513c f27e d4bd 43f1 b43d
00000040: 19a3 333b 38bb ca3d 60fb 74bd b8f6 22bd
00000050: 86fa 963d afd2 d33c 08ce 31bd 905c 91bd
00000060: e7a6 4f3d cca4 babd 60bb cfbd f0a4 28bd
00000070: fb73 6b3d 0f91 cc3c 2e8f fe3d 4441 57bd
00000080: ec4d 8ebd 78d5 3ebd ce4b 613c 735a e93d
00000090: 3a57 183c 0243 a4bd 78d4 ddbc de4b e13d
000000a0: 8861 b0bc ca57 f13d 8844 41bd 140f 853d
000000b0: 7abe 8e3d 6740 be3d ff2c b63d ba7f a53d
000000c0: 1334 e13d 309c d8bd bc0b 2ebd 3234 c4bd
000000d0: a12c fd3d 22e6 01bc 2212 b63d 042e d33d
000000e0: 13e7 dd3d 6058 cb3d 8e95 90bd 6487 16bd
000000f0: 3f06 5c3d 3071 19bd 0065 1fba 1a65 e53d
0.078171715 -0.113568634 0.09670933 -0.071926326 0.037084457 -0.06817031 0.088745214 -0.0069279815
0.1173215 0.07249692 -0.0012804874 -0.08365698 -0.08708806 0.012815293 -0.103757754 0.088350795
0.0027410446 0.098989904 -0.059810042 -0.03978607 0.07372002 0.025857298 -0.043409377 -0.07097733
0.05069628 -0.09113464 -0.10143161 -0.04117292 0.057483654 0.024971513 0.12429653 -0.052552477
-0.06948456 -0.0465903 0.013750983 0.11394205 0.00929814 -0.08020593 -0.027078852 0.11000799
-0.021530882 0.117843226 -0.047184497 0.064970165 0.06969924 0.092896275 0.08895301 0.080810025
0.109962605 -0.105766654 -0.04249166 -0.09580268 0.12362028 -0.007928403 0.08890177 0.10311511
0.108350895 0.099289656 -0.07059775 -0.036750212 0.053716894 -0.03746146 -0.0006080419 0.11200924

fc.2.weight f4 [1, 64]
00000000: 264a ef3b d0d2 4fbc 9e99 d1bd f0ce fcbd
00000010: 9d3c 673d 1cfa 963d e610 0bbd a1af 26bd
00000020: 1934 72bd b208 ddbd d2c3 9c3c 48c3 9c3d
00000030: 94fa db3d d498 413d 4836 853c bdef d23d
00000040: 1879 cf3d 62d8 d13d 2c0c 613d 26b8 913d
00000050: ee4f b7bc 5ecc c6bd 7c77 b33d 32ab a0bd
00000060: 6be6 9dbd a88f c33c a89d ed3d 60f9 b03d
00000070: 92f9 c7bd ac5a 8dbd 6bc4 de3d f039 3abd
00000080: f261 db3d ca03 bebd 9024 433d 0ca6 843d
00000090: 72c7 e8bc 6872 90bc 8019 d13c fdb6 eabc
000000a0: 4041 383c 3c85 a4bb 8c84 713d 309f ddbd
000000b0: da7c 1dbd 23ff 403d b48b d8bd 7267 d3bd
000000c0: 5b2f cbbd 08de 873c 103c 1ebd 009b 0ebc
000000d0: 02dd 81bc 586a 4cbd f735 d63d d4a4 a2bd
000000e0: 1ff4 a83d 5487 7bbd d661 8f3d 9ca0 15bd
000000f0: 1543 013d 24ea e03d f06c 713c 205f 023d
0.0073025404 -0.012684539 -0.10234378 -0.12344158 0.05645429 0.07371923 -0.033951662 -0.040694837
-0.059131715 -0.10792674 0.019136343 0.076544344 0.10741153 0.04726489 0.016261235 0.10299633
0.10130519 0.1024635 0.05494325 0.07115202 -0.02237698 -0.09706949 0.08763024 -0.07845153
-0.07709964 0.023872212 0.11602336 0.086413145 -0.09764399 -0.0690206 0.108773075 -0.04546541
0.10712041 -0.092780665 0.04764229 0.064769834 -0.028415415 -0.017632678 0.025524855 -0.028651709
0.011246026 -0.0050207656 0.058964297 -0.10821378 -0.038449146 0.047118317 -0.10573521 -0.10322465
-0.09921142 0.016585365 -0.0386315 -0.008703947 -0.015852455 -0.049906105 0.10459512 -0.07941595
0.082496874 -0.061408356 0.070010826 -0.036530122 0.031558115 0.10982159 0.014735445 0.031829
