data_files/out_gen/discriminator_epoch5.pt (torch, 137429 bytes, 9 tensors)

conv1.bias f4 [64]
0	0xba1d205e	-0.0005993898
1	0x39d3c565	0.00040392127
2	0x3a175f41	0.0005774387
3	0x3a150cc3	0.00056858006
4	0x00000000	0.0
5	0xba21cdfa	-0.00061723555
6	0x00000000	0.0
7	0x38791a4e	5.9390724e-05
8	0x3a107c8a	0.0005511722
9	0xb9e8459e	-0.00044302357
10	0x00000000	0.0
11	0xb99b29e2	-0.0002959511
12	0x00000000	0.0
13	0x3a0c378e	0.00053488545
14	0x00000000	0.0
15	0x39b045d8	0.00033621374
16	0x396b4f67	0.00022440926
17	0xb99f258a	-0.00030354812
18	0xba11be8d	-0.00055597053
19	0xba2613e3	-0.0006335361
20	0x36d5b0c5	6.3684734e-06
21	0x00000000	0.0
22	0xba09aa97	-0.0005251555
23	0x00000000	0.0
24	0x00000000	0.0
25	0x3a1682b6	0.00057415233
26	0xb9607e45	-0.00021409344
27	0x00000000	0.0
28	0x00000000	0.0
29	0x00000000	0.0
30	0xba114c77	-0.0005542705
31	0x39091272	0.0001307221
32	0x39908e46	0.00027571822
33	0x39856390	0.00025441917
34	0xba15d7e5	-0.000571607
35	0xba27bb8e	-0.0006398492
36	0x00000000	0.0
37	0xba266ef2	-0.00063489296
38	0xb9853913	-0.0002541026
39	0x00000000	0.0
40	0x3a14204b	0.0005650564
41	0x00000000	0.0
42	0x00000000	0.0
43	0x3a0f188f	0.00054586766
44	0x00000000	0.0
45	0x00000000	0.0
46	0x00000000	0.0
47	0x00000000	0.0
48	0x00000000	0.0
49	0x00000000	0.0
50	0xb9ec8562	-0.00045112806
51	0x00000000	0.0
52	0x00000000	0.0
53	0xba15643e	-0.0005698836
54	0xba1af897	-0.00059116766
55	0x39fb9217	0.00047983296
56	0x390c29af	0.00013366969
57	0x00000000	0.0
58	0xb9cb51b6	-0.00038780057
59	0xba0d5ba9	-0.00053923816
60	0xb97d44fa	-0.00024153656
61	0xba029335	-0.0004981042
62	0x00000000	0.0
63	0x3a1eeab8	0.00060621975

conv1.lin.weight f4 [64, 2]
0	0x3e48035c	0.19532531
1	0xbe5aefe9	-0.21380581
2	0x3d1e67cc	0.038673207
3	0x3e45ce91	0.1931708
4	0x3baea157	0.005329292
5	0x3e3ab0e3	0.1823154
6	0x3d840fa3	0.06448295
7	0xbdcaff76	-0.099120066
8	0xbe7d3a3b	-0.24729244
9	0x3dd9afc7	0.1062923
10	0x3e34d6a7	0.17660008
11	0x3de0bcf6	0.109735414
12	0xbd284041	-0.041076902
13	0xbd52244c	-0.051304147
14	0x3e413631	0.18868329
15	0xbe6e36c1	-0.23263074
16	0x3da26ca6	0.07930879
17	0x3e3cff9d	0.18456884
18	0xbcfe9b36	-0.03107987
19	0x3da94f08	0.08267027
20	0xbdfe41d1	-0.12414897
21	0xbe92c11c	-0.28662956
22	0x3e911255	0.283343
23	0x3bac5210	0.005258806
24	0xbe9694af	-0.29410312
25	0xba7fb5bb	-0.0009754558
26	0x3c73f381	0.014889599
27	0xbe8192c4	-0.25307286
28	0xbe6b053e	-0.22951218
29	0x3e122509	0.1427194
30	0x3e230802	0.15921023
31	0xbe970814	-0.2949835
32	0x3e126a1e	0.14298293
33	0xbd6d67ec	-0.057960436
34	0x3c50e34f	0.012749507
35	0xbe859510	-0.26090288
36	0x3e882c66	0.26596373
37	0xbe95ae45	-0.2923452
38	0xbe4cd7c3	-0.20004182
39	0x3e47b3d4	0.19502193
40	0x3e0dc6ea	0.13845411
41	0xbe56db98	-0.20982206
42	0xbd757f84	-0.05993606
43	0xbd847cc9	-0.064691134
44	0x3e7cdda0	0.24693918
45	0x3d46368b	0.04839186
46	0xbe235388	-0.15949833
47	0xbe8b9a5d	-0.27266207
48	0xbc1bfceb	-0.00952075
49	0xbc786d09	-0.015162715
50	0x3e454745	0.19265468
51	0xbd726938	-0.059182376
52	0x3d7a3248	0.06108311
53	0x3e685e11	0.22692133
54	0xbe09de47	-0.13463698
55	0xbe7a407e	-0.24438664
56	0xbdfb65f9	-0.12275309
57	0x3d9aa489	0.07550914
58	0xbe4237af	-0.18966554
59	0xbdc3856d	-0.09546933
60	0x3e63fafc	0.22263712
61	0x3933eff1	0.00017160155
62	0x3d8ce5b2	0.068797484
63	0x3da9f176	0.08298008
64	0x3e96a9b2	0.29426342
65	0xbe8a1799	-0.2697113
66	0x3e04f2f1	0.129833
67	0xbd40b76f	-0.047049936
68	0xbe1da1c8	-0.15393746
69	0x3e93ed81	0.2889214
70	0xbe0af3a9	-0.13569511
71	0x3e8d37cf	0.2758164
72	0xbe8b43f4	-0.27200282
73	0x3dbd1203	0.09231951
74	0xbe1b40dc	-0.1516146
75	0x3e0002b6	0.12501034
76	0x3e807885	0.2509195
77	0x3cea93bc	0.028634898
78	0xbe39fca3	-0.1816278
79	0x3dd218a6	0.102586076
80	0x3e2510c0	0.16119671
81	0xbded6634	-0.11591759
82	0xbe8fa511	-0.28055623
83	0x3e21ce95	0.15801461
84	0xbe8eee93	-0.27916393
85	0x3e156fec	0.14593476
86	0x3dbd43b3	0.09241428
87	0xbe1a6a84	-0.15079695
88	0xbd50f13e	-0.051011316
89	0xbe83e961	-0.2576399
90	0xbde53e78	-0.111935556
91	0x3ce497f6	0.027904492
92	0xbe4e343b	-0.20137112
93	0x3af0e5ed	0.001837907
94	0xbe0cfd96	-0.1376861
95	0x3d258147	0.04040649
96	0xbe8c7ed5	-0.27440515
97	0x3c847384	0.016168363
98	0xbe933869	-0.28753975
99	0xbdfb766d	-0.12278447
100	0x3db75f6a	0.08953746
101	0x3dc66362	0.096869245
102	0xbcdbe65b	-0.02684324
103	0xbddad5dd	-0.106853224
104	0xbdfd83c5	-0.12378649
105	0xbc91b141	-0.017784717
106	0x3de3ed88	0.1112929
107	0xbcdbda10	-0.026837379
108	0x3d8717ac	0.06596312
109	0x3e3190a4	0.17340332
110	0x3e8d29e6	0.27571028
111	0x3de47e8b	0.11156949
112	0x3dc9941a	0.09842701
113	0xbe6a162f	-0.22860025
114	0xbe924ff5	-0.28576627
115	0x3e179ada	0.14805165
116	0xbd53d947	-0.051720884
117	0x3e63f9bd	0.22263236
118	0xbd5919dc	-0.053003177
119	0x3dc8112b	0.097688995
120	0x3e913e90	0.28368044
121	0xbe1dc4a6	-0.15407047
122	0x3e45b6e0	0.19308043
123	0x3e1ed147	0.1550952
124	0xbe697ac5	-0.22800739
125	0xbdf5e0f1	-0.12005795
126	0x3e8ce0e2	0.27515322
127	0x3dc3fe28	0.09569961

conv2.bias f4 [64]
0	0xb9be881a	-0.00036341028
1	0x00000000	0.0
2	0xb9f2ed4a	-0.0004633463
3	0xba15f23a	-0.00057199935
4	0xb98d6903	-0.00026971856
5	0xb96a6e0e	-0.00022356978
6	0x39b82e91	0.0003512991
7	0x00000000	0.0
8	0xb9049777	-0.00012644926
9	0x3a209c1e	0.0006126779
10	0x3a2b4cb9	0.0006534565
11	0xb949fb45	-0.00019262459
12	0xb9b04764	-0.00033622526
13	0xba001c84	-0.00048870617
14	0xb8042666	-3.1507014e-05
15	0x00000000	0.0
16	0x00000000	0.0
17	0x00000000	0.0
18	0x00000000	0.0
19	0x39c683eb	0.0003786379
20	0xb905e60c	-0.00012769568
21	0x00000000	0.0
22	0x365356d8	3.1492e-06
23	0x00000000	0.0
24	0x39a9d722	0.00032394478
25	0x3a01d57e	0.0004952772
26	0x39be9842	0.00036353065
27	0x39d5060f	0.0004063104
28	0xba27f286	-0.0006406683
29	0x00000000	0.0
30	0x00000000	0.0
31	0xb80f3169	-3.4139874e-05
32	0x00000000	0.0
33	0xb9f3c4cf	-0.00046495206
34	0x3a000684	0.00048837834
35	0xb8ef6993	-0.00011416073
36	0xba1a09ea	-0.0005876111
37	0xb9dd84b6	-0.00042251282
38	0x00000000	0.0
39	0x3a0a219f	0.0005269292
40	0xb9e803c4	-0.00044253294
41	0xb94e2ccc	-0.00019662379
42	0x00000000	0.0
43	0x39f67f30	0.00047015538
44	0x00000000	0.0
45	0x00000000	0.0
46	0xba2133b9	-0.000614937
47	0xb9a35544	-0.0003115331
48	0xba2ba2e4	-0.0006547405
49	0x3987b34a	0.00025882787
50	0xb98544b5	-0.00025418928
51	0x39ced999	0.00039453505
52	0x00000000	0.0
53	0xb9ea1338	-0.00044646277
54	0x3a138b69	0.0005628379
55	0x38a23d83	7.7362194e-05
56	0xb9d4b359	-0.00040569415
57	0xb9ce498c	-0.00039346179
58	0x3a1df8ef	0.00060261687
59	0x00000000	0.0
60	0xb9a023ec	-0.00030544342
61	0xba0d1e49	-0.0005383236
62	0xb949fc1b	-0.0001926277
63	0xb84430ec	-4.6775604e-05

conv2.lin.weight f4 [64, 64]
0	0xbe416cda	-0.1888918
1	0xbe5843ce	-0.21119615
2	0xbdf656c1	-0.12028266
3	0xbdeb557f	-0.114909165
4	0xbe3960ea	-0.18103376
5	0x3e25e812	0.16201809
6	0x3d8e3e72	0.06945504
7	0x3dbbe824	0.09175137
8	0xba97eac2	-0.0011590349
9	0xbe3c5123	-0.18390326
10	0xbe0a4a4b	-0.13504903
11	0x3e066a19	0.1312641
12	0x3c30def2	0.010795342
13	0x3e41a276	0.1890963
14	0xbd7776ad	-0.060415912
15	0xbe500cbd	-0.2031736
16	0x3b1b3052	0.0023679924
17	0x3e00418c	0.12525004
18	0x3dbfe598	0.093699634
19	0x3e12f3a7	0.14350758
20	0x3dc3e238	0.09564632
21	0xbcd4c412	-0.0259724
22	0x3c4a1401	0.012333871
23	0xbe25a3ca	-0.16175762
24	0x3d002928	0.03128925
25	0xbdcb8e67	-0.099392705
26	0x3d257188	0.040391475
27	0xba3374ea	-0.00068457297
28	0xbd3568f0	-0.04428953
29	0x3e36da4e	0.17856714
30	0x3d0f2974	0.034951642
31	0x3dad8d7a	0.0847425
32	0x3e2a4a2d	0.16629858
33	0xbe56b4b6	-0.20967373
34	0xbda99a72	-0.08281411
35	0xbd0810a2	-0.033218987
36	0x3d4813c6	0.048846982
37	0xbe28df54	-0.16491443
38	0x3e44e642	0.19228461
39	0xbd3fb4d2	-0.046803303
40	0xbe118b0a	-0.14213195
41	0x3d78ee43	0.0607741
42	0xbe3686f1	-0.17824914
43	0x3cefcc72	0.029272292
44	0x3db27ac5	0.08714823
45	0x3dbbc536	0.091684744
46	0xbadddad0	-0.0016926173
47	0x3df0987f	0.11747836
48	0xbdae9f9f	-0.08526539
49	0x3e03bd4f	0.12865184
50	0x3d074254	0.03302224
51	0x3e111c78	0.14171016
52	0xbde2b9d5	-0.11070601
53	0x3e3e5826	0.18588313
54	0x3e1fd788	0.15609562
55	0xbcc90997	-0.024540706
56	0x3dd48b9f	0.10378193
57	0xbe1a4a3c	-0.1506738
58	0x3e2af916	0.16696581
59	0x3def5daa	0.11687787
60	0xbe0c8ea9	-0.13726296
61	0x3de4c6db	0.11170741
62	0xbd7ed651	-0.062216107
63	0x3e4d34cb	0.2003967
64	0x3c1aa44b	0.009438585
65	0x3db572b1	0.08859766
66	0xbd83dfa9	-0.06439144
67	0xbcf60f63	-0.030036634
68	0x3dc3c34e	0.09558736
69	0x3c9934c6	0.018701922
70	0x3e324b9c	0.17411655
71	0xbe4f5baa	-0.20249811
72	0x3cade9c5	0.021229634
73	0x3dce0901	0.10060311
74	0xbdb7076d	-0.08936963
75	0x3db5590d	0.08854876
76	0xbd11f5b2	-0.035634704
77	0x3df54ae1	0.11977173
78	0x3e158a12	0.14603451
79	0x3e52b702	0.20577624
80	0x3d95da3f	0.07317018
81	0x3e267d57	0.16258751
82	0x3e132314	0.1436885
83	0xbdd8a302	-0.10577966
84	0xbe1f11a5	-0.15534075
85	0x3e496714	0.19668227
86	0xbda3d418	-0.07999438
87	0x3da0d074	0.07852259
88	0x3df94653	0.121716164
89	0xbe1c0683	-0.15236859
90	0x3e029d8d	0.12755413
91	0xbda44bd2	-0.08022274
92	0xbe3643d6	-0.17799315
93	0x3dfb3902	0.12266733
94	0xbd85f031	-0.065399535
95	0xbb13c852	-0.002254982
96	0x3dcf8025	0.101318635
97	0xbe385d5d	-0.18004365
98	0xbdc8ee1b	-0.0981104
99	0x3e5b5b09	0.21421446
100	0xbe4c7fb9	-0.19970597
101	0xbd3a1615	-0.045431215
102	0x3e419350	0.18903852
103	0xbbe3d88b	-0.006953304
104	0xbe4f4b8a	-0.2024366
105	0x3e43e22f	0.19129251
106	0xbe2ac0a3	-0.16675048
107	0x3ddaa2de	0.10675596
108	0x3e31701f	0.17327927
109	0x3e425d61	0.18980934
110	0xbe3707b7	-0.17874037
111	0x3d4c43fe	0.04986953
112	0x3e262b96	0.16227564
113	0x3bd4c35e	0.006493016
114	0x3e0cd141	0.13751699
115	0x3ddb9b53	0.10722985
116	0x3e4c2c2d	0.19938727
117	0x3d3ffe83	0.04687358
118	0xbd7f7e00	-0.062376022
119	0xbe2ae30d	-0.16688175
120	0x3cb402ff	0.021974085
121	0x3ce9c3d1	0.028535755
122	0x3d0bf147	0.034165647
123	0x3d5b6690	0.053564608
124	0x3dd1d121	0.10244966
125	0xbdbf37a3	-0.09336784
126	0x3de1b607	0.11021047
127	0xbe2807b8	-0.16409194
128	0x3d4fe9ab	0.050759953
129	0xbe347993	-0.17624502
130	0x3de4ad0c	0.111658186
131	0x3d92e1ab	0.07171949
132	0xbe057930	-0.1303451
133	0xbe4fc732	-0.2029083
134	0xbe227db7	-0.15868269
135	0x3d54eacf	0.051981743
136	0x3d4dc4fa	0.05023668
137	0xbe17ce0f	-0.14824699
138	0x3cf689c4	0.030094989
139	0x3dc06f22	0.09396197
140	0xbca5c4ec	-0.020235501
141	0xbe5a2046	-0.21301374
142	0xbd265563	-0.040608775
143	0xbe3ca07e	-0.18420598
144	0x3e040ce7	0.12895547
145	0x3e2ef567	0.17085801
146	0xbd8813f9	-0.066444345
147	0x3dfd1204	0.12356952
148	0xbe4830fa	-0.19549933
149	0xbe075c12	-0.13218716
150	0xbdf3b4a0	-0.11899686
151	0xbd0d3224	-0.034471646
152	0xbdd531a3	-0.10409858
153	0xbd668b73	-0.056285333
154	0xbde92db5	-0.11385671
155	0x3e440bca	0.19145122
156	0xbdbb1de5	-0.09136561
157	0xbdd4bbed	-0.103874065
158	0x3e1d3101	0.15350725
159	0x3b735848	0.0037131477
160	0x3e0a569b	0.135096
161	0xbe4bf72f	-0.19918512
162	0xbd9f61ec	-0.07782349
163	0xbcf1b455	-0.029504934
164	0x3d915a1f	0.07097267
165	0xbe2e2b82	-0.17008784
166	0x3cf4fc8b	0.029905578
167	0x3d3851f6	0.04500004
168	0xbded4811	-0.11586011
169	0x3c231654	0.009954054
170	0xbc8d9a5d	-0.01728552
171	0x3e2729c5	0.16324528
172	0xbe493130	-0.1964767
173	0x3dac8950	0.08424628
174	0xbd10bd8c	-0.035337016
175	0xbb690829	-0.0035557842
176	0xbe0f0ee5	-0.13970526
177	0xbd82d4d7	-0.06388252
178	0x3dc3fa0a	0.095691755
179	0x3e38f7ce	0.1806328
180	0xbd8df583	-0.06931593
181	0x3c4d6f9e	0.012538819
182	0xbda46609	-0.08027274
183	0x3dc545d8	0.09632462
184	0xbd06ea04	-0.03293802
185	0xbd9b8f3b	-0.075956784
186	0xbdf62222	-0.12018229
187	0x3db81e6a	0.08990176
188	0x3da67f29	0.081297226
189	0x3e275983	0.1634274
190	0xbdc83cfd	-0.097772576
191	0x3d74b41f	0.05974209
192	0xbdcb5e29	-0.09930069
193	0x3e1d645c	0.15370315
194	0xbdac8336	-0.08423464
195	0xbd5b193f	-0.053490873
196	0xbe2fead9	-0.17179431
197	0x3c951a40	0.018200994
198	0xbe4b8589	-0.19875158
199	0x3e0a1f33	0.13488464
200	0x3bd33614	0.0064456556
201	0x3e0117cd	0.12606736
202	0x3d2b5ad0	0.041834652
203	0xbdebdb78	-0.1151647
204	0x3c6912e0	0.014225692
205	0x3dbd0cdb	0.092309676
206	0xbe587659	-0.21138896
207	0xbd173aa5	-0.036921162
208	0xbdee872a	-0.11646874
209	0x3dad6b7c	0.08467767
210	0x3df6c799	0.12049789
211	0x3e12c371	0.14332367
212	0xbe23eed5	-0.16009076
213	0xbe42d893	-0.19027929
214	0x3bce31fb	0.006292579
215	0x3e2ac1ae	0.16675445
216	0x3c73dba8	0.014883913
217	0x3e3eb23a	0.18622676
218	0xbdc128fc	-0.09431645
219	0xbe0bfc6f	-0.13670515
220	0x3da649c3	0.08119538
221	0xbcde1f2c	-0.027114473
222	0xbdc31689	-0.095257826
223	0x3dc58708	0.09644896
224	0xbe2b99d8	-0.16757905
225	0xbe0d09b9	-0.1377324
226	0x3d73ca31	0.059518997
227	0xbd2631c8	-0.04057482
228	0x3d64fb56	0.055903755
229	0x3e583c84	0.21116835
230	0x3e5a6e60	0.21331167
231	0x3e5bf72b	0.21481006
232	0xbe051833	-0.12997513
233	0x3dc22201	0.09479142
234	0xbc95ca5c	-0.018284969
235	0x3dd22843	0.102615856
236	0x3d995e05	0.07488636
237	0xbd6f858c	-0.05847697
238	0x3de252fe	0.11050986
239	0xbd9fd5e3	-0.078044675
240	0x3ccb5537	0.024820907
241	0xbe0925a8	-0.13393271
242	0xbcdf1651	-0.027232321
243	0x3e23371a	0.15938988
244	0xbe37283d	-0.17886443
245	0xbe45ca0b	-0.19315355
246	0x3e21fafa	0.15818396
247	0x3d5b0bab	0.053477924
248	0xbdea688f	-0.11445724
249	0x3ca8f35d	0.020623857
250	0x3e11d15e	0.14240023
251	0x3e33e95a	0.17569485
252	0x3dffe710	0.124952435
253	0x3d8143c3	0.06311753
254	0xbd078809	-0.033088718
255	0xbe4db5b7	-0.2008885

conv1d.weight f4 [64, 128, 3]
0	0xbd19ad7c	-0.037518963
1	0x3d11470f	0.035468157
2	0x3d20717c	0.039170727
3	0x3d48f588	0.04906228
4	0xbc3321b1	-0.010933326
5	0x3cfb37eb	0.030666312
6	0x3d336ec7	0.043806817
7	0x3cbb7d96	0.022887032
8	0x3d09f5c4	0.033681646
9	0x3d367a37	0.044550147
10	0x3ce232ae	0.027612057
11	0xbd3d553c	-0.046223864
12	0x3c89ad2c	0.016806208
13	0xbd24906e	-0.0401768
14	0x3d2deef1	0.0424642
15	0x3d48c52b	0.04901616
16	0x3d09b6bb	0.03362153
17	0xbb8f95b5	-0.00438186
18	0xbad9a419	-0.0016604691
19	0x3d0493c6	0.03236749
20	0xbcb3efdb	-0.021964958
21	0xbd2f2a9a	-0.042765237
22	0x3d4673d7	0.048450317
23	0x3ce300c8	0.027710333
24	0x3d3c09c8	0.045907766
25	0x3c9764f3	0.018480754
26	0x3d0b342c	0.0339853
27	0xbd481c8e	-0.048855357
28	0x3d4c174e	0.049826913
29	0xbcbd2ed7	-0.023093624
30	0x3b3e38fb	0.0029025662
31	0x3a95ae30	0.001141971
32	0xbc65a5e6	-0.014016604
33	0x3d337a2f	0.043817695
34	0xbc1b1759	-0.009466016
35	0x3c2b17b6	0.010442665
36	0x3d2e0325	0.042483468
37	0xbd476381	-0.04867888
38	0xbc08e1bd	-0.008354601
39	0x3c447930	0.011991784
40	0xbbbfc0e6	-0.0058518527
41	0x3d192faa	0.03739897
42	0xbbef4b16	-0.007302652
43	0x3c254693	0.010087627
44	0x3cf974cd	0.030451203
45	0x3c12f7e9	0.008970239
46	0xbd044154	-0.032288864
47	0xbcf16ede	-0.02947181
48	0xbcc2c9a4	-0.02377779
49	0x3c1a9dd8	0.009437047
50	0x3acc3a52	0.0015581346
51	0x3cb53089	0.02211787
52	0x3ceae237	0.02867232
53	0x3ce0387a	0.02737068
54	0x3b69e45a	0.0035689087
55	0xbc4d6f43	-0.012538734
56	0x3c976a97	0.018483443
57	0x3d452cd2	0.048138447
58	0xbcafd4d5	-0.02146379
59	0xbd41ad6e	-0.047284536
60	0x3d097ffc	0.03356932
61	0xbd1d9f46	-0.038481973
62	0x3c5b643a	0.013390595
63	0xbcd91e7c	-0.026503794
64	0x3d461eaa	0.048369087
65	0x3d39c85e	0.0453571
66	0xbd05aebf	-0.032637354
67	0xbd368a3b	-0.04456542
68	0x3aff747b	0.001948967
69	0x3c5eab54	0.0135906525
70	0xbc864ad2	-0.016393099
71	0xbceadec9	-0.028670685
72	0xbc8239c3	-0.015896684
73	0xbc80fc04	-0.01574517
74	0x3c523864	0.012830827
75	0xbca1e868	-0.01976414
76	0xbd4ed7ca	-0.05049876
77	0x3ce573f1	0.028009387
78	0x3c856848	0.016285077
79	0xbcefee18	-0.029288337
80	0xbd465faa	-0.048431076
81	0xba634a68	-0.000867045
82	0x3af6237e	0.0018778888
83	0xbc1bd2a8	-0.009510674
84	0xbd419d03	-0.04726888
85	0x3d4d0a88	0.05005887
86	0xbbf2a63f	-0.007405072
87	0x3c98bf3c	0.018645875
88	0xbd052a3d	-0.032510985
89	0xbbe0fb36	-0.006865884
90	0xbcab0437	-0.020876033
91	0x3b4bc36b	0.003109182
92	0x3c938df4	0.018012024
93	0xbce0bc16	-0.027433436
94	0xbce89f9d	-0.028396422
95	0xbc96213c	-0.018326394
96	0x3c915638	0.017741308
97	0x3c53f47d	0.0129367085
98	0x3b5b5e6f	0.0033473035
99	0x3ada529f	0.0016656703
100	0xbd3468b2	-0.044045158
101	0xbd147e4f	-0.03625327
102	0xbd4aa761	-0.04947603
103	0x3c4fc981	0.01268232
104	0xbd3ec733	-0.04657669
105	0x3d19f3f2	0.03758616
106	0xbd1cf36e	-0.03831809
107	0x3d30218f	0.043000754
108	0xbb369510	-0.0027859844
109	0x3d403a47	0.046930578
110	0x3d38cdad	0.045118023
111	0x3d0f2143	0.03494383
112	0xbccbd0ac	-0.024879776
113	0x3d490958	0.049081177
114	0xbbd1ccca	-0.0064025866
115	0xbc6157bb	-0.013753827
116	0xbba3a36e	-0.0049938476
117	0x3c78680c	0.015161525
118	0xbbc4a85d	-0.006001516
119	0xbc8f5280	-0.017495394
120	0x3d1ac8c9	0.03778914
121	0x3d20103d	0.039077986
122	0xbce36318	-0.027757213
123	0x3cef465b	0.029208353
124	0x3a1ad190	0.0005905861
125	0xbd212372	-0.039340444
126	0x3cac95a0	0.02106744
127	0xbb3e7e2e	-0.0029066908
128	0x3b2bd83a	0.002622141
129	0xbd3eefe3	-0.046615493
130	0x3bb5597d	0.0055343495
131	0xbc131836	-0.00897794
132	0xbc28208c	-0.010261666
133	0xbc8fabf5	-0.01753805
134	0x3d22e143	0.039765608
135	0xbc9c5545	-0.019083628
136	0xbc10b72e	-0.008832736
137	0x3c2de6d7	0.010614119
138	0xbd22f0c5	-0.039780397
139	0x3c5b68cb	0.013391684
140	0x3cea3abc	0.02859246
141	0xbc81f0a5	-0.015861819
142	0x3b49aa2a	0.0030771592
143	0xbc78cf5c	-0.015186157
144	0x3d3f63b2	0.046725936
145	0xbcbf04af	-0.023317663
146	0xbd3b27f8	-0.045692414
147	0xbcf7d1a9	-0.030251341
148	0x3d36680f	0.04453283
149	0xbcf476a4	-0.029841729
150	0xbc70c4aa	-0.014695326
151	0xbca48794	-0.02008418
152	0x3b2a980e	0.0026030573
153	0xbd068b82	-0.03284789
154	0x3d0dae09	0.0345898
155	0x3d169add	0.036768783
156	0xbc9196bc	-0.017772071
157	0xbcbb1a86	-0.022839796
158	0x3d0841f7	0.033266034
159	0xbd237d2f	-0.039914306
160	0x3d502a85	0.0508218
161	0xbc3be1cd	-0.011467409
162	0xbbe225a4	-0.00690146
163	0x3d02740d	0.031848956
164	0x3c8e9ff5	0.017410258
165	0xbc8aba18	-0.01693444
166	0x3cccd7b9	0.025005208
167	0x3b82a705	0.0039871954
168	0x3a706706	0.0009170625
169	0x3d480bc2	0.048839338
170	0xbd0f0604	-0.034917846
171	0xbbf1a36b	-0.0073742173
172	0xbcd53b67	-0.026029302
173	0x3d13ebd1	0.036113564
174	0x3bdadfb9	0.006679502
175	0x3cda7774	0.026668288
176	0xbcff8c74	-0.031194903
177	0x3971274f	0.00022998195
178	0x3d4e44bd	0.050358523
179	0xbce2b9cc	-0.027676485
180	0xbd129714	-0.03578861
181	0x3d17c4be	0.037052862
182	0x3b994c18	0.0046782605
183	0x3d3b5018	0.04573068
184	0xbce7b6d6	-0.028285425
185	0xbcd93bd7	-0.026517792
186	0x3c593a7d	0.013258574
187	0xbb2153a0	-0.0024616495
188	0xbd06fa99	-0.032953832
189	0xbca174ce	-0.019709017
190	0xbd3eddc4	-0.04659821
191	0x3c179758	0.009252392
192	0xbc48e001	-0.012260438
193	0xbd2d7f60	-0.042357802
194	0x3d249fa5	0.04019131
195	0x3d27e51d	0.040989984
196	0x3c391a05	0.011297707
197	0x3cee5abe	0.029096004
198	0xbc8ec504	-0.017427929
199	0xbcee7214	-0.029107131
200	0xbd05387c	-0.03252457
201	0x3d20a5fd	0.0392208
202	0x3d115eac	0.035490677
203	0xbc2fc4bf	-0.01072806
204	0x3b770faa	0.0037698545
205	0x3d2aa7c0	0.041663885
206	0xbc890e39	-0.016730415
207	0x3c50add1	0.012736754
208	0xbc39bbd0	-0.011336282
209	0xbb62351b	-0.0034516517
210	0x3d04061e	0.032232396
211	0x3c6e54d0	0.014546588
212	0x3c2c800a	0.010528574
213	0xbd1fb951	-0.03899509
214	0xbd34a5f6	-0.044103585
215	0x3d1cfa65	0.038324732
216	0x3be036ff	0.0068424935
217	0xbba55d5c	-0.0050465297
218	0xbb8ad6a9	-0.0042370153
219	0x3d4fab7f	0.05070066
220	0xbd0aa41a	-0.033847906
221	0xb98848e6	-0.00025994255
222	0x3d2fc6ea	0.04291431
223	0xbd378d6d	-0.04481261
224	0x3d11ccc1	0.03559566
225	0x3d121bbe	0.03567099
226	0x3d17d82c	0.037071392
227	0x3d1b2835	0.03788014
228	0xbd32fc1b	-0.043697458
229	0x3ce4a871	0.02791235
230	0x3d030442	0.031986482
231	0xbcace49f	-0.021105109
232	0x3ca143ad	0.01968559
233	0x3d3696f0	0.04457754
234	0x3ce96f18	0.028495356
235	0x3b1552d7	0.0022784972
236	0x3d212424	0.039341107
237	0x3d1d873c	0.038459048
238	0x3d205ffd	0.03915404
239	0x3d262dca	0.04057101
240	0x3d3b8fc8	0.045791417
241	0x3c898faa	0.016792137
242	0x3d21ac01	0.039470676
243	0xbd380a9b	-0.04493199
244	0xba2ecc81	-0.00066680467
245	0x3c62aa7a	0.01383459
246	0x3d047ec6	0.032347463
247	0xbcd6ee7b	-0.026236763
248	0xbb8cd5af	-0.004297934
249	0x3bea32bc	0.0071471613
250	0xbc62a440	-0.013833106
251	0xbd234714	-0.039862707
252	0x3d0cccad	0.03437488
253	0x3d0d4272	0.034487195
254	0x3c9066ab	0.01762708
255	0x3d35729d	0.044298757

conv1d.bias f4 [64]
0	0xbcb979d1	-0.022641094
1	0xbcfd8d22	-0.030951086
2	0x3ba65338	0.0050758384
3	0x3d0a0b77	0.03370234
4	0x3d4c47bb	0.049873095
5	0x3c21f18c	0.009884249
6	0xbd09eee0	-0.033675075
7	0x3d3f8046	0.04675319
8	0xbc26a53b	-0.01017123
9	0x3d4fa78c	0.050696895
10	0xbc48aee0	-0.012248725
11	0x3ba08af7	0.0048993784
12	0xbce70712	-0.028201614
13	0xbd39fa09	-0.045404468
14	0x3d417e0c	0.04723935
15	0xbc995610	-0.018717796
16	0x3c612df4	0.013743866
17	0x3c06acdf	0.008219927
18	0x3c84dfba	0.016219962
19	0x3c366de5	0.011134599
20	0xbba2336c	-0.0049499776
21	0xbc7b8220	-0.015350848
22	0x3d4d79f4	0.05016513
23	0x3d3dfee4	0.04638566
24	0xbc1aec67	-0.009455777
25	0xbd09dad5	-0.03365596
26	0x3c71bf94	0.014755148
27	0x3cab4fa3	0.020911997
28	0x3aaac44f	0.0013028475
29	0xbcf6672f	-0.030078499
30	0xbc8ceae3	-0.017201846
31	0x3ce416e8	0.027842954
32	0xbd2b5698	-0.04183063
33	0xbc9aba93	-0.018887794
34	0xbd23390d	-0.03984933
35	0xbc3dffb3	-0.011596608
36	0x3c26dbcf	0.010184242
37	0x3d355552	0.04427082
38	0xba6cda57	-0.0009035221
39	0x3ce547f7	0.027988417
40	0xbc0eec2e	-0.008723302
41	0x3d49e829	0.04929367
42	0x3bb9b27d	0.0056670294
43	0xbd1b249f	-0.03787672
44	0x3d047fc6	0.032348417
45	0x3d1d382d	0.03838365
46	0xbcd7f22d	-0.026360596
47	0xbc4ffae7	-0.012694097
48	0x3d1148e7	0.035469916
49	0xbba05ab2	-0.004893624
50	0xbb443a71	-0.002994206
51	0x3d3e439a	0.04645119
52	0xbbe62e3c	-0.0070245545
53	0x3cf01b3b	0.02930986
54	0xbd032e36	-0.032026492
55	0xbcab0b09	-0.020879285
56	0x3c89c702	0.016818527
57	0xbcd9174e	-0.02650037
58	0x3cd85a43	0.026410228
59	0x3b9637f8	0.0045843087
60	0x3b35008d	0.0027618736
61	0x3b3f74da	0.0029213936
62	0xbcc8f16c	-0.024529181
63	0x3d3aa0d0	0.04556352

fc.0.weight f4 [64, 64]
0	0xbd87bf32	-0.066282645
1	0xbd9a3664	-0.075299054
2	0xbdd2ec2e	-0.10298954
3	0x3db72640	0.089428425
4	0xbdf93ee3	-0.12170198
5	0x3dabadd1	0.08382762
6	0xbdf08709	-0.11744506
7	0x3db749b6	0.08949606
8	0x3d268496	0.040653788
9	0xbd835d5a	-0.0641429
10	0x3dbfde0f	0.09368526
11	0x3c98c69e	0.018649396
12	0x3ccbbb85	0.02486969
13	0x3de7690f	0.11299335
14	0x3d678241	0.056520704
15	0x3dd2190c	0.102586836
16	0xbd72c42e	-0.059269123
17	0x3c93b512	0.018030677
18	0xbd4e90dc	-0.050431117
19	0x3e0065df	0.1253886
20	0xbdffb7a2	-0.12486197
21	0x3d147da3	0.03625263
22	0x3cb0154f	0.021494536
23	0xbd69579c	-0.056968316
24	0xbd2aa0d9	-0.041657303
25	0x3c9c48f3	0.019077754
26	0xbdcf4a89	-0.10121638
27	0x3d9ebedd	0.07751248
28	0xbd4af4a4	-0.049549714
29	0x3c58c363	0.013230178
30	0x3d6116d8	0.054953426
31	0x3db1bf8b	0.08679112
32	0x3db148dc	0.08656475
33	0x3db98be5	0.09059886
34	0x3cc96e90	0.024588853
35	0xbd5e631c	-0.054293737
36	0xbdf97429	-0.12180359
37	0xbc098abe	-0.008394895
38	0x3d8f4af2	0.069967166
39	0x3de2c7b5	0.11073247
40	0x3ddb3312	0.107031
41	0xbcd8e2ed	-0.026475394
42	0xbd2e83d9	-0.04260621
43	0x3c8fe1a0	0.017563641
44	0xbcf2e930	-0.029652208
45	0x3dade99f	0.08491825
46	0xbd2c112a	-0.042008556
47	0xbd95be87	-0.07311731
48	0x3c70e57b	0.01470315
49	0x3d6f73bf	0.058459993
50	0x3dfd7088	0.12374979
51	0xbdb0f49f	-0.08640408
52	0x3dee6bf3	0.116416834
53	0xbdc5a1c5	-0.09649996
54	0x3d08b9e4	0.033380404
55	0x3d996016	0.0748903
56	0xbc642599	-0.01392498
57	0xbdbe8431	-0.09302557
58	0xbd8828d7	-0.066484146
59	0xbd9e8d73	-0.07741823
60	0xbd844e91	-0.06460298
61	0xbc2f8117	-0.01071193
62	0x3c9f0d7f	0.019415615
63	0xbdc9477d	-0.098280884
64	0x3df07b64	0.11742285
65	0x3dd9fde0	0.10644126
66	0x3de1781c	0.11009237
67	0x3c729fa0	0.014808565
68	0xbc8a6040	-0.016891599
69	0xbd6aefec	-0.057357714
70	0x3cd240a8	0.025665596
71	0x3c6a4490	0.014298573
72	0xbd6ec508	-0.058293372
73	0x3dbc6406	0.091987655
74	0xbcdd1f70	-0.02699253
75	0xbc58f7b0	-0.013242647
76	0xbd3b6720	-0.045752645
77	0x3db3aa4c	0.08772716
78	0x3dddbda4	0.10827187
79	0x3d962f32	0.073332205
80	0xbdcc9598	-0.0998947
81	0xbd82d702	-0.06388666
82	0x3c56b9f0	0.013105854
83	0x3cdce410	0.026964217
84	0x3daef162	0.08542134
85	0xbcd2fc88	-0.025755182
86	0x3d81f03a	0.06344648
87	0xbc6fe9e0	-0.0146431625
88	0x3cc9f4b0	0.024652809
89	0xbd120db0	-0.035657585
90	0xbdf55a06	-0.11980061
91	0x3d918a54	0.07106462
92	0x3dee6788	0.11640841
93	0x3d5a5fb8	0.05331394
94	0xbda3eebe	-0.08004521
95	0xbd95e6b0	-0.07319391
96	0x3dc90e26	0.09817152
97	0xbda6b5c8	-0.08140141
98	0x3d44f054	0.048080757
99	0x3dbe33ac	0.092871994
100	0xbd91954e	-0.07108556
101	0xbda57cca	-0.08080442
102	0x3d95c310	0.07312596
103	0xbdb83480	-0.089943886
104	0x3ddf459a	0.10901947
105	0xbd2ec888	-0.04267171
106	0x3dfc1d8c	0.12310323
107	0x3dfa06a0	0.12208295
108	0xbcc90038	-0.024536237
109	0x3cf2dda0	0.029646695
110	0xbb891580	-0.004183471
111	0x3c12a3d0	0.008950189
112	0xbb99bba0	-0.004691556
113	0x3d92c4fc	0.07166478
114	0x3d169734	0.036765292
115	0x3cc94f20	0.024573863
116	0x3dd8e9cc	0.10591468
117	0xbc14faa0	-0.009092957
118	0x3c51fa70	0.012816057
119	0xbca693b0	-0.020334095
120	0xbdca4f9a	-0.09878464
121	0x3daaccdc	0.08339855
122	0xbd751e60	-0.05984342
123	0x3d89981e	0.06718467
124	0x3dcf5a4a	0.10124643
125	0xbde43d06	-0.11144452
126	0x3de05c3c	0.10955092
127	0xbd800472	-0.06250848
128	0xbc496670	-0.012292489
129	0xbdaf2812	-0.08552565
130	0xbd1dbbda	-0.038509227
131	0xbd5b0fc9	-0.05348185
132	0xbd05eb42	-0.032695062
133	0x3dffa385	0.12482361
134	0xbd23dce1	-0.04000557
135	0x3db40f28	0.08791953
136	0xbda25ef0	-0.07928264
137	0xbd395eac	-0.0452563
138	0xbdef753a	-0.11692281
139	0x3dce85f5	0.10084144
140	0x3db6af9e	0.08920215
141	0xbd96d091	-0.07364
142	0xbdacb5a5	-0.084330834
143	0xbc8200de	-0.015869554
144	0x3deb566f	0.11491095
145	0xbd35ff47	-0.044432905
146	0xbc46575b	-0.012105788
147	0xbdcb1453	-0.09915986
148	0x3ddcd59e	0.10782932
149	0xbd8d74bb	-0.0690703
150	0xbdf099f4	-0.11748114
151	0xbd9c3fea	-0.07629378
152	0xbd66471a	-0.05622015
153	0x3d948475	0.07251827
154	0x3d8548f9	0.06508059
155	0x3d1ed412	0.038776465
156	0x3dee9e7c	0.11651322
157	0xbc9a6999	-0.018849181
158	0x3bc4f1c0	0.006010264
159	0xbdf073f8	-0.11740869
160	0xbd978ed5	-0.0740029
161	0x3da7e406	0.08197789
162	0xbd384340	-0.04498601
163	0x3d3fbf60	0.04681337
164	0xbb51496d	-0.0031934634
165	0x3de8596a	0.113451794
166	0x3ca26cdc	0.019827299
167	0x3df1600f	0.117859
168	0x3c0071f6	0.00783967
169	0xbcfb9813	-0.030712163
170	0x3dad0d36	0.084497854
171	0x3d617d10	0.05505091
172	0xbc891b4e	-0.016736653
173	0xbdb8c0a2	-0.09021117
174	0xbd66ebbe	-0.056377165
175	0x3d6fac92	0.058514185
176	0x3cdd3186	0.027001154
177	0xbd402848	-0.046913415
178	0xbd1f14df	-0.038838264
179	0x3df3cc34	0.11904183
180	0xbda6768f	-0.08128082
181	0xbd74b147	-0.059739377
182	0x3dca95a8	0.09891826
183	0xbd42ca16	-0.047556005
184	0x3c294dcf	0.010333492
185	0xbdcbad19	-0.09945125
186	0xbda2fbfe	-0.0795822
187	0x3c0ee244	0.008720938
188	0xbdf25684	-0.11832908
189	0xbd652bb7	-0.055949893
190	0xbd291d9f	-0.041288015
191	0x3deee5b9	0.1166491
192	0x3d84abd0	0.06478083
193	0x3bb6dd80	0.005580604
194	0xbd839814	-0.06425491
195	0x3df441d2	0.11926617
196	0x3cb517c0	0.022106051
197	0x3dc4fd04	0.096185714
198	0x3df88fc6	0.121367976
199	0x3de85224	0.11343792
200	0x3d93dbae	0.07219635
201	0x3d96ae22	0.07357432
202	0x3db92e38	0.09042019
203	0xbd443db0	-0.047910392
204	0x3d8f75ee	0.07004915
205	0x3d2d2dc8	0.04227999
206	0xbd32fb08	-0.043696433
207	0xbc2c74c0	-0.010525882
208	0x3d283bcc	0.04107265
209	0x3df8a584	0.121409446
210	0x3d3ca18c	0.0460525
211	0xbd11f870	-0.03563732
212	0xbc10dd90	-0.008841887
213	0x3cb75d88	0.022383466
214	0x3d371724	0.044699803
215	0x3dc25dc6	0.09490542
216	0x3b48fbc0	0.0030667633
217	0x3da9cee0	0.082914114
218	0xbd7fea80	-0.062479496
219	0xbdef7aca	-0.11693342
220	0x3ddbc31e	0.10730575
221	0xbdaabc7c	-0.08336732
222	0x3c469cd0	0.012122348
223	0x3b599f40	0.0033206493
224	0xbde6d670	-0.112713695
225	0xbd330300	-0.043704033
226	0xbda4e506	-0.08051495
227	0xbd93e85c	-0.072220534
228	0xbdce5416	-0.10074632
229	0xbde86430	-0.11347234
230	0x3daffc24	0.08593014
231	0x3d159ff8	0.03652951
232	0xbdb25752	-0.08708061
233	0x3d23524c	0.039873406
234	0xbcf43768	-0.029811576
235	0x3d3a47e8	0.04547873
236	0xbceda818	-0.029010817
237	0x3d5a1e20	0.053251386
238	0x3de37806	0.11106877
239	0x3dd0316e	0.10165678
240	0x3dfc2e06	0.12313466
241	0xbbeb13a0	-0.0071739703
242	0xbd8109d4	-0.06300703
243	0x3da178cc	0.07884368
244	0xbdba35c4	-0.09092286
245	0x3c851a10	0.01624778
246	0xbd9fdb7a	-0.07805534
247	0x3d64f22c	0.055895016
248	0x3d26d2c0	0.04072833
249	0x3c022230	0.007942721
250	0xbd3800a0	-0.04492247
251	0xbba57d40	-0.0050503314
252	0xbd1f1778	-0.03884074
253	0xbd9b5a04	-0.075855285
254	0x3d1ec6b4	0.038763717
255	0x3daad130	0.083406806

fc.0.bias f4 [64]
0	0x3d9fe34e	0.07807027
1	0xbde896ac	-0.113568634
2	0x3dc64308	0.09680754
3	0xbd934e1c	-0.071926326
4	0x3d17ab45	0.03702857
5	0xbd8b9ce0	-0.06817031
6	0x3db5f352	0.088843
7	0xbbe1c479	-0.0068898764
8	0x3df079a9	0.11741955
9	0x3d94acc5	0.07259516
10	0xbab4d3cb	-0.0013796029
11	0xbdab545a	-0.08365698
12	0xbdb25b3a	-0.08708806
13	0x3c516815	0.012781163
14	0xbdd47ef2	-0.103757754
15	0x3db4bd97	0.08825224
16	0x3b33659a	0.0027373792
17	0x3dca8787	0.09889131
18	0xbd74fb60	-0.059810042
19	0xbd22f6b8	-0.03978607
20	0x3d972d97	0.073817424
21	0x3cd3aa61	0.025838079
22	0xbd31ce08	-0.043409377
23	0xbd915c90	-0.07097733
24	0x3d500e23	0.05079473
25	0xbdbaa4cc	-0.09113464
26	0xbdcfbb60	-0.10143161
27	0xbd28a4f0	-0.04117292
28	0x3d6bdaee	0.057581834
29	0x3ccd5ffa	0.02507018
30	0x3dfe5b83	0.12419798
31	0xbd574144	-0.052552477
32	0xbd8e4dec	-0.06948456
33	0xbd3ed578	-0.0465903
34	0x3c5f8a91	0.013643877
35	0x3de926b6	0.11384337
36	0x3c19f208	0.009396084
37	0xbda44302	-0.08020593
38	0xbcddd478	-0.027078852
39	0x3de17f1c	0.11010572
40	0xbcb06188	-0.021530882
41	0x3df1893c	0.117937535
42	0xbd414488	-0.047184497
43	0x3d854293	0.06506839
44	0x3d8ef21b	0.06979772
45	0x3dbe0c94	0.09279743
46	0x3db6607e	0.08905123
47	0x3da5b33b	0.08090826
48	0x3de1678f	0.1100608
49	0xbdd89c30	-0.105766654
50	0xbd2e0bbc	-0.04249166
51	0xbdc43432	-0.09580268
52	0x3dfd5f81	0.123717315
53	0xbc0183c8	-0.007904954
54	0x3db5de6f	0.088803165
55	0x3dd3617a	0.103213266
56	0x3dddb35c	0.10825226
57	0x3dcb8bc9	0.09938771
58	0xbd90958e	-0.07059775
59	0xbd168764	-0.036750212
60	0x3d5b9e96	0.053618036
61	0xbd197130	-0.03746146
62	0xba1f6500	-0.0006080419
63	0x3de5312d	0.1119102

fc.2.weight f4 [1, 64]
0	0x3beba8d1	0.0071917553
1	0xbc4fd2d0	-0.012684539
2	0xbdd1cc2d	-0.102440216
3	0xbdfccef0	-0.12344158
4	0x3d66eaa3	0.05637611
5	0x3d96fa1c	0.07371923
6	0xbd0b6301	-0.034029964
7	0xbd2636f2	-0.040579744
8	0xbd728efe	-0.0592184
9	0xbddd2f8d	-0.10800085
10	0x3c9c6471	0.019090863
11	0x3d9cc348	0.076544344
12	0x3ddbfa94	0.10741153
13	0x3d41af52	0.04728634
14	0x3c853648	0.016261235
15	0x3dd2b7c9	0.102889605
16	0x3dcf5a76	0.10124676
17	0x3dd19e35	0.10235254
18	0x3d610c2c	0.05494325
19	0x3d91b826	0.07115202
20	0xbcb8290a	-0.022480506
21	0xbdc69fc7	-0.09698444
22	0x3db3777c	0.08763024
23	0xbda0ab32	-0.07845153
24	0xbd9dd86c	-0.07707295
25	0x3cc38fa8	0.023872212
26	0x3ded9da8	0.11602336
27	0x3db0f960	0.086413145
28	0xbdc82409	-0.09772498
29	0xbd8d2d97	-0.06893461
30	0x3dde8da9	0.10866863
31	0xbd3a39f0	-0.04546541
32	0x3ddb61f2	0.10712041
33	0xbdbe03ca	-0.092780665
34	0x3d42ecf0	0.047589242
35	0x3d84742a	0.06467469
36	0xbce9261f	-0.02846056
37	0xbc907268	-0.017632678
38	0x3cd11980	0.025524855
39	0xbceb6782	-0.02873588
40	0x3c384140	0.011246026
41	0xbba7ca45	-0.005120548
42	0x3d71848c	0.058964297
43	0xbdddcbd6	-0.10829894
44	0xbd1d8a0c	-0.03846173
45	0x3d40906d	0.047012735
46	0xbdd8b5fa	-0.10581584
47	0xbdd38adb	-0.10329219
48	0xbdcb5e80	-0.09930134
49	0x3c87de08	0.016585365
50	0xbd1e3c10	-0.0386315
51	0xbc0e9b00	-0.008703947
52	0xbc829477	-0.015939934
53	0xbd4bfccf	-0.049801644
54	0x3dd5fdfa	0.10448833
55	0xbda2d40a	-0.079505995
56	0x3da8c054	0.08239809
57	0xbd7bf1d3	-0.06150992
58	0x3d8f61d6	0.070010826
59	0xbd15a09c	-0.036530122
60	0x3d00f5fa	0.03148458
61	0x3de0ea24	0.10982159
62	0x3c716cf0	0.014735445
63	0x3d01f5c3	0.031728517
