data_files/out_gen/discriminator_epoch9.pt (torch, 137429 bytes, 9 tensors)

conv1.bias f4 [64]
0	0x00000000	0.0
1	0x00000000	0.0
2	0x00000000	0.0
3	0x00000000	0.0
4	0x00000000	0.0
5	0x00000000	0.0
6	0x00000000	0.0
7	0x00000000	0.0
8	0x00000000	0.0
9	0x00000000	0.0
10	0x00000000	0.0
11	0x00000000	0.0
12	0x00000000	0.0
13	0x00000000	0.0
14	0x00000000	0.0
15	0x00000000	0.0
16	0x00000000	0.0
17	0x00000000	0.0
18	0x00000000	0.0
19	0x00000000	0.0
20	0x00000000	0.0
21	0x00000000	0.0
22	0x00000000	0.0
23	0x00000000	0.0
24	0x00000000	0.0
25	0x00000000	0.0
26	0x00000000	0.0
27	0x00000000	0.0
28	0x00000000	0.0
29	0x00000000	0.0
30	0x00000000	0.0
31	0x00000000	0.0
32	0x00000000	0.0
33	0x00000000	0.0
34	0x00000000	0.0
35	0x00000000	0.0
36	0x00000000	0.0
37	0x00000000	0.0
38	0x00000000	0.0
39	0x00000000	0.0
40	0x00000000	0.0
41	0x00000000	0.0
42	0x00000000	0.0
43	0x00000000	0.0
44	0x00000000	0.0
45	0x00000000	0.0
46	0x00000000	0.0
47	0x00000000	0.0
48	0x00000000	0.0
49	0x00000000	0.0
50	0x00000000	0.0
51	0x00000000	0.0
52	0x00000000	0.0
53	0x00000000	0.0
54	0x00000000	0.0
55	0x00000000	0.0
56	0x00000000	0.0
57	0x00000000	0.0
58	0x00000000	0.0
59	0x00000000	0.0
60	0x00000000	0.0
61	0x00000000	0.0
62	0x00000000	0.0
63	0x00000000	0.0

conv1.lin.weight f4 [64, 2]
0	0xbe8ea95c	-0.27863586
1	0xbd91393c	-0.07090995
2	0xbd6453db	-0.055744033
3	0xbe2a0203	-0.1660233
4	0x3e5717ac	0.21005124
5	0x3e6c531e	0.23078582
6	0xbdb3a465	-0.0877159
7	0x3e5d2d01	0.21599199
8	0xbe2b1593	-0.16707449
9	0xbc149ef7	-0.009071103
10	0xbcab8f6d	-0.020942414
11	0xbe660bdb	-0.2246546
12	0x3d8f5efa	0.07000537
13	0x3e296abb	0.1654462
14	0xbe803dd9	-0.25047186
15	0xbe0a332a	-0.1349608
16	0x3d8e1d4d	0.069391824
17	0x3dabbc24	0.08385494
18	0xbc020667	-0.007936097
19	0xbe43c85b	-0.19119398
20	0xbe85ffa5	-0.26171604
21	0xbc9f83a4	-0.01947195
22	0x3e4be3bb	0.19911091
23	0x3da56e00	0.080776215
24	0xbe78c4a0	-0.24293756
25	0xbe3b5ed9	-0.182979
26	0x3da5b047	0.08090263
27	0x3e16716c	0.14691705
28	0x3e6d8234	0.231942
29	0xbe44cf9a	-0.19219819
30	0xbe5312d4	-0.20612651
31	0x3cc8ae85	0.02449728
32	0xbe3bd743	-0.18343835
33	0x3e8c5e21	0.27415565
34	0x3cfe81aa	0.031067688
35	0x3e60a251	0.21936919
36	0xbdcd266a	-0.100170925
37	0xbe5a1ed6	-0.21300825
38	0x3ddd136f	0.10794722
39	0x3de318a5	0.11088685
40	0x3e1f6de8	0.1556927
41	0x3e486de9	0.19573177
42	0x3e0842ee	0.13306782
43	0xbe4652f5	-0.19367583
44	0xbe8fc000	-0.28076172
45	0x3e79ec35	0.24406512
46	0xbd56abb8	-0.052409858
47	0xbe1f6875	-0.15567191
48	0x3d149824	0.036277905
49	0xbe882904	-0.26593792
50	0x3e02ad2a	0.1276137
51	0xbdd6b342	-0.104834095
52	0x3ae3f3b6	0.0017391357
53	0x3e5fead9	0.21866931
54	0x3dbe7293	0.09299197
55	0x3da08cd2	0.07839359
56	0xbb170cd5	-0.002304842
57	0xbe52eda6	-0.20598468
58	0x3dd20ea9	0.102567025
59	0x3cbe9353	0.023263609
60	0x3d414572	0.04718537
61	0x3e37b606	0.1794053
62	0xbe8a1df3	-0.26975974
63	0x3bc1be51	0.00591258
64	0xbe7c5fc9	-0.24645914
65	0xbd100404	-0.03516008
66	0x3e91c4ea	0.28470546
67	0xbe1748a2	-0.14773801
68	0xbe5aedd3	-0.21379785
69	0x3d6660ad	0.05624454
70	0xbcf78228	-0.03021343
71	0xbdda09be	-0.106463894
72	0x3e7b951f	0.24568604
73	0x3e355430	0.17707896
74	0xbe302fa3	-0.17205672
75	0x3d458495	0.048222143
76	0x3e54014c	0.2070362
77	0x3d26bf60	0.040709853
78	0xbe14c1e2	-0.14527085
79	0x3e617a18	0.22019231
80	0x3e6b498e	0.22977278
81	0x3dfc633a	0.123236135
82	0xbdb65f7d	-0.08904932
83	0x3cbc9140	0.02301848
84	0xbd0d35db	-0.03447519
85	0x3e8879fd	0.2665557
86	0x3d99afdc	0.07504246
87	0x3d08ba57	0.033380833
88	0xbe98cd07	-0.29843923
89	0x3df4e312	0.11957373
90	0x3d7d5ff3	0.061859082
91	0xbd9b24a4	-0.07575348
92	0xbccca28b	-0.02497985
93	0x3d6413dc	0.055683002
94	0xbdf9c757	-0.12196224
95	0x3e942b02	0.28939062
96	0x3e3d4a3c	0.1848535
97	0xbd573140	-0.052537203
98	0x3e05db93	0.13072042
99	0xbda10cb3	-0.0786375
100	0x3d8a0600	0.06739426
101	0xbe342883	-0.17593579
102	0x3d6d88e2	0.05799187
103	0xbe28c265	-0.16480406
104	0x3e8b2b35	0.27181402
105	0xbd09e9cf	-0.033670243
106	0xbe09a147	-0.13440429
107	0x3d49181f	0.04909527
108	0x3e9301ac	0.28712213
109	0x3e138da2	0.14409497
110	0xbe747255	-0.23871739
111	0xbd54f995	-0.051995832
112	0x3e73a66f	0.23793958
113	0xbe811dd7	-0.25218078
114	0x3c37a961	0.011209817
115	0x3e64e077	0.22351252
116	0x3c8434f3	0.01613853
117	0x3e6cfaf5	0.23142608
118	0xbd9aabcf	-0.07552301
119	0x3e4320a8	0.19055426
120	0x3e2108b7	0.1572598
121	0x3daa8449	0.08326013
122	0xbdce1f33	-0.100645445
123	0x3e261cbd	0.162219
124	0x3e80bcc2	0.2514401
125	0x3e1bd650	0.15218472
126	0xbe193f7d	-0.14965625
127	0xbdf12131	-0.11773909

conv2.bias f4 [64]
0	0x00000000	0.0
1	0x00000000	0.0
2	0x00000000	0.0
3	0x00000000	0.0
4	0x00000000	0.0
5	0x00000000	0.0
6	0x00000000	0.0
7	0x00000000	0.0
8	0x00000000	0.0
9	0x00000000	0.0
10	0x00000000	0.0
11	0x00000000	0.0
12	0x00000000	0.0
13	0x00000000	0.0
14	0x00000000	0.0
15	0x00000000	0.0
16	0x00000000	0.0
17	0x00000000	0.0
18	0x00000000	0.0
19	0x00000000	0.0
20	0x00000000	0.0
21	0x00000000	0.0
22	0x00000000	0.0
23	0x00000000	0.0
24	0x00000000	0.0
25	0x00000000	0.0
26	0x00000000	0.0
27	0x00000000	0.0
28	0x00000000	0.0
29	0x00000000	0.0
30	0x00000000	0.0
31	0x00000000	0.0
32	0x00000000	0.0
33	0x00000000	0.0
34	0x00000000	0.0
35	0x00000000	0.0
36	0x00000000	0.0
37	0x00000000	0.0
38	0x00000000	0.0
39	0x00000000	0.0
40	0x00000000	0.0
41	0x00000000	0.0
42	0x00000000	0.0
43	0x00000000	0.0
44	0x00000000	0.0
45	0x00000000	0.0
46	0x00000000	0.0
47	0x00000000	0.0
48	0x00000000	0.0
49	0x00000000	0.0
50	0x00000000	0.0
51	0x00000000	0.0
52	0x00000000	0.0
53	0x00000000	0.0
54	0x00000000	0.0
55	0x00000000	0.0
56	0x00000000	0.0
57	0x00000000	0.0
58	0x00000000	0.0
59	0x00000000	0.0
60	0x00000000	0.0
61	0x00000000	0.0
62	0x00000000	0.0
63	0x00000000	0.0

conv2.lin.weight f4 [64, 64]
0	0xbcb73a1a	-0.022366572
1	0xbe1d172b	-0.15340869
2	0xbd15ceef	-0.0365743
3	0xbd998442	-0.07495929
4	0x3de20850	0.11036742
5	0xbe1ce9ee	-0.15323612
6	0x3e18eb8e	0.14933607
7	0x3e1cb91c	0.15304989
8	0x3d51403e	0.051086657
9	0x3d77517e	0.06038045
10	0xbd2c412c	-0.04205434
11	0x3e46d225	0.19416101
12	0xbd9aea67	-0.0756424
13	0x3dcefd9b	0.10106965
14	0x3d0ce7c5	0.03440072
15	0xbe369bc4	-0.17832857
16	0xbe136f20	-0.1439786
17	0x3c1809ac	0.00927965
18	0x3e49844b	0.19679372
19	0xbe1c3746	-0.1525546
20	0xbe2b7cee	-0.16746876
21	0xbe171ae8	-0.14756358
22	0xbd1c3590	-0.03813702
23	0xbd9cbbac	-0.07652983
24	0x3e2deec7	0.16985618
25	0xbdcf2521	-0.10114504
26	0x3c87d847	0.016582621
27	0x3be79d14	0.0070682857
28	0x3bc730e0	0.0060788244
29	0xbbc72be5	-0.0060782307
30	0xbdb07e55	-0.08617846
31	0xbe397178	-0.18109691
32	0x3e1e9785	0.15487488
33	0x3e211b4c	0.15733069
34	0x3e5cb2d0	0.21552587
35	0xbdda227b	-0.10651108
36	0xbdb4b74b	-0.08824023
37	0x3d83c30a	0.06433685
38	0xbe2959c4	-0.16538149
39	0xbe095b16	-0.13413653
40	0xbda7371f	-0.081648104
41	0x3da83eec	0.082151264
42	0xbd82e322	-0.063909784
43	0x3d696d0d	0.056988765
44	0x3e22efca	0.15911785
45	0xbdb30f36	-0.08743136
46	0x3dd61b12	0.10454382
47	0x3c72101f	0.014774351
48	0x3e49464e	0.19655725
49	0x3e3b16b9	0.18270387
50	0xbdcbedd6	-0.09957473
51	0xba8ad68c	-0.0010592504
52	0x3e39ea28	0.1815573
53	0x3d4dc807	0.05023959
54	0x3e3234f6	0.17403015
55	0x3e29da24	0.1658712
56	0xbe2ab197	-0.16669308
57	0x3d53d458	0.05171618
58	0x3e3ea987	0.18619357
59	0xbd92c61c	-0.071666926
60	0xbe17c431	-0.14820935
61	0x3d3087f0	0.04309839
62	0xbd39e30a	-0.045382537
63	0xbe04310b	-0.12909333
64	0x3e032a54	0.12809116
65	0xbdacbbbb	-0.08434244
66	0x3e107489	0.14106955
67	0xbdc94cfa	-0.09829135
68	0xbdd9dff6	-0.1063842
69	0xbe3314e1	-0.17488433
70	0xbd0815b6	-0.03322383
71	0x3e2bbee9	0.16772045
72	0xbd978b99	-0.07399673
73	0x3df900b1	0.12158335
74	0xbd8c1f9c	-0.068419665
75	0xbd76f0e7	-0.060288336
76	0x3e4a0786	0.19729432
77	0xbc6c6bb3	-0.014429974
78	0x3dad1e5d	0.08453057
79	0x3e5172ad	0.20453902
80	0x3dedb82c	0.116073936
81	0xbe0a3da4	-0.13500077
82	0xbcc37475	-0.023859242
83	0xbc67d481	-0.014149786
84	0xbe210729	-0.15725388
85	0x3dbbb9cb	0.091662966
86	0xbdb599b8	-0.0886721
87	0x3c7d9080	0.015476346
88	0x3df80179	0.12109656
89	0xbe2ecbda	-0.1706995
90	0x3ddd300b	0.10800179
91	0x3e2b3ed2	0.16723183
92	0x3e47117b	0.19440262
93	0xbe453641	-0.19258977
94	0x3e01af50	0.12664533
95	0xbe26bfd9	-0.16284122
96	0x3d2de8be	0.04245829
97	0xbe3709a6	-0.17874774
98	0xbc895423	-0.016763752
99	0xbe537d81	-0.20653345
100	0xbe0c3be9	-0.13694729
101	0x3d81d877	0.063401155
102	0xbca860d8	-0.020553991
103	0x3dc4ada2	0.0960343
104	0xbccfd182	-0.025368456
105	0xbdc24bae	-0.09487091
106	0xbdfb497a	-0.12269874
107	0x3e1415e7	0.1446148
108	0xbdc9e39c	-0.09857866
109	0xbddfdc0a	-0.10930641
110	0x3dcdfda0	0.10058141
111	0xbe40d54b	-0.18831365
112	0xbe55b004	-0.20867926
113	0x3e2eace9	0.17058147
114	0xbd52f1fd	-0.05150031
115	0xbd86a57a	-0.06574531
116	0x3e596e86	0.21233568
117	0x3e1890f9	0.14899053
118	0x3c45bd91	0.012069122
119	0x3e5dac7c	0.21647829
120	0x3dc4a3ad	0.09601531
121	0xbe09960f	-0.13436149
122	0xbdea2dac	-0.114344925
123	0xbdc66505	-0.09687237
124	0x3e2fcd69	0.17168202
125	0x3e0f6d6d	0.14006586
126	0xbab06dd2	-0.0013460463
127	0xbe3c4e85	-0.18389328
128	0xbe134ecb	-0.14385526
129	0x3dc391dd	0.095493056
130	0x3e4a7e8a	0.19774833
131	0xbe0fda0f	-0.14048027
132	0xbd13ea1f	-0.036111947
133	0x3e0998aa	0.13437143
134	0xbdf8adbe	-0.12142514
135	0x3dd9c7ce	0.10633813
136	0x3cc251be	0.023720618
137	0xbd7f2bc1	-0.062297586
138	0x3e28959b	0.1646332
139	0xbd334aa4	-0.043772355
140	0xbd084e84	-0.033278003
141	0x3e5a51a0	0.213202
142	0xbc88371c	-0.01662784
143	0x3e1b53dc	0.15168709
144	0x3b9a8e1a	0.004716647
145	0xbd0359a1	-0.0320679
146	0x3d90c832	0.07069434
147	0xbce71daa	-0.028212387
148	0xbe2450c5	-0.16046436
149	0x3d6248bc	0.055245146
150	0x3e1da21e	0.15393874
151	0x3e24dc02	0.16099551
152	0xbdf7103e	-0.12063645
153	0xbe4fbc49	-0.20286669
154	0x3e12d045	0.14337261
155	0xbc407aca	-0.011748025
156	0x3c3255b8	0.010884695
157	0x3dfb7a15	0.12279145
158	0x3e3824f5	0.17982848
159	0xbc01d3e4	-0.007924054
160	0x3d1002c8	0.035158902
161	0xbcba4099	-0.02273588
162	0x3dae6a78	0.08516401
163	0xbe26a4d8	-0.1627382
164	0x3df4d115	0.11953942
165	0xbda26706	-0.079298064
166	0xbc745ff1	-0.014915452
167	0xbe3c8834	-0.18411332
168	0x3d64bc41	0.055843595
169	0xbe0f5f47	-0.14001189
170	0xbdb63292	-0.08896364
171	0x3e4ab273	0.19794635
172	0xbdd14485	-0.10218147
173	0xbe3e7ca0	-0.18602228
174	0xbd6b4176	-0.057435475
175	0x3d572791	0.052527968
176	0x3e039535	0.12849887
177	0x3e173572	0.14766482
178	0xbc435302	-0.011921646
179	0xbe039259	-0.12848796
180	0xbe48fe82	-0.19628337
181	0xbe1a0af7	-0.15043245
182	0xbdde3ca5	-0.10851411
183	0xbd321463	-0.043476474
184	0x3d6cee09	0.057844196
185	0xbdf6bbce	-0.1204754
186	0x3d8ca100	0.06866646
187	0xbdcfffa3	-0.10156181
188	0xbe456329	-0.19276108
189	0xbdb458bc	-0.08805987
190	0x3da8b69c	0.08237955
191	0x3e1d9e46	0.15392408
192	0x3c8b8213	0.017029798
193	0x3ca3a1dd	0.019974643
194	0x3e3ba2f7	0.18323885
195	0x3d40fd0b	0.04711632
196	0x3e109282	0.14118388
197	0xbd571066	-0.052505873
198	0xbe4b12f0	-0.19831443
199	0xbd41c8c0	-0.04731059
200	0x3c8a1142	0.016853932
201	0xbd854010	-0.065063596
202	0x3e17dfc5	0.14831455
203	0xbca32af3	-0.01991794
204	0xbcc808bb	-0.024418226
205	0xbd5d800a	-0.054077186
206	0x3cd5080e	0.026004817
207	0xbe1aeff6	-0.151306
208	0xbe28af71	-0.16473176
209	0x3df163f2	0.11786641
210	0x3e30582f	0.1722114
211	0x3a80f328	0.0009838091
212	0x3e1dcbc8	0.15409768
213	0x39ac264d	0.00032834933
214	0xbd724ba2	-0.05915416
215	0xbe29dfc1	-0.16589262
216	0xbdccbbe2	-0.09996773
217	0x3e557f5d	0.20849366
218	0xbd15e84b	-0.036598485
219	0xbd05a440	-0.032627344
220	0x3e58581a	0.21127358
221	0xbdc993d7	-0.09842651
222	0x3d5d7b5c	0.054072723
223	0xbc03e601	-0.008050443
224	0xbdf10cab	-0.11769994
225	0xbdd7a8b6	-0.10530226
226	0x3e165331	0.14680173
227	0xbdee5f1d	-0.11639235
228	0x3d968aa1	0.0735066
229	0x3de379a8	0.111071885
230	0xbd8994ba	-0.067178205
231	0xbe218314	-0.15772659
232	0xbe17fb10	-0.14841866
233	0x3d9cf9dd	0.07664845
234	0xbd88021b	-0.066410266
235	0xbe56386f	-0.20919965
236	0xbe339150	-0.17535901
237	0xbd668f0a	-0.056288756
238	0xbe5707f3	-0.20999126
239	0x3d81caeb	0.06337532
240	0x3e47ffb6	0.1953114
241	0x3d819138	0.063265264
242	0x3d635c3e	0.05550789
243	0xbd03ab93	-0.032146048
244	0xbe3f546c	-0.18684548
245	0x3e0a94a3	0.13533263
246	0xbd65d81f	-0.056114312
247	0x3e214660	0.15749502
248	0x3b56ea29	0.003279338
249	0xbd19bcc4	-0.037533537
250	0x3bd6c670	0.0065544173
251	0x3cca93a8	0.024728611
252	0x3dda41ff	0.10657119
253	0x3db6c0df	0.08923506
254	0x3df53b40	0.11974192
255	0x3cad8ddd	0.02118581

conv1d.weight f4 [64, 128, 3]
0	0x3c5cc93d	0.013475713
1	0xbce132e3	-0.027490085
2	0xbcea516e	-0.028603282
3	0x3cd77b05	0.026303777
4	0xbbf88c00	-0.0075850487
5	0x3c097b44	0.008391205
6	0xbcfecc1e	-0.03110319
7	0x3c116d49	0.008876153
8	0x3d292355	0.04129346
9	0x3d502e99	0.05082569
10	0xbca8d972	-0.020611499
11	0xbd21238c	-0.03934054
12	0xbcbefd01	-0.023314001
13	0x3d1ed3d4	0.038776234
14	0x3d04f55a	0.032460548
15	0xbd18e451	-0.037327114
16	0xbc622df6	-0.013804903
17	0x3d02714f	0.03184634
18	0x3cb39ff1	0.021926852
19	0xbd2c9f18	-0.04214391
20	0xbc3e53cc	-0.011616658
21	0xbc111817	-0.008855841
22	0x3c94f34c	0.01818242
23	0x3d2c2a61	0.042032603
24	0x3d2a796e	0.04161971
25	0xbd410c04	-0.0471306
26	0xbc2f1c65	-0.010687922
27	0x3d0aae49	0.033857618
28	0xbd11559f	-0.035482045
29	0x3cc4cc26	0.024023127
30	0x3bfafce0	0.0076595396
31	0xbd0f95b5	-0.03505488
32	0xbd2d5363	-0.042315852
33	0xbd3a2192	-0.04544217
34	0x3cc45d77	0.023970349
35	0xbd39cfc7	-0.045364168
36	0xbd460a6d	-0.048349787
37	0xbc00c359	-0.0078590745
38	0x3bb35076	0.005472238
39	0x3c9ec9a4	0.01938326
40	0x3bd9d8f7	0.0066481787
41	0x3b548655	0.00324287
42	0xbd0a468c	-0.033758685
43	0x3cecd043	0.0289079
44	0x3d05c03f	0.032654043
45	0x3b245822	0.0025076945
46	0x3cb13e63	0.021636194
47	0x3d3a8029	0.04553238
48	0xbd214f84	-0.039382473
49	0x3c84d7d6	0.0162162
50	0x3bb42c26	0.005498427
51	0x3d16d811	0.03682715
52	0x3cc0bc23	0.02352721
53	0xbd21193a	-0.0393307
54	0x3c1485f3	0.009065139
55	0xbd3f6d75	-0.046735246
56	0x3bf87a3d	0.0075829313
57	0xbd1b2429	-0.037876282
58	0x3c3035a7	0.010754979
59	0xbd5071cc	-0.050889775
60	0xbcee7d41	-0.02911246
61	0x3d287d4c	0.041135117
62	0x3d13419e	0.03595125
63	0xbcd0d6f9	-0.025493132
64	0x3d072f47	0.03300407
65	0xbb91011a	-0.00442518
66	0x3c61e4fc	0.013787504
67	0xbd0d8e98	-0.034559816
68	0xbc8bfc6f	-0.017088143
69	0xbce470fc	-0.027885906
70	0xbcde7ed4	-0.027160086
71	0x3c90a4e3	0.01765675
72	0xbc56cbf6	-0.0131101515
73	0x3b9fe9b6	0.0048801554
74	0x3cfd84ba	0.030947078
75	0xbc2dc3cf	-0.010605766
76	0x3d0596a6	0.032614373
77	0xbca0536c	-0.019571029
78	0x3c9c5e47	0.019087924
79	0xbcf1e182	-0.029526476
80	0x3cdb8f28	0.02680166
81	0xbca7098c	-0.020390294
82	0x3d4da246	0.050203584
83	0xbab30b77	-0.0013660033
84	0xbd31f27c	-0.04344414
85	0x3bce9b46	0.006305131
86	0x3d2ecbf3	0.04267497
87	0xbb952426	-0.0045514284
88	0x3ccdcb94	0.025121488
89	0x3a94ac2c	0.0011342815
90	0xbc8447b3	-0.01614747
91	0x3d0e1466	0.034687422
92	0x3b9b66ee	0.004742495
93	0xbb9e45fb	-0.0048301197
94	0xbc31740f	-0.010830893
95	0x3b38f62b	0.00282229
96	0xbcb843de	-0.0224933
97	0x3d124e95	0.035719473
98	0xbc8691f2	-0.016427014
99	0xbd31cc86	-0.04340794
100	0xbc64e5f9	-0.013970845
101	0x3cc718f9	0.0243039
102	0x3c4d729b	0.012539531
103	0xbd50e95d	-0.051003803
104	0xbd0d6402	-0.034519203
105	0x3d404f95	0.046950895
106	0xbbffe4cd	-0.0078092576
107	0xbd33c8a8	-0.043892533
108	0xbcb84e9c	-0.022498421
109	0x3d4b704a	0.049667634
110	0xbcd547f8	-0.026035294
111	0xbd43c3a0	-0.047793984
112	0x3c44e1f4	0.012016762
113	0xbd11e047	-0.03561428
114	0xbd4eb8f2	-0.050469346
115	0xbd37c9ac	-0.044870064
116	0xbc15b22b	-0.009136717
117	0x3d354e2c	0.044264004
118	0x3c50906c	0.012729745
119	0xbb223c39	-0.0024755134
120	0xbd485d3b	-0.048917037
121	0xbc04f4d6	-0.008115014
122	0x3cd08077	0.025451882
123	0xbcd9e697	-0.026599212
124	0xbd10bf45	-0.03533866
125	0x3d236378	0.039889783
126	0x3d39750c	0.04527764
127	0x3c84b90a	0.016201515
128	0x3cde951b	0.027170708
129	0x3d145293	0.03621156
130	0xbd39bd56	-0.04534658
131	0xbccc53e9	-0.024942355
132	0x3c97ee81	0.018546345
133	0xbd2648c9	-0.040596757
134	0xbcb73261	-0.02236289
135	0xbcc78869	-0.024357038
136	0x3c4d6063	0.012535187
137	0x3d41c604	0.047307983
138	0xbcbddaf8	-0.023175701
139	0x3c4c651c	0.012475278
140	0xbc8a6c60	-0.01689738
141	0xbd4764db	-0.048680168
142	0x3c668697	0.014070175
143	0xbc63cc83	-0.01390374
144	0xbd4aef07	-0.04954436
145	0x3d4a90d1	0.049454514
146	0x3d3912b7	0.045183863
147	0x3cdddb15	0.027082006
148	0xbcbd009b	-0.023071578
149	0x3d05d571	0.032674257
150	0xbbb6fccf	-0.0055843364
151	0x3d0dee78	0.03465125
152	0xbd06087c	-0.032722935
153	0x3cdb8bd6	0.026800077
154	0xbbf982bc	-0.0076144617
155	0x3ce88fdf	0.028388916
156	0xbce40185	-0.027832756
157	0x3caee14a	0.02134766
158	0xbc306578	-0.01076638
159	0x3d310d7a	0.043225743
160	0xbd0af02d	-0.033920456
161	0x3c2232ef	0.009899839
162	0xbcb99e23	-0.022658413
163	0x3d1de775	0.038550813
164	0x3d384d11	0.04499537
165	0xbd2a9875	-0.0416493
166	0x3d28e677	0.041235413
167	0xbc09d866	-0.00841341
168	0xbc90b9f3	-0.017666792
169	0xba2bf9e8	-0.0006560371
170	0x3d1344fe	0.035954468
171	0xbd3310af	-0.043717083
172	0xbd4805a7	-0.048833515
173	0xbcc6c3b9	-0.02426325
174	0xbc41470f	-0.011796727
175	0x3d282b80	0.04105711
176	0x3ca05cf4	0.019575574
177	0xbc88afce	-0.016685393
178	0xbd4e2f9f	-0.050338384
179	0xbd075e6a	-0.033049025
180	0x3d4f50f0	0.050614297
181	0x3d46f4db	0.048573356
182	0xbcb01ccd	-0.021498108
183	0x3c49aaa6	0.012308752
184	0x3c54c2c1	0.012985886
185	0xbc622119	-0.013801836
186	0xb9cf4408	-0.00039532804
187	0xbce6913e	-0.028145429
188	0x3d4f322f	0.05058497
189	0xbc2696cb	-0.010167788
190	0x3d0b1b01	0.0339613
191	0xbd4a5ba8	-0.049403816
192	0xbd15ba8c	-0.036554858
193	0x3cc572a4	0.024102516
194	0x3d4b2371	0.049594346
195	0xbc270d01	-0.0101959715
196	0xbc107907	-0.008817918
197	0xbc84ae53	-0.016196406
198	0x3a7a3b77	0.0009545604
199	0x3c61a778	0.013772838
200	0xbce1867a	-0.027529944
201	0xbd384db9	-0.044995997
202	0x3bd97f40	0.006637484
203	0x3d3d9061	0.04628027
204	0xbaf87e11	-0.0018958469
205	0xbca60924	-0.02026803
206	0x3c41dca7	0.011832393
207	0x3d13c0b7	0.03607246
208	0xbcc12549	-0.02357735
209	0xbd1c2228	-0.03811851
210	0x3d2920fe	0.04129123
211	0xbd0102d9	-0.031496856
212	0x3d234358	0.039859146
213	0x3ce93571	0.028467866
214	0x3b0dd961	0.002164446
215	0x3d1fdd7c	0.039029583
216	0xbb8c1f25	-0.0042761737
217	0xbcc64739	-0.024203883
218	0x3ca542ed	0.020173514
219	0xbc11b098	-0.008892201
220	0xbd203df2	-0.039121576
221	0xbc82b15a	-0.015953708
222	0xbc9f83c0	-0.019472003
223	0x3c9980cc	0.018738173
224	0xbd2e6344	-0.042575136
225	0x3ca9033d	0.020631427
226	0x3ced134a	0.028939862
227	0xbc4d1c3c	-0.012518939
228	0xbcfaafd4	-0.03060142
229	0x3cfe6d49	0.03105797
230	0xbca2b41c	-0.019861273
231	0xbd2dee54	-0.042463616
232	0xbcf99097	-0.030464454
233	0x3d23c258	0.039980263
234	0x3c9ca9ad	0.019123876
235	0xbc7f98fe	-0.015600441
236	0x3cdf8a17	0.027287526
237	0x3d0841e1	0.033265952
238	0x3d1f6873	0.03891797
239	0x3cbf99b5	0.023388723
240	0x3c990dc5	0.018683324
241	0xbb018daf	-0.0019768288
242	0xbc1614bc	-0.009160217
243	0x3c98db26	0.018659186
244	0xbd3660c6	-0.044525884
245	0x3cb9f662	0.022700492
246	0xbd3d00c9	-0.046143327
247	0xbc6ebf1c	-0.014571931
248	0xbc52f844	-0.012876574
249	0xbd10a410	-0.035312712
250	0x3d04872d	0.032355476
251	0xbd489b17	-0.04897603
252	0xbd4f8d8b	-0.050672095
253	0x3cfdb0cb	0.03096809
254	0x3afd9bef	0.001934884
255	0x3c48d7af	0.012258454

conv1d.bias f4 [64]
0	0x3c641936	0.013922026
1	0x3d399391	0.045306746
2	0x3d27073a	0.040778376
3	0x3ce087de	0.027408537
4	0xbbdb15de	-0.0066859564
5	0x3c166fac	0.009181898
6	0xb90f34b3	-0.00013657175
7	0x3d0fadfb	0.03507803
8	0x3b73ad42	0.0037182127
9	0x3cef5235	0.029214004
10	0x3d0ad78a	0.03389696
11	0x3b6d2786	0.0036186888
12	0xbc94cfdb	-0.01816552
13	0xbd00232f	-0.031283554
14	0xbae0dbd4	-0.0017155358
15	0xbc09a63c	-0.00840145
16	0x3d4c1f9c	0.049834833
17	0xbc1af3fb	-0.009457584
18	0x3beb66f6	0.0071839048
19	0x3bb5b2ff	0.0055450196
20	0x3d2c3ef8	0.04205224
21	0x3d2247b4	0.039619163
22	0x3b1058e7	0.0022025646
23	0xbd2c0cb3	-0.0420043
24	0x3d1f8583	0.038945686
25	0x3d1fc8a8	0.03900972
26	0xbcf59da3	-0.029982394
27	0xbb914e42	-0.004434378
28	0xbbcf5d24	-0.006328242
29	0xbcbedceb	-0.023298701
30	0x3ce9e2ae	0.028550472
31	0xbca9d345	-0.020730624
32	0x3cecbedc	0.028899603
33	0xbd48f3f6	-0.049060784
34	0xbcc9133d	-0.024545306
35	0x3d002e2f	0.031294044
36	0xbc3d86a1	-0.011567743
37	0x3be365f7	0.0069396454
38	0xbbcf54f9	-0.006327268
39	0x3d22c02d	0.039734054
40	0xbb999b3e	-0.0046876958
41	0x3d2bd170	0.041947782
42	0xbd1a7137	-0.037705626
43	0x3d2fd261	0.042925242
44	0xbcec605a	-0.028854538
45	0x3d1ba20e	0.037996344
46	0xbbd95470	-0.00663238
47	0x3d3a86e4	0.045538798
48	0x3c494e00	0.012286663
49	0x3d428816	0.047493063
50	0xbcc9716e	-0.02459022
51	0xbcfcd899	-0.030865
52	0x3d0a5727	0.03377452
53	0x3d391ede	0.045195453
54	0xbb0ddb6c	-0.0021645678
55	0xbd4625a6	-0.048375748
56	0xbd0f5737	-0.034995284
57	0xbd11fa13	-0.03563888
58	0x3cda30fe	0.02663469
59	0x3d0e5678	0.03475043
60	0x3d3174e9	0.043324385
61	0x3d15f45f	0.036610004
62	0x3cd11640	0.025523305
63	0x3bf4aa94	0.0074666236

fc.0.weight f4 [64, 64]
0	0x3d8d32e2	0.06894471
1	0x3c865fa8	0.016403034
2	0xbddd8172	-0.10815705
3	0xbd190d28	-0.037366062
4	0x3dc2584a	0.09489496
5	0x3d8c1dd8	0.0684163
6	0xb946d800	-0.00018963218
7	0x3dfa40ba	0.12219377
8	0x3da8301e	0.082123026
9	0x3cca2a60	0.02467841
10	0x3c8ff9f8	0.01757525
11	0x3b6ffb40	0.0036618263
12	0x3c87ae70	0.01656267
13	0xbddf2db4	-0.10897389
14	0xbd617de8	-0.055051714
15	0x3db772fe	0.0895748
16	0x3c7aca00	0.01530695
17	0x3d9e0f7e	0.07717799
18	0x3ca1cda8	0.019751385
19	0xbd96c7da	-0.073623374
20	0x3d1d082c	0.03833787
21	0xbd95a29c	-0.07306406
22	0x3db9ab00	0.09065819
23	0x3b39f140	0.0028372556
24	0x3d3883f4	0.045047715
25	0x3db8a250	0.09015334
26	0x3c4b1f00	0.012397528
27	0xbdfc980a	-0.12333687
28	0xbccbbf90	-0.024871618
29	0xbdff085e	-0.12452768
30	0x3b94a2c0	0.004536003
31	0x3db6e600	0.08930588
32	0x3cfbc530	0.030733675
33	0xbd651510	-0.05592829
34	0xbdebb820	-0.115097284
35	0xbde2e8b2	-0.11079539
36	0x3c28e7f0	0.010309204
37	0x3df6c282	0.12048818
38	0x3d77e2f0	0.06051916
39	0xbdcb4480	-0.09925175
40	0xbd86d964	-0.06584433
41	0x3dde3356	0.10849635
42	0x3c013740	0.007886708
43	0xbdfecf44	-0.124418765
44	0xbdc2a2a0	-0.095036745
45	0xbd5b21d0	-0.053499043
46	0x3cebc408	0.028779998
47	0x3da0bf94	0.07849041
48	0xbda44cb4	-0.080224425
49	0xbd305060	-0.0430454
50	0xbd0369ec	-0.032083437
51	0xbd97179c	-0.0737755
52	0x3dd7beb2	0.10534419
53	0x3d24e0ac	0.040253326
54	0xbd9df610	-0.07712948
55	0xbd8475b6	-0.06467764
56	0x3d5535b8	0.052053183
57	0xbcc51f58	-0.024062797
58	0xbda08732	-0.078382865
59	0x3ddda5b4	0.10822621
60	0xbdb59888	-0.08866984
61	0x3dd04814	0.10169998
62	0xbb61e8c0	-0.0034471005
63	0xbd41cd70	-0.04731506
64	0xbd73bd50	-0.059506714
65	0xbda60a00	-0.08107376
66	0x3c84cd18	0.016211078
67	0xbdff7aba	-0.1247458
68	0x3d96c576	0.073618814
69	0xbd918e88	-0.07107264
70	0x3cf640e0	0.030060232
71	0x3d958410	0.073005795
72	0x3dd7bc72	0.1053399
73	0x3dbb30ea	0.09140189
74	0xbde87b1c	-0.11351606
75	0x3d6e5df8	0.058195084
76	0x3dddd996	0.10832517
77	0xbd067e8c	-0.03283553
78	0x3daf9a98	0.08574408
79	0x3dfa4424	0.12220028
80	0x3d899512	0.06717886
81	0x3de9d7f2	0.114181414
82	0xbd0bfd18	-0.034176916
83	0x3ccb1d18	0.024794146
84	0x3ddfc54e	0.10926305
85	0xbdd4f802	-0.10398866
86	0x3d91f8be	0.07127522
87	0xbd5da18c	-0.05410914
88	0xbdb1df1a	-0.08685131
89	0x3dee6882	0.11641027
90	0x3dba0112	0.090822354
91	0x3d671e64	0.056425467
92	0xbdfd0eba	-0.123563245
93	0xbdee3174	-0.11630526
94	0xbd077150	-0.033067048
95	0x3dd9389a	0.10606499
96	0x3c7e0140	0.015503228
97	0x3dfca866	0.12336807
98	0x3d95e4b0	0.07319009
99	0x3d1e7cd4	0.038693264
100	0xbdb60fec	-0.088897556
101	0xbd853b00	-0.06505394
102	0xbd931d1a	-0.07183285
103	0x3dac3372	0.0840825
104	0x3d82443c	0.06360671
105	0x3d364410	0.044498503
106	0xbcb2fa20	-0.021847785
107	0xbd58d63c	-0.052938685
108	0x3ab41f00	0.0013742149
109	0xbd8c3684	-0.068463355
110	0x3d258c8c	0.04041724
111	0xbdfbd7d0	-0.12297022
112	0xbd8f3050	-0.06991637
113	0xbdc113cc	-0.09427604
114	0x3db7bee0	0.089719534
115	0xbd5ff7ec	-0.054679796
116	0x3de390cc	0.11111602
117	0x3d51e8c8	0.051247388
118	0x3dd47312	0.103735104
119	0x3d8a4f48	0.06753403
120	0x3dd2b8fa	0.10289188
121	0x3da36544	0.07978299
122	0x3d5f0834	0.054451182
123	0x3d9191be	0.07107876
124	0x3d9312d8	0.071813285
125	0x3cce29d0	0.025166422
126	0x3d5a5ca0	0.05331099
127	0xbd8d3450	-0.068947434
128	0xbdd29620	-0.1028254
129	0x3df6dafe	0.12053488
130	0xbce32810	-0.027729064
131	0xbdaad2ee	-0.08341013
132	0x3d9f7516	0.07786004
133	0x3d8cf906	0.06883435
134	0x3cf40098	0.02978544
135	0xbda87b76	-0.08226673
136	0x3def25a2	0.116771
137	0xbc334aa0	-0.010943085
138	0x3d206ae8	0.039164454
139	0x3cc4fdd8	0.024046823
140	0x3de3e590	0.1112777
141	0x3d64bcd8	0.055844158
142	0xbcea0d00	-0.028570652
143	0x3c7a6cb0	0.015284702
144	0x3d2850fc	0.041092858
145	0xbc826c90	-0.015920907
146	0xbda98b90	-0.082785726
147	0xbde88620	-0.11353707
148	0xbdf1cbf2	-0.118064776
149	0xbd937184	-0.07199386
150	0x3dd2913c	0.102816075
151	0xbd0ff784	-0.03514816
152	0x3beaa0c0	0.007160276
153	0x3bc61ae0	0.006045684
154	0xbdc8c736	-0.098036215
155	0xbd3c4fc8	-0.045974523
156	0xbdb6e39a	-0.0893013
157	0xbce7c438	-0.028291807
158	0x3d8d3078	0.0689401
159	0xbd4de0b0	-0.050263107
160	0xbd1f34b0	-0.038868606
161	0x3c49ffe0	0.012329072
162	0xbdcda23c	-0.100407094
163	0xbce42690	-0.02785042
164	0xbcf60a48	-0.0300342
165	0xbcea0200	-0.028565407
166	0x3d8a9c62	0.06768109
167	0xbb9ffea0	-0.0048826486
168	0xbd0836ac	-0.033255264
169	0x3d88e624	0.06684521
170	0x3d0a7f6c	0.033812925
171	0xbdc9e28e	-0.09857665
172	0x3dfba056	0.12286441
173	0x3ccebdd8	0.025237009
174	0xbd9a0a30	-0.07521474
175	0x3dfe3102	0.12411691
176	0x3cb44e18	0.022009894
177	0x3dc6c146	0.09704833
178	0xbdd6a806	-0.10481267
179	0x3dd8dea0	0.10589337
180	0x3debb9b2	0.11510028
181	0xbc8b6c80	-0.01701951
182	0xbc0abb00	-0.008467436
183	0xbce58f98	-0.028022572
184	0xbda1a014	-0.078918606
185	0xbd81b8ec	-0.06334099
186	0x3c24ab90	0.010050669
187	0xbb924b20	-0.004464522
188	0x3c9660b0	0.018356651
189	0xbdfd8a02	-0.123798385
190	0xbd73d478	-0.059528798
191	0x3d3c8378	0.046023816
192	0x3dcc9008	0.09988409
193	0xbd33781c	-0.043815717
194	0x3df2818c	0.11841115
195	0xb9958400	-0.00028517842
196	0xbcc29af8	-0.023755535
197	0x3dd66a94	0.10469547
198	0xbdd8a3ee	-0.10578142
199	0xbd9dc3f4	-0.07703391
200	0x3d2d3f0c	0.042296454
201	0xbd910232	-0.07080497
202	0xbca720e8	-0.020401433
203	0x3d9b42de	0.07581113
204	0xbdd8cbe0	-0.10585761
205	0xbdf929ca	-0.12166174
206	0xbdbb2e06	-0.09139638
207	0xbd597adc	-0.053095683
208	0xbdcd5ec2	-0.10027839
209	0x3bc77a00	0.0060875416
210	0x3d7e2da0	0.06205523
211	0xbd381aec	-0.04494755
212	0xbd9abdb4	-0.07555714
213	0xbc95c280	-0.018281221
214	0x3dfbe2d0	0.122991204
215	0xbdac796e	-0.084215984
216	0xbd3a77d0	-0.04552442
217	0x3d4d0ca0	0.05006087
218	0xbdace6e6	-0.08442478
219	0xbd69e368	-0.057101637
220	0xbd367014	-0.04454048
221	0xbd96864e	-0.07349835
222	0x3d13b2e0	0.03605926
223	0xbbb08580	-0.005387008
224	0xbd403ca0	-0.046932817
225	0xbdf06730	-0.117384315
226	0x3be53aa0	0.006995514
227	0xbc12a4b0	-0.008950397
228	0xbda2109a	-0.07913323
229	0x3d80601e	0.06268333
230	0xbd3b5f2c	-0.04574506
231	0x3df6d012	0.12051405
232	0x3d9099d4	0.070605904
233	0xbb7a9f40	-0.0038241893
234	0x3daade66	0.083432004
235	0x3dbb7ca6	0.09154634
236	0xbdf51e46	-0.11968665
237	0xbc844580	-0.016146421
238	0x3db3fba0	0.08788228
239	0x3dd16596	0.10224454
240	0xbd941ffe	-0.072326645
241	0xbd50a11c	-0.050934896
242	0x3dfa3e4e	0.12218915
243	0x3d5daa30	0.05411738
244	0xbd85b554	-0.06528726
245	0xbb905c80	-0.004405558
246	0x3d0d18ec	0.034447595
247	0x3d50ea68	0.051004797
248	0x3c54ade0	0.012980908
249	0x3da3d57c	0.07999703
250	0x3d26c580	0.040715694
251	0xbcabfe60	-0.020995319
252	0x3d18d394	0.03731115
253	0xbd7a1adc	-0.06106077
254	0xbdd1907a	-0.10232635
255	0x3d4f12ac	0.050554916

fc.0.bias f4 [64]
0	0x3d8f04d4	0.06983343
1	0xbd6cab48	-0.057780534
2	0x3d033560	0.032033324
3	0x3d1cf984	0.038323894
4	0xbd4fedd8	-0.050763935
5	0x3d9d5504	0.07682231
6	0xbd67a418	-0.056552976
7	0xbd550850	-0.05200988
8	0xbdb562ec	-0.088567585
9	0x3d7227fc	0.059120163
10	0x3d8f4974	0.06996432
11	0x3d889962	0.066698804
12	0xbd85a7ec	-0.06526169
13	0xbda6ece4	-0.08150652
14	0xbb8ba6e0	-0.0042618364
15	0xbcfc02e8	-0.030763105
16	0x3a70cd00	0.0009185821
17	0x3c8b40f0	0.016998738
18	0xbcefe4f8	-0.029283985
19	0x3de68f3a	0.11257787
20	0x3d1c65b4	0.03818293
21	0xbd9a14a4	-0.07523468
22	0xbda2bac4	-0.07945779
23	0xbd5a903c	-0.05336021
24	0xbd0b843c	-0.034061655
25	0xbbe8a740	-0.007100016
26	0xbdcb31a8	-0.099215806
27	0x3d9c27a8	0.07624751
28	0x3c4a4d70	0.012347564
29	0xbdac8202	-0.084232345
30	0xbdf5336a	-0.11972697
31	0xbd3c0318	-0.045901388
32	0xbd5e909c	-0.05433713
33	0x3dd0115c	0.10159561
34	0x3c3396d0	0.0109612495
35	0x3ca4bbb8	0.020109043
36	0x3d3f51d4	0.046708897
37	0x3dde0abe	0.10841893
38	0xbd8304ca	-0.06397398
39	0x3b03be00	0.0020102262
40	0x3d582d0c	0.052777335
41	0x3c03e690	0.008050576
42	0x3de26372	0.11054124
43	0x3d2d01d0	0.042238057
44	0xba5d2100	-0.00084353983
45	0x3ded8b36	0.11598818
46	0xbd5d0940	-0.0539639
47	0xbd8ea910	-0.0696584
48	0xbd797ecc	-0.06091194
49	0x3cb5fbf0	0.02221486
50	0x3c5e7bb0	0.013579294
51	0x3d870960	0.06593585
52	0xbcb76500	-0.022387028
53	0xbdbcc20a	-0.092166975
54	0xbd3b0cf8	-0.045666665
55	0xbd90e77e	-0.07075404
56	0x3d8f363c	0.06992766
57	0x3d205280	0.039141178
58	0x3d1c3aec	0.03814213
59	0xbd2398b8	-0.039940566
60	0xbcb88810	-0.022525817
61	0xbcf96118	-0.030441806
62	0xbcaaece8	-0.020864919
63	0xbdcbf1a8	-0.09958202

fc.2.weight f4 [1, 64]
0	0xbd9997ae	-0.07499634
1	0xbc49a920	-0.012308389
2	0xbdf012c6	-0.11722331
3	0xbda5d4c4	-0.080972224
4	0xbd91fb00	-0.071279526
5	0x3b8a8e40	0.0042283833
6	0x3bff8d00	0.007798791
7	0xbdb3ae7c	-0.08773515
8	0x3b5f0340	0.0034029037
9	0x3dac74a8	0.08420688
10	0x3d93df94	0.072203785
11	0xbc983950	-0.018582016
12	0x3d5286dc	0.051398143
13	0xbdcbac3a	-0.09944959
14	0x3d02dbfc	0.031948075
15	0x3dde026e	0.10840307
16	0xbceae4d8	-0.028673574
17	0x3d89a5e6	0.06721096
18	0xbd8117d4	-0.06303373
19	0xbd974d3e	-0.0738778
20	0xbc815468	-0.015787318
21	0xbdd65be6	-0.10466747
22	0x3b95ab60	0.0045675486
23	0x3ca6c9a0	0.020359814
24	0x3dbf7360	0.09348178
25	0xbddf50a4	-0.10904053
26	0xbcbb5640	-0.022868276
27	0x3deb951e	0.11503051
28	0xbdb0d4f0	-0.086343646
29	0x3c123e20	0.008925945
30	0xbdc09d54	-0.09405008
31	0x3d2ba3cc	0.041904256
32	0xbde413ce	-0.1113659
33	0x3dcbd02e	0.099518165
34	0xbdfdff6a	-0.12402232
35	0x3d91854c	0.071055025
36	0x3d748c3c	0.05970405
37	0x3d290aac	0.041269943
38	0x3d0f8db8	0.035047263
39	0xbcfa6250	-0.030564457
40	0xbd661a5c	-0.056177482
41	0x3d9ee7ea	0.07759078
42	0xbda328d8	-0.07966775
43	0xbd9ca8b0	-0.07649362
44	0xbdc1986e	-0.09452902
45	0x3d659104	0.0560465
46	0x3d9aad28	0.07552558
47	0xbd0cb0e8	-0.0343484
48	0xbd60a9b0	-0.054849327
49	0xbd12aa38	-0.035806865
50	0xbda06c90	-0.07833207
51	0x3db1ff28	0.08691245
52	0xbddeba72	-0.10875405
53	0x3d185404	0.0371895
54	0xbb188b00	-0.002327621
55	0x3d90c84e	0.07069455
56	0x3d2c630c	0.042086646
57	0xbd7724f0	-0.06033796
58	0xbde6ebba	-0.1127543
59	0x3d882436	0.06647532
60	0x3d5f1800	0.054466248
61	0x3c51ea70	0.012812242
62	0x3d4ca59c	0.049962625
63	0x3dad36aa	0.08457692
