data_files/out_gen/discriminator_epoch4.pt (torch, 137429 bytes, 9 tensors)

conv1.bias f4 [64]
00000000: 7830 05ba 7524 be39 8925 003a 0abf f939
00000010: 0000 0000 7766 05ba 0000 0000 ad34 a938
00000020: 295c ec39 eac8 dab9 0000 0000 9f13 8db9
00000030: 0000 0000 7559 f239 0000 0000 e92e a239
00000040: ce24 c038 76fa 91b9 d467 01ba c047 08ba
00000050: dcf0 fe35 0000 0000 19b0 e3b9 0000 0000
00000060: 0000 0000 2da6 053a cd42 1bb9 0000 0000
00000070: 0000 0000 0000 0000 feb8 fab9 7688 c138
00000080: 18e8 8339 77c3 7739 083f f6b9 8784 0fba
00000090: 0000 0000 10af 08ba 3418 88b9 0000 0000
000000a0: b5ed 003a 0000 0000 0000 0000 7626 ed39
000000b0: 0000 0000 0000 0000 0000 0000 0000 0000
000000c0: 0000 0000 0000 0000 7f86 ccb9 0000 0000
000000d0: 0000 0000 42b0 feb9 65ed 01ba 8cf8 d439
000000e0: cc03 1039 0000 0000 9c0f beb9 51f5 ecb9
000000f0: e642 85b9 c119 d1b9 0000 0000 2508 043a
-0.000508077 0.00036266787 0.00048884057 0.00047635316 0.0 -0.0005088816 0.0 8.0683596e-05
0.00045082092 -0.00041729893 0.0 -0.00026908235 0.0 0.00046224488 0.0 0.00030934
9.162129e-05 -0.00027843163 -0.0004936431 -0.000519868 1.8994574e-06 0.0 -0.00043428017 0.0
0.0 0.00050983095 -0.00014806837 0.0 0.0 0.0 -0.00047821546 9.228375e-05
0.0002515919 0.00023628572 -0.00046967738 -0.0005474765 0.0 -0.00052140746 -0.00025957974 0.0
0.00049182336 0.0 0.0 0.00045232818 0.0 0.0 0.0 0.0
0.0 0.0 -0.0003901012 0.0 0.0 -0.00048577978 -0.0004956334 0.00040620973
0.00013734325 0.0 -0.00036251254 -0.00045196203 -0.0002541758 -0.00039882775 0.0 0.0005036614

conv1.lin.weight f4 [64, 2]
00000000: 8919 483e bad9 5abe a838 1e3d 35cf 453e
00000010: 6ed3 ab3b 529d 3a3e f9dc 833d 8132 cbbd
00000020: 3b3a 7dbe c7af d93d dbf1 343e e2f5 e03d
00000030: 4140 28bd 4c24 52bd c63c 413e 9830 6ebe
00000040: 0f37 a23d b4e3 3c3e 0f43 febc 8231 a93d
00000050: d141 febd 1cc1 92be 3f15 913e fa34 ab3b
00000060: af94 96be bbb5 7fba 0873 753c c492 81be
00000070: 3e05 6bbe 0925 123e ceff 223e f80d 97be
00000080: bb49 123e 41ef 6dbd 7c7b 513c 1095 85be
00000090: 0f35 883e 82a5 95be f7b9 4cbe a1d1 473e
000000a0: eead 0d3e 53f5 56be 847f 75bd c97c 84bd
000000b0: e9f4 7c3e 1d87 463d 8853 23be 5d9a 8bbe
000000c0: ebfc 1bbc 096d 78bc 9e31 453e a5a8 72bd
000000d0: 5d66 7a3d 6d79 683e 47de 09be 7e40 7abe
000000e0: f965 fbbd 89a4 9a3d af37 42be 6d85 c3bd
000000f0: 840d 643e 9f0b 4739 dccd 8c3d def9 a93d
00000100: dd9f 963e 091e 8abe 04f1 043e 019a 40bd
00000110: ec86 1dbe b2fa 933e 7edc 0abe 8743 8d3e
00000120: f443 8bbe 0312 bd3d 1c23 1bbe 7620 003e
00000130: db76 803e 750b ea3c a3fc 39be a618 d23d
00000140: dbf7 243e 7b8b edbd 11a5 8fbe 95ce 213e
00000150: 93ee 8ebe ec6f 153e 5305 bd3d 718c 1abe
00000160: 3ef1 50bd 61e9 83be 783e e5bd f697 e43c
00000170: 3b34 4ebe ede5 f03a 96fd 0cbe 4781 253d
00000180: d57e 8cbe 8473 843c 6938 93be 6d76 fbbd
00000190: c67a b73d 0f5f c63d 5be6 dbbc ddd5 dabd
000001a0: c583 fdbd 41b1 91bc f51a e43d af49 dbbc
000001b0: 474a 873d 47a8 313e da1b 8d3e 114d e43d
000001c0: bcae c93d 6e04 6abe f54f 92be da9a 173e
000001d0: 43b9 53bd 3bf0 633e 0ec4 58bd 9a3c c83d
000001e0: f83f 913e 15da 1dbe 76cf 453e adec 1e3e
000001f0: c57a 69be f1e0 f5bd e3d1 8c3e c4c7 c33d
0.19540991 -0.21372119 0.03862825 0.19317324 0.0052437102 0.18224075 0.064386316 -0.09921742
-0.24729244 0.1062923 0.17670386 0.109843984 -0.041076902 -0.051304147 0.1887084 -0.23260725
0.07920658 0.18446237 -0.031037835 0.08261396 -0.12414897 -0.28662956 0.28336522 0.005224821
-0.29410312 -0.0009754558 0.014981039 -0.25307286 -0.22951218 0.1427194 0.15917894 -0.29502845
0.14285938 -0.0580895 0.012785789 -0.26090288 0.2660298 -0.29227835 -0.19992815 0.19513561
0.1383588 -0.20992021 -0.05993606 -0.064691134 0.24702801 0.048468698 -0.15949833 -0.27266207
-0.00952075 -0.015162715 0.19257209 -0.059242863 0.061132777 0.2270257 -0.13463698 -0.24438664
-0.12275309 0.07550914 -0.18966554 -0.09546933 0.22270781 0.00018982448 0.06875202 0.082996115
0.2941884 -0.2697604 0.12982565 -0.04702187 -0.153835 0.28902203 -0.13560674 0.27590582
-0.27200282 0.09231951 -0.15150112 0.12512383 0.2509068 0.028569916 -0.1816278 0.102586076
0.16110174 -0.115988694 -0.28055623 0.15801461 -0.27916393 0.14593476 0.09229531 -0.15092637
-0.051011316 -0.2576399 -0.111935556 0.027904492 -0.20137112 0.001837907 -0.1376861 0.04040649
-0.27440515 0.016168363 -0.28753975 -0.12278447 0.08958964 0.096861 -0.02684324 -0.106853224
-0.12378649 -0.017784717 0.11137954 -0.026768534 0.06605964 0.17349349 0.27560312 0.11147512
0.09847781 -0.22853252 -0.28576627 0.14805165 -0.05169035 0.2225961 -0.052921347 0.09777184
0.28369117 -0.15415223 0.19317421 0.15519972 -0.22800739 -0.12005795 0.2750388 0.09559587

conv2.bias f4 [64]
00000000: 14cb b5b9 0000 0000 5a99 e2b9 1a0e 05ba
00000010: 1826 4db9 2a3f 18b9 0542 a039 0000 0000
00000020: 3a90 79b8 ae68 083a 2d09 0d3a 71d2 41b9
00000030: f20f 96b9 474f dcb9 0f0b 53b8 0000 0000
00000040: 0000 0000 0000 0000 0000 0000 0d22 ab39
00000050: 25ac fbb8 0000 0000 ee7b 3d38 0000 0000
00000060: c910 8039 274e e739 1573 b239 8f40 b539
00000070: 1260 0dba 0000 0000 0000 0000 3a06 5538
00000080: 0000 0000 6c97 dcb9 ed66 c439 a308 87b8
00000090: c046 04ba a57f bdb9 0000 0000 b859 e139
000000a0: 4ff4 c9b9 c2dd 3db9 0000 0000 f39d e839
000000b0: 0000 0000 0000 0000 1e78 08ba 5652 9ab9
000000c0: 0a45 0fba 305c 3239 fc3b 70b9 4a59 9839
000000d0: 0000 0000 8e12 cbb9 4ce3 e839 a1fc 9f37
000000e0: e029 adb9 a415 c0b9 13ad ff39 0000 0000
000000f0: 4244 92b9 274d f2b9 3bd3 41b9 4772 5037
-0.00034674315 0.0 -0.00043220335 -0.00050756487 -0.00019564515 -0.0001451938 0.00030566767 0.0
-5.9500548e-05 0.0005203587 0.00053800904 -0.0001848431 -0.0002862211 -0.00042020736 -5.031662e-05 0.0
0.0 0.0 0.0 0.0003264103 -0.00012000677 0.0 4.517653e-05 0.0
0.00024426568 0.0004411798 0.00034036548 0.0003457111 -0.0005393039 0.0 0.0 5.0788956e-05
0.0 -0.00042074488 0.0003746072 -6.43891e-05 -0.0005045943 -0.00036143992 0.0 0.0004298219
-0.00038519732 -0.00018107056 0.0 0.0004436817 0.0 0.0 -0.0005205887 -0.00029434514
-0.0005465305 0.00017009745 -0.0002291053 0.00029058225 0.0 -0.00038733002 0.00044419838 1.9071917e-05
-0.0003302833 -0.00036637217 0.0004876634 0.0 -0.00027898146 -0.0004621532 -0.00018484604 1.2424373e-05

conv2.lin.weight f4 [64, 64]
00000000: 0061 41be e44a 58be 5967 f6bd 6744 ebbd
00000010: ea60 39be 3ae4 253e 723e 8e3d 5dfe bb3d
00000020: 82ee 9aba cc5f 3cbe 4b4a 0abe 4368 063e
00000030: f2de 303c 2ba8 413e ad76 77bd 100c 50be
00000040: 7571 1b3b e945 003e 40fd bf3d f305 133e
00000050: 2ff3 c33d 12c4 d4bc adea 493c caa3 25be
00000060: 2829 003d 148e cbbd b856 253d ea74 33ba
00000070: f068 35bd 4eda 363e 7922 0f3d a183 ad3d
00000080: 6054 2a3e 18b4 56be 07c1 a9bd 7359 08bd
00000090: c613 483d c8cd 28be 00e4 443e d2b4 3fbd
000000a0: d685 11be 43ee 783d f186 36be 6300 f03c
000000b0: c57a b23d 36c5 bb3d d0da ddba 7f98 f03d
000000c0: 9f9f aebd 4fbd 033e 722f 073d 781c 113e
000000d0: d5b9 e2bd d257 3e3e 58d1 1f3e e123 c9bc
000000e0: f47b d43d 3c4a 1abe c0ed 2a3e e436 ef3d
000000f0: 298c 0cbe 61be e43d 51d6 7ebd ae31 4d3e
00000100: 4ba4 1a3c b172 b53d a9df 83bd 630f f6bc
00000110: 4ec3 c33d c634 993c 9c4b 323e aa5b 4fbe
00000120: c5e9 ad3c 0109 ce3d 6d07 b7bd 0d59 b53d
00000130: b2f5 11bd e14a f53d 128a 153e 02b7 523e
00000140: 3fda 953d 577d 263e 1423 133e 02a3 d8bd
00000150: a511 1fbe 1467 493e 18d4 a3bd 74d0 a03d
00000160: 5346 f93d 8306 1cbe 8d9d 023e d24b a4bd
00000170: d643 36be 0239 fb3d 31f0 85bd 52c8 13bb
00000180: 2580 cf3d 5d5d 38be 1bee c8bd 095b 5b3e
00000190: b97f 4cbe 1516 3abd 5093 413e 8bd8 e3bb
000001a0: 8a4b 4fbe 2fe2 433e a3c0 2abe dea2 da3d
000001b0: 1f70 313e 615d 423e b707 37be fe43 4c3d
000001c0: 962b 263e 5ec3 d43b 41d1 0c3e 539b db3d
000001d0: 2d2c 4c3e 83fe 3f3d 007e 7fbd 0de3 2abe
000001e0: ff02 b43c d1c3 e93c 47f1 0b3d 9066 5b3d
000001f0: 21d1 d13d a337 bfbd 07b6 e13d b807 28be
00000200: 147d 4f3d d070 34be 37c4 e43d a0b1 923d
00000210: 3079 05be 02cb 4fbe b77d 22be 6481 543d
00000220: 0bdb 4d3d 59bb 17be c489 f63c a651 c03d
00000230: ecc4 a5bc e62d 5abe 6355 26bd 7db5 3cbe
00000240: 77f3 033e 35e6 2e3e 354a 88bd 69cd fc3d
00000250: 1549 48be 125c 07be f4c9 f3bd 2432 0dbd
00000260: a331 d5bd 3fe8 66bd 441e e9bd ca0b 443e
00000270: e51d bbbd edbb d4bd da21 1d3e b9a8 733b
00000280: 003a 0a3e 940f 4cbe d637 9fbd 6010 f1bc
00000290: 1f5a 913d 374d 2ebe c098 f43c f651 383d
000002a0: c281 edbd 5416 233c 5d9a 8dbc f212 273e
000002b0: 3031 49be 5089 ac3d 8cbd 10bd 2908 69bb
000002c0: e50e 0fbe d7d4 82bd e0fa c33d cef7 383e
000002d0: 83f5 8dbd bf18 4c3c b159 a4bd 2038 c53d
000002e0: c032 07bd 3b8f 9bbd c901 f6bd b648 b83d
000002f0: ec47 a63d a857 273e fd3c c8bd e394 743d
00000300: f153 cbbd f476 1d3e 485e acbd fbf1 5abd
00000310: d9ea 2fbe 1eb2 953c 8985 4bbe 2b25 0a3e
00000320: e18d d53b 6329 013e d05a 2b3d d2b4 ebbd
00000330: e012 693c d136 bd3d 5976 58be d402 17bd
00000340: 6b5f eebd bfa0 ad3d ffd1 f63d 0dba 123e
00000350: 42e6 23be 93d8 42be fc97 d03b aec1 2a3e
00000360: a8db 733c fcc5 3e3e c503 c1bd 6ffc 0bbe
00000370: c349 a63d 2c1f debc eaef c2bd c7ac c53d
00000380: 7f8b 2bbe edf5 0cbe b90e 743d a6ec 25bd
00000390: 56fb 643d 7233 583e a181 5a3e 2bf7 5b3e
000003a0: a903 05be 0122 c23d 5cca 95bc 003f d23d
000003b0: 055e 993d 8c85 6fbd fe52 e23d e3d5 9fbd
000003c0: 3755 cb3c a825 09be 7b7f debc 1a37 233e
000003d0: 3d28 37be 92b6 45be 9e0d 223e 2d58 5b3d
000003e0: 2650 eabd 5df3 a83c 69e3 113e 60fa 333e
000003f0: 9107 003e a369 813d 0988 07bd 8da2 4dbe
-0.18884659 -0.21122319 -0.12031431 -0.11487656 -0.18103376 0.16200343 0.06945504 0.09179375
-0.0011820348 -0.18395919 -0.13504903 0.1312571 0.010795342 0.18911807 -0.060415912 -0.20317101
0.0023718749 0.12526669 0.093744755 0.14357738 0.09567868 -0.0259724 0.0123240175 -0.16175762
0.03128925 -0.099392086 0.040365905 -0.00068457297 -0.04428953 0.17856714 0.034944985 0.08472372
0.16633749 -0.20967138 -0.0828877 -0.03328843 0.048846982 -0.1648475 0.192276 -0.046803303
-0.1421121 0.0607741 -0.17824914 0.02929706 0.08714823 0.091684744 -0.0016926173 0.11747836
-0.08526539 0.12865184 0.03300423 0.14171016 -0.11070601 0.18588188 0.15607202 -0.024553241
0.10375205 -0.1506738 0.16692257 0.116803914 -0.13725342 0.111691244 -0.062216107 0.20038483
0.009438585 0.08859766 -0.06439144 -0.030036634 0.09558736 0.018701922 0.17411655 -0.20249811
0.021229634 0.10060311 -0.08936963 0.08854876 -0.035634704 0.11977173 0.14603451 0.20577624
0.07317018 0.16258751 0.1436885 -0.10577966 -0.15534075 0.19668227 -0.07999438 0.07852259
0.121716164 -0.15236859 0.12755413 -0.08022274 -0.17799315 0.12266733 -0.065399535 -0.002254982
0.101318635 -0.18004365 -0.0981104 0.21421446 -0.19970597 -0.045431215 0.18903852 -0.006953304
-0.2024366 0.19129251 -0.16675048 0.10675596 0.17327927 0.18980934 -0.17874037 0.04986953
0.16227564 0.006493016 0.13751699 0.10722985 0.19938727 0.04687358 -0.062376022 -0.16688175
0.021974085 0.028535755 0.034165647 0.053564608 0.10244966 -0.09336784 0.11021047 -0.16409194
0.050656393 -0.1762116 0.111702375 0.071627855 -0.1303451 -0.20292285 -0.15868269 0.05188121
0.050257724 -0.14817561 0.030094989 0.09390573 -0.020235501 -0.21306571 -0.040608775 -0.18428607
0.12885843 0.17080005 -0.06654779 0.123438664 -0.19559129 -0.13218716 -0.11903754 -0.034471646
-0.10409858 -0.05637383 -0.11382726 0.19145122 -0.09136561 -0.103874065 0.15344945 0.0037179424
0.13498688 -0.19927818 -0.07774322 -0.029426754 0.07097267 -0.17021643 0.029857993 0.04500004
-0.11597015 0.009954054 -0.01728552 0.16315821 -0.1964767 0.08424628 -0.035337016 -0.0035557842
-0.13970526 -0.06388252 0.09569335 0.1806328 -0.06931593 0.012457072 -0.0802492 0.096298456
-0.033007383 -0.075956784 -0.12012059 0.089982435 0.08119187 0.16342032 -0.097772576 0.059712302
-0.0992812 0.15377408 -0.0841642 -0.053453427 -0.17179431 0.01827341 -0.19875158 0.13490741
0.0065171574 0.12613444 0.041834652 -0.11509098 0.014225692 0.09238971 -0.21138896 -0.03686793
-0.11639293 0.084779255 0.12051772 0.14328785 -0.16005805 -0.19027929 0.006365774 0.16675445
0.014883913 0.18630213 -0.09424547 -0.13670515 0.08119538 -0.027114473 -0.09518416 0.09652095
-0.16752432 -0.13765688 0.059584353 -0.04050889 0.055903755 0.21113375 0.21338512 0.21481006
-0.12989677 0.09479142 -0.018284969 0.102659225 0.07488636 -0.05847697 0.11050986 -0.078044675
0.024820907 -0.13393271 -0.027160397 0.15938988 -0.17886443 -0.19307926 0.15825507 0.053550888
-0.11441068 0.020623857 0.14246906 0.17575979 0.12502886 0.06318977 -0.033088718 -0.2008154

conv1d.weight f4 [64, 128, 3]
00000000: 7cad 19bd 0f47 113d 7c71 203d 88f5 483d
00000010: b121 33bc eb37 fb3c c76e 333d 967d bb3c
00000020: c4f5 093d 377a 363d ae32 e23c 3c55 3dbd
00000030: 2cad 893c 6e90 24bd f1ee 2d3d 2bc5 483d
00000040: bbb6 093d b595 8fbb 19a4 d9ba c693 043d
00000050: dbef b3bc 9a2a 2fbd d773 463d c800 e33c
00000060: c809 3c3d f364 973c 2c34 0b3d 8e1c 48bd
00000070: 4e17 4c3d d72e bdbc fb38 3e3b 30ae 953a
00000080: e6a5 65bc 2f7a 333d 5917 1bbc b617 2b3c
00000090: 2503 2e3d 8163 47bd bde1 08bc 3079 443c
000000a0: e6c0 bfbb aa2f 193d 164b efbb 9346 253c
000000b0: cd74 f93c e9f7 123c 5441 04bd de6e f1bc
000000c0: a4c9 c2bc d89d 1a3c 523a cc3a 8930 b53c
000000d0: 37e2 ea3c 7a38 e03c 5ae4 693b 436f 4dbc
000000e0: 976a 973c d22c 453d d5d4 afbc 6ead 41bd
000000f0: fc7f 093d 469f 1dbd 3a64 5b3c 7c1e d9bc
00000100: aa1e 463d 5ec8 393d bfae 05bd 3b8a 36bd
00000110: 7b74 ff3a 54ab 5e3c d24a 86bc c9de eabc
00000120: c339 82bc 04fc 80bc 6438 523c 68e8 a1bc
00000130: cad7 4ebd f173 e53c 4868 853c 18ee efbc
00000140: aa5f 46bd 684a 63ba 7e23 f63a a8d2 1bbc
00000150: 039d 41bd 880a 4d3d 3fa6 f2bb 3cbf 983c
00000160: 3d2a 05bd 36fb e0bb 3704 abbc 6bc3 4b3b
00000170: f48d 933c 16bc e0bc 9d9f e8bc 3c21 96bc
00000180: 3856 913c 7df4 533c 6f5e 5b3b 9f52 da3a
00000190: b268 34bd 4f7e 14bd 61a7 4abd 81c9 4f3c
000001a0: 33c7 3ebd f2f3 193d 6ef3 1cbd 8f21 303d
000001b0: 1095 36bb 473a 403d adcd 383d 4321 0f3d
000001c0: acd0 cbbc 5809 493d cacc d1bb bb57 61bc
000001d0: 6ea3 a3bb 0c68 783c 5da8 c4bb 8052 8fbc
000001e0: c9c8 1a3d 3d10 203d 1863 e3bc 5b46 ef3c
000001f0: 90d1 1a3a 7223 21bd a095 ac3c 2e7e 3ebb
00000200: 3ad8 2b3b e3ef 3ebd 7d59 b53b 3618 13bc
00000210: 8c20 28bc f5ab 8fbc 43e1 223d 4555 9cbc
00000220: 2eb7 10bc d7e6 2d3c c5f0 22bd cb68 5b3c
00000230: bc3a ea3c a5f0 81bc 2aaa 493b 5ccf 78bc
00000240: b263 3f3d af04 bfbc f827 3bbd a9d1 f7bc
00000250: 0f68 363d a476 f4bc aac4 70bc 9487 a4bc
00000260: 0e98 2a3b 828b 06bd 09ae 0d3d dd9a 163d
00000270: bc96 91bc 861a bbbc f741 083d 2f7d 23bd
00000280: 852a 503d cde1 3bbc a425 e2bb 0d74 023d
00000290: f59f 8e3c 18ba 8abc b9d7 cc3c 05a7 823b
000002a0: 0667 703a c20b 483d 0406 0fbd 6ba3 f1bb
000002b0: 673b d5bc d1eb 133d b9df da3b 7477 da3c
000002c0: 748c ffbc 4f27 7139 bd44 4e3d ccb9 e2bc
000002d0: 1497 12bd bec4 173d 184c 993b 1850 3b3d
000002e0: d6b6 e7bc d73b d9bc 7d3a 593c a053 21bb
000002f0: 99fa 06bd ce74 a1bc c4dd 3ebd 5897 173c
00000300: 01e0 48bc 607f 2dbd a59f 243d 1de5 273d
00000310: 051a 393c be5a ee3c 04c5 8ebc 1472 eebc
00000320: 7c38 05bd fda5 203d ac5e 113d bfc4 2fbc
00000330: aa0f 773b c0a7 2a3d 390e 89bc d1ad 503c
00000340: d0bb 39bc 1b35 62bb 1e06 043d d054 6e3c
00000350: 0a80 2c3c 51b9 1fbd f6a5 34bd 65fa 1c3d
00000360: ff36 e03b 5c5d a5bb a9d6 8abb 7fab 4f3d
00000370: 1aa4 0abd e648 88b9 eac6 2f3d 6d8d 37bd
00000380: c1cc 113d be1b 123d 2cd8 173d 3528 1b3d
00000390: 1bfc 32bd 71a8 e43c 4204 033d 9fe4 acbc
000003a0: ad43 a13c f096 363d 186f e93c d752 153b
000003b0: 2424 213d 3c87 1d3d fd5f 203d ca2d 263d
000003c0: c88f 3b3d aa8f 893c 01ac 213d 9b0a 38bd
000003d0: 81cc 2eba 7aaa 623c c67e 043d 7bee d6bc
000003e0: afd5 8cbb bc32 ea3b 40a4 62bc 1447 23bd
000003f0: adcc 0c3d 7242 0d3d ab66 903c 9d72 353d
-0.037518963 0.035468157 0.039170727 0.04906228 -0.010933326 0.030666312 0.043806817 0.022887032
0.033681646 0.044550147 0.027612057 -0.046223864 0.016806208 -0.0401768 0.0424642 0.04901616
0.03362153 -0.00438186 -0.0016604691 0.03236749 -0.021964958 -0.042765237 0.048450317 0.027710333
0.045907766 0.018480754 0.0339853 -0.048855357 0.049826913 -0.023093624 0.0029025662 0.001141971
-0.014016604 0.043817695 -0.009466016 0.010442665 0.042483468 -0.04867888 -0.008354601 0.011991784
-0.0058518527 0.03739897 -0.007302652 0.010087627 0.030451203 0.008970239 -0.032288864 -0.02947181
-0.02377779 0.009437047 0.0015581346 0.02211787 0.02867232 0.02737068 0.0035689087 -0.012538734
0.018483443 0.048138447 -0.02146379 -0.047284536 0.03356932 -0.038481973 0.013390595 -0.026503794
0.048369087 0.0453571 -0.032637354 -0.04456542 0.001948967 0.0135906525 -0.016393099 -0.028670685
-0.015896684 -0.01574517 0.012830827 -0.01976414 -0.05049876 0.028009387 0.016285077 -0.029288337
-0.048431076 -0.000867045 0.0018778888 -0.009510674 -0.04726888 0.05005887 -0.007405072 0.018645875
-0.032510985 -0.006865884 -0.020876033 0.003109182 0.018012024 -0.027433436 -0.028396422 -0.018326394
0.017741308 0.0129367085 0.0033473035 0.0016656703 -0.044045158 -0.03625327 -0.04947603 0.01268232
-0.04657669 0.03758616 -0.03831809 0.043000754 -0.0027859844 0.046930578 0.045118023 0.03494383
-0.024879776 0.049081177 -0.0064025866 -0.013753827 -0.0049938476 0.015161525 -0.006001516 -0.017495394
0.03778914 0.039077986 -0.027757213 0.029208353 0.0005905861 -0.039340444 0.02106744 -0.0029066908
0.002622141 -0.046615493 0.0055343495 -0.00897794 -0.010261666 -0.01753805 0.039765608 -0.019083628
-0.008832736 0.010614119 -0.039780397 0.013391684 0.02859246 -0.015861819 0.0030771592 -0.015186157
0.046725936 -0.023317663 -0.045692414 -0.030251341 0.04453283 -0.029841729 -0.014695326 -0.02008418
0.0026030573 -0.03284789 0.0345898 0.036768783 -0.017772071 -0.022839796 0.033266034 -0.039914306
0.0508218 -0.011467409 -0.00690146 0.031848956 0.017410258 -0.01693444 0.025005208 0.0039871954
0.0009170625 0.048839338 -0.034917846 -0.0073742173 -0.026029302 0.036113564 0.006679502 0.026668288
-0.031194903 0.00022998195 0.050358523 -0.027676485 -0.03578861 0.037052862 0.0046782605 0.04573068
-0.028285425 -0.026517792 0.013258574 -0.0024616495 -0.032953832 -0.019709017 -0.04659821 0.009252392
-0.012260438 -0.042357802 0.04019131 0.040989984 0.011297707 0.029096004 -0.017427929 -0.029107131
-0.03252457 0.0392208 0.035490677 -0.01072806 0.0037698545 0.041663885 -0.016730415 0.012736754
-0.011336282 -0.0034516517 0.032232396 0.014546588 0.010528574 -0.03899509 -0.044103585 0.038324732
0.0068424935 -0.0050465297 -0.0042370153 0.05070066 -0.033847906 -0.00025994255 0.04291431 -0.04481261
0.03559566 0.03567099 0.037071392 0.03788014 -0.043697458 0.02791235 0.031986482 -0.021105109
0.01968559 0.04457754 0.028495356 0.0022784972 0.039341107 0.038459048 0.03915404 0.04057101
0.045791417 0.016792137 0.039470676 -0.04493199 -0.00066680467 0.01383459 0.032347463 -0.026236763
-0.004297934 0.0071471613 -0.013833106 -0.039862707 0.03437488 0.034487195 0.01762708 0.044298757

conv1d.bias f4 [64]
00000000: d179 b9bc 228d fdbc 5ba8 a63b 392a 0a3d
00000010: d486 4c3d c9f9 213c 8691 09bd c776 3f3d
00000020: 29f1 26bc d4dc 4f3d c9be 46bc 754d 9f3b
00000030: 62b3 e6bc 518b 39bd bfcd 413d 6305 99bc
00000040: 58d0 5f3c b017 073c b0da 853c 3b03 363c
00000050: e095 a0bb abe0 7bbc 6018 4d3d 2232 3e3d
00000060: e991 19bc 3173 09bd f5cb 713c 8e70 aa3c
00000070: 84f7 ab3a ec0a f6bc e3ea 8cbc 8f7c e33c
00000080: 5cc7 2bbd 3c8e 9bbc 0d39 23bd b3ff 3dbc
00000090: 584b 273c 8b89 353d 9410 5cba a385 e53c
000000a0: 658c 0fbc 352b 4a3d e07b bd3b 9f24 1bbd
000000b0: b097 043d d26f 1d3d ef41 d7bc bd3c 4ebc
000000c0: f9f8 103d e523 a2bb 8502 49bb b982 3e3d
000000d0: bd4d e7bb a21d f03c 362e 03bd e7dc abbc
000000e0: 5931 8a3c ce4a d8bc 54ed d83c e5da 933b
000000f0: 7e3e 2f3b 5d7a 413b 5764 c9bc 65a6 3a3d
-0.022641094 -0.030951086 0.0050859875 0.033731673 0.04993327 0.009886214 -0.033586048 0.046744134
-0.010189333 0.050747707 -0.012130448 0.0048615285 -0.028161708 -0.045298878 0.047315355 -0.018679326
0.013660513 0.008245394 0.01633963 0.011109169 -0.004900679 -0.015373389 0.050072074 0.04643453
-0.009373167 -0.03355712 0.0147581 0.020805623 0.001312003 -0.030034505 -0.017201846 0.027769355
-0.04193817 -0.018988721 -0.03984933 -0.011596608 0.010210834 0.044320624 -0.00083948043 0.028017825
-0.0087615 0.04935761 0.0057825893 -0.03787672 0.032371223 0.03843672 -0.026276557 -0.012587723
0.03539369 -0.0049481266 -0.0030671668 0.046511386 -0.0070588277 0.029311005 -0.032026492 -0.020979358
0.016869234 -0.026402857 0.026480354 0.0045121782 0.002674013 0.0029522397 -0.024583979 0.045568842

fc.0.weight f4 [64, 64]
00000000: 32bf 87bd 6436 9abd 80ce d2bd af37 b73d
00000010: 574d f9bd cebc ab3d eca3 f0bd 530f b73d
00000020: c24e 263d 073c 83bd 01d7 bf3d f4bd 983c
00000030: 9f5a cb3c d59c e73d ffab 673d bcfb d13d
00000040: ec63 72bd 021a 933c 9eca 4ebd 0052 003e
00000050: 0f85 ffbd 314f 143d 1fbe b03c 6038 69bd
00000060: 6f5e 2abd 6fd1 9b3c 635d cfbd af9a 9e3d
00000070: d886 4abd e04d 583c d816 613d 95db b13d
00000080: 7980 b13d 55c7 b93d 906e c93c 1c63 5ebd
00000090: 8c88 f9bd 4f69 09bc 1c80 8f3d a5cd e23d
000000a0: d536 db3d 1e94 d9bc 7d88 2ebd a0e1 8f3c
000000b0: 8466 f2bc d8c5 ad3d 0553 2cbd bcda 95bd
000000c0: 5db9 703c f869 6f3d 4b9b fd3d 98f5 b0bd
000000d0: f785 ee3d 99c8 c5bd e4b9 083d 1c30 993d
000000e0: 56cd 64bc 6956 bebd 075b 88bd 978b 9ebd
000000f0: 854b 84bd 8b6c 2fbc 02ec 9f3c 205a c9bd
00000100: 647b f03d e0fd d93d 1c78 e13d a09f 723c
00000110: 4060 8abc ecef 6abd a840 d23c 9044 6a3c
00000120: 08c5 6ebd 0664 bc3d 701f ddbc b0f7 58bc
00000130: 2067 3bbd 4caa b33d a4bd dd3d 322f 963d
00000140: 9895 ccbd 02d7 82bd f0b9 563c 10e4 dc3c
00000150: 62f1 ae3d 88fc d2bc 3af0 813d e0e9 6fbc
00000160: b0f4 c93c b00d 12bd 065a f5bd 548a 913d
00000170: 8867 ee3d b85f 5a3d beee a3bd b0e6 95bd
00000180: 260e c93d c8b5 a6bd 54f0 443d ac33 be3d
00000190: 4e95 91bd ca7c a5bd 10c3 953d 8034 b8bd
000001a0: 9a45 df3d 88c8 2ebd 8c1d fc3d a006 fa3d
000001b0: 3800 c9bc a0dd f23c 8015 89bb d0a3 123c
000001c0: a0bb 99bb fcc4 923d 3497 163d 204f c93c
000001d0: cce9 d83d a0fa 14bc 70fa 513c b093 a6bc
000001e0: 9a4f cabd dccc aa3d 601e 75bd 1e98 893d
000001f0: 4a5a cf3d 063d e4bd 3c5c e03d 7204 80bd
00000200: 7066 49bc 1228 afbd fcf5 1dbd 3f31 5bbd
00000210: d5cd 05bd 2095 ff3d 12a5 23bd 7c48 b43d
00000220: f944 a2bd db9e 39bd 4c6e efbd e787 ce3d
00000230: d3c6 b63d 9f03 97bd b3c9 acbd 4090 81bc
00000240: 7127 eb3d 4cb4 35bd 0d79 45bc 03ed cabd
00000250: dca3 dc3d 6a5e 8dbd bac2 f0bd f84e 9cbd
00000260: 8b88 66bd 23ac 943d 125b 853d c919 1f3d
00000270: 6c68 ee3d 3c31 9abc c0f1 c43b f38e f0bd
00000280: b7c5 97bd f0a8 a73d 4043 38bd 60bf 3f3d
00000290: 81d5 4ebb 7c55 e83d 1d9a a13c 555a f13d
000002a0: 9c53 003c d5ec fabc 870f ad3d 107d 613d
000002b0: 689a 89bc 299e b8bd 31ac 66bd cce2 6f3d
000002c0: 7e46 dd3c e01e 40bd f468 1fbd 1ecd f33d
000002d0: 5790 a6bd 3b66 74bd a895 ca3d ba6c 42bd
000002e0: 04ef 293c 5dda cbbd fdca a2bd 7dd4 0e3c
000002f0: 9959 f2bd 7630 65bd 9c8b 29bd a4f7 ee3d
00000300: d0ab 843d 80dd b63b 1498 83bd d241 f43d
00000310: c017 b53c 04fd c43d c68f f83d 2452 e83d
00000320: aedb 933d 22ae 963d 382e b93d b03d 44bd
00000330: ee75 8f3d c82d 2d3d 08fb 32bd c074 2cbc
00000340: cc3b 283d 84a5 f83d 8ca1 3c3d 70f8 11bd
00000350: 90dd 10bc 885d b73c 2417 373d c65d c23d
00000360: c0fb 483b e0ce a93d 80ea 7fbd ca7a efbd
00000370: 1ec3 db3d 7cbc aabd d09c 463c 409f 593b
00000380: 70d6 e6bd 0003 33bd 06e5 a4bd 5ce8 93bd
00000390: 1654 cebd 3064 e8bd 24fc af3d f89f 153d
000003a0: 5257 b2bd 4c52 233d 6837 f4bc e847 3a3d
000003b0: 18a8 edbc 201e 5a3d 0678 e33d 6e31 d03d
000003c0: 062e fc3d a013 ebbb d409 81bd cc78 a13d
000003d0: c435 babd 101a 853c 7adb 9fbd 2cf2 643d
000003e0: c0d2 263d 3022 023c a000 38bd 407d a5bb
000003f0: 7817 1fbd 045a 9bbd b4c6 1e3d 30d1 aa3d
-0.066282645 -0.075299054 -0.10293293 0.08946168 -0.121729545 0.08385621 -0.117500156 0.0893847
0.040602453 -0.06407934 0.093671806 0.018645264 0.024823485 0.1130921 0.056560513 0.10253093
-0.059177324 0.017956737 -0.0504862 0.1253128 -0.12476551 0.036208335 0.021575032 -0.05693853
-0.041593965 0.019020764 -0.10125234 0.07744347 -0.049445003 0.013202161 0.054953426 0.0868446
0.08667082 0.09071223 0.024588853 -0.054293737 -0.121842474 -0.008386924 0.07006857 0.1107438
0.10703818 -0.026559886 -0.042610634 0.017563641 -0.029589899 0.08485001 -0.04207136 -0.07317111
0.014692632 0.05845067 0.123831354 -0.08640593 0.116466455 -0.096574016 0.033380404 0.07479879
-0.0139649715 -0.09293825 -0.06657987 -0.077414684 -0.06459717 -0.010707031 0.019521717 -0.09831643
0.11742285 0.10644126 0.11009237 0.014808565 -0.016891599 -0.057357714 0.025665596 0.014298573
-0.058293372 0.091987655 -0.02699253 -0.013242647 -0.045752645 0.08772716 0.10827187 0.073332205
-0.0998947 -0.06388666 0.013105854 0.026964217 0.08542134 -0.025755182 0.06344648 -0.0146431625
0.024652809 -0.035657585 -0.11980061 0.07106462 0.11640841 0.05331394 -0.08004521 -0.07319391
0.09817152 -0.08140141 0.048080757 0.092871994 -0.07108556 -0.08080442 0.07312596 -0.089943886
0.10901947 -0.04267171 0.12310323 0.12208295 -0.024536237 0.029646695 -0.004183471 0.008950189
-0.004691556 0.07166478 0.036765292 0.024573863 0.10591468 -0.009092957 0.012816057 -0.020334095
-0.09878464 0.08339855 -0.05984342 0.06718467 0.10124643 -0.11144452 0.10955092 -0.06250848
-0.012292489 -0.08552565 -0.038564667 -0.05351376 -0.032667 0.12479615 -0.039952345 0.08802888
-0.07923312 -0.045317512 -0.11690959 0.10084515 0.089246415 -0.073737375 -0.084369086 -0.015815854
0.11482132 -0.044361398 -0.012052787 -0.09908488 0.10773441 -0.06902774 -0.11755891 -0.076322496
-0.05628256 0.07259395 0.06511511 0.03884295 0.11641011 -0.018822305 0.006010264 -0.117460154
-0.07410758 0.08186519 -0.04498601 0.04681337 -0.0031560364 0.1134443 0.019726807 0.117848076
0.007832434 -0.030630508 0.08450227 0.05505091 -0.01679726 -0.09014542 -0.05631656 0.0585659
0.027011152 -0.046904445 -0.03891845 0.119043574 -0.081329994 -0.059667807 0.09891826 -0.04746697
0.010371927 -0.09953759 -0.07948873 0.008717653 -0.11833496 -0.05595442 -0.041392908 0.116683275
0.06478083 0.005580604 -0.06425491 0.11926617 0.022106051 0.096185714 0.121367976 0.11343792
0.07219635 0.07357432 0.09042019 -0.047910392 0.07004915 0.04227999 -0.043696433 -0.010525882
0.04107265 0.121409446 0.0460525 -0.03563732 -0.008841887 0.022383466 0.044699803 0.09490542
0.0030667633 0.082914114 -0.062479496 -0.11693342 0.10730575 -0.08336732 0.012122348 0.0033206493
-0.112713695 -0.043704033 -0.08051495 -0.072220534 -0.10074632 -0.11347234 0.08593014 0.03652951
-0.08708061 0.039873406 -0.029811576 0.04547873 -0.029010817 0.053251386 0.11106877 0.10165678
0.12313466 -0.0071739703 -0.06300703 0.07884368 -0.09092286 0.01624778 -0.07805534 0.055895016
0.04072833 0.007942721 -0.04492247 -0.0050503314 -0.03884074 -0.075855285 0.038763717 0.083406806

fc.0.bias f4 [64]
00000000: 48ae 9f3d ac96 e8bd c276 c63d 1c4e 93bd
00000010: 9267 173d e09c 8bbd e126 b63d f5bf e0bb
00000020: 53ad f03d 81e0 943d 88dc c1ba 5a54 abbd
00000030: 3a5b b2bd 6e04 513c f27e d4bd bb89 b43d
00000040: 48f2 333b a553 ca3d 60fb 74bd b8f6 22bd
00000050: ff60 973d 75ec d23c 08ce 31bd 905c 91bd
00000060: d275 503d cca4 babd 60bb cfbd f0a4 28bd
00000070: 5d42 6c3d a32f ce3c a727 fe3d 4441 57bd
00000080: ec4d 8ebd 78d5 3ebd ff16 5e3c caf2 e83d
00000090: d18e 1b3c 0243 a4bd 78d4 ddbc a4b2 e13d
000000a0: 8861 b0bc 67bb f13d 8844 41bd 4e76 853d
000000b0: f925 8f3d 97d8 bd3d 3b94 b63d f7e6 a53d
000000c0: 489b e13d 309c d8bd bc0b 2ebd 3234 c4bd
000000d0: c292 fd3d 483e 01bc 8caa b53d 2e95 d33d
000000e0: 757f dd3d 74bf cb3d 8e95 90bd 6487 16bd
000000f0: 9236 5b3d 3071 19bd 0065 1fba 1cfd e43d
0.077969134 -0.113568634 0.0969062 -0.071926326 0.036964007 -0.06817031 0.08894134 -0.0068588206
0.11751809 0.07269383 -0.0014790455 -0.08365698 -0.08708806 0.012757404 -0.103757754 0.088153325
0.0027457643 0.09879235 -0.059810042 -0.03978607 0.073915474 0.025747517 -0.043409377 -0.07097733
0.050893612 -0.09113464 -0.10143161 -0.04117292 0.057680476 0.0251692 0.12409907 -0.052552477
-0.06948456 -0.0465903 0.013555287 0.11374433 0.009494499 -0.08020593 -0.027078852 0.11020401
-0.021530882 0.11803322 -0.047184497 0.065167055 0.069896646 0.09269827 0.089149915 0.08100694
0.11015946 -0.105766654 -0.04249166 -0.09580268 0.123815075 -0.007888384 0.0887042 0.10331188
0.10815326 0.09948626 -0.07059775 -0.036750212 0.05351884 -0.03746146 -0.0006080419 0.11181089

fc.2.weight f4 [1, 64]
00000000: 8411 e83b d0d2 4fbc d9fa d1bd f0ce fcbd
00000010: 7e8b 663d 1cfa 963d 54c6 0bbd 4fb8 25bd
00000020: def4 72bd be55 ddbd 1128 9c3c 48c3 9c3d
00000030: 94fa db3d 09cd 413d 4836 853c b980 d23d
00000040: d336 cf3d 3f61 d13d 2c0c 613d 26b8 913d
00000050: 3816 b9bc e171 c6bd 7c77 b33d 32ab a0bd
00000060: 24d9 9dbd a88f c33c a89d ed3d 60f9 b03d
00000070: 2355 c8bd 2dfc 8cbd 1656 de3d f039 3abd
00000080: f261 db3d ca03 bebd 9bc7 423d 3244 843d
00000090: 9485 e9bc 6872 90bc 8019 d13c 831c ecbc
000000a0: 4041 383c 6733 abbb 8c84 713d 37f7 ddbd
000000b0: 259b 1dbd d51f 403d 52e4 d8bd 35ad d3bd
000000c0: 7f8d cbbd 08de 873c 103c 1ebd 009b 0ebc
000000d0: 8a6a 83bc a4bd 4bbd 51c2 d53d d400 a3bd
000000e0: 2c8b a83d 925a 7cbd d661 8f3d 9ca0 15bd
000000f0: 5bb4 003d 24ea e03d f06c 713c 438b 013d
0.007082166 -0.012684539 -0.102529235 -0.12344158 0.056285374 0.07371923 -0.034124687 -0.040458973
-0.059315555 -0.1080737 0.019062074 0.076544344 0.10741153 0.047314677 0.016261235 0.10278458
0.10117879 0.10223626 0.05494325 0.07115202 -0.022593603 -0.096896894 0.08763024 -0.07845153
-0.07707432 0.023872212 0.11602336 0.086413145 -0.097818635 -0.06884036 0.10856263 -0.04546541
0.10712041 -0.092780665 0.04755364 0.0645832 -0.028506078 -0.017632678 0.025524855 -0.02882219
0.011246026 -0.0052246335 0.058964297 -0.10838168 -0.038478035 0.046905357 -0.10590424 -0.10335771
-0.099390976 0.016585365 -0.0386315 -0.008703947 -0.016042013 -0.049741402 0.104374535 -0.07959142
0.0822967 -0.061609812 0.070010826 -0.036530122 0.031422 0.10982159 0.014735445 0.03162695
