data_files/out_gen/discriminator_epoch3.pt (torch, 137429 bytes, 9 tensors)

conv1.bias f4 [64]
-0.00041963227 0.00033332602 0.0003909791 0.00039047442 0.0 -0.00040748235 0.0 0.00014961167
0.0003548142 -0.000424329 0.0 -0.00028466457 0.0 0.00039245284 0.0 0.00029876575
-2.4137584e-05 -0.00024765637 -0.00040004315 -0.00040974907 -2.2637637e-06 0.0 -0.0003690254 0.0
0.0 0.00042931995 -5.4500048e-05 0.0 0.0 0.0 -0.00039865958 0.00013815847
0.00025072033 0.00026707555 -0.00034808737 -0.00043440753 0.0 -0.000412251 -0.0002826864 0.0
0.00041152295 0.0 0.0 0.00037783358 0.0 0.0 0.0 0.0
0.0 0.0 -0.000358893 0.0 0.0 -0.00040329513 -0.00040546132 0.00036043426
0.00015627638 0.0 -0.0003433634 -0.00035425607 -0.00029414525 -0.0003357431 0.0 0.0004218264
00000000: 1702 dcb9 43c2 ae39 54fc cc39 97b8 cc39
00000010: 0000 0000 5ba3 d5b9 0000 0000 14e1 1c39
00000020: 5b06 ba39 7978 deb9 0000 0000 083f 95b9
00000030: 0000 0000 21c2 cd39 0000 0000 a9a3 9c39
00000040: 117b cab7 e0d7 81b9 e2bc d1b9 97d3 d6b9
00000050: 2aeb 17b6 0000 0000 c079 c1b9 0000 0000
00000060: 0000 0000 5916 e139 fb96 64b8 0000 0000
00000070: 0000 0000 0000 0000 2f03 d1b9 a2de 1039
00000080: 1d73 8339 4606 8c39 7f7f b6b9 31c1 e3b9
00000090: 0000 0000 6523 d8b9 8735 94b9 0000 0000
000000a0: adc1 d739 0000 0000 0000 0000 f717 c639
000000b0: 0000 0000 0000 0000 0000 0000 0000 0000
000000c0: 0000 0000 0000 0000 ce29 bcb9 0000 0000
000000d0: 0000 0000 5b71 d3b9 1994 d4b9 abf8 bc39
000000e0: 1fde 2339 0000 0000 7505 b4b9 72bb b9b9
000000f0: 8237 9ab9 ad06 b0b9 0000 0000 9528 dd39

conv1.lin.weight f4 [64, 2]
0.19548489 -0.21363384 0.03859926 0.19319405 0.0051506828 0.18216021 0.06429887 -0.09931057
-0.24729244 0.1062923 0.17679065 0.109948695 -0.041076902 -0.051304147 0.18879308 -0.23253089
0.07911217 0.1843681 -0.031017067 0.0825434 -0.12414897 -0.28662956 0.28334486 0.0051512457
-0.29410312 -0.0009754558 0.015068939 -0.25307286 -0.22951218 0.1427194 0.15918554 -0.29504335
0.14274263 -0.05819932 0.012828167 -0.26090288 0.26613173 -0.29218897 -0.19981803 0.19524573
0.13829239 -0.20999965 -0.05993606 -0.064691134 0.24708506 0.04850337 -0.15949833 -0.27266207
-0.00952075 -0.015162715 0.1924666 -0.059334908 0.06120097 0.22714415 -0.13463698 -0.24438664
-0.12275309 0.07550914 -0.18966554 -0.09546933 0.22278 0.00022282531 0.06876541 0.0830672
0.29414102 -0.26978943 0.12986022 -0.046954058 -0.15371436 0.2891421 -0.13549435 0.2760198
-0.27200282 0.09231951 -0.15139197 0.125233 0.25087166 0.028491147 -0.1816278 0.102586076
0.16100046 -0.11606357 -0.28055623 0.15801461 -0.27916393 0.14593476 0.09217166 -0.15105449
-0.051011316 -0.2576399 -0.111935556 0.027904492 -0.20137112 0.001837907 -0.1376861 0.04040649
-0.27440515 0.016168363 -0.28753975 -0.12278447 0.08961072 0.096820466 -0.02684324 -0.106853224
-0.12378649 -0.017784717 0.11146574 -0.026704013 0.06614834 0.17357716 0.27553958 0.111444704
0.09858427 -0.22841907 -0.28576627 0.14805165 -0.051669814 0.22255899 -0.052833706 0.09786461
0.28368616 -0.15424906 0.19322294 0.15526485 -0.22800739 -0.12005795 0.2749379 0.09551056
00000000: 312d 483e d4c2 5abe 421a 1e3d a9d4 453e
00000010: 0fc7 a83b 3588 3a3e 20af 833d 5763 cbbd
00000020: 3b3a 7dbe c7af d93d 9c08 353e c82c e13d
00000030: 4140 28bd 4c24 52bd f952 413e 941c 6ebe
00000040: 9005 a23d feca 3c3e 8117 febc 840c a93d
00000050: d141 febd 1cc1 92be 9412 913e c8cb a83b
00000060: af94 96be bbb5 7fba b6e3 763c c492 81be
00000070: 3e05 6bbe 0925 123e 8901 233e ec0f 97be
00000080: 202b 123e 6962 6ebd 3b2d 523c 1095 85be
00000090: 6b42 883e cb99 95be 199d 4cbe 7fee 473e
000000a0: 859c 0d3e 260a 57be 847f 75bd c97c 84bd
000000b0: de03 7d3e 78ab 463d 8853 23be 5d9a 8bbe
000000c0: ebfc 1bbc 096d 78bc f715 453e 2909 73bd
000000d0: dead 7a3d 7a98 683e 47de 09be 7e40 7abe
000000e0: f965 fbbd 89a4 9a3d af37 42be 6d85 c3bd
000000f0: 7120 643e 37a6 6939 e1d4 8c3d 231f aa3d
00000100: a799 963e d721 8abe 14fa 043e e652 40bd
00000110: 4c67 1dbe 6f0a 943e 08bf 0abe 7852 8d3e
00000120: f443 8bbe 0312 bd3d 7f06 1bbe 143d 003e
00000130: 4072 803e 4466 e93c a3fc 39be a618 d23d
00000140: 4edd 243e bdb2 edbd 11a5 8fbe 95ce 213e
00000150: 93ee 8ebe ec6f 153e 7fc4 bc3d 07ae 1abe
00000160: 3ef1 50bd 61e9 83be 783e e5bd f697 e43c
00000170: 3b34 4ebe ede5 f03a 96fd 0cbe 4781 253d
00000180: d57e 8cbe 8473 843c 6938 93be 6d76 fbbd
00000190: d385 b73d cf49 c63d 5be6 dbbc ddd5 dabd
000001a0: c583 fdbd 41b1 91bc 2648 e43d 60c2 dabc
000001b0: c878 873d 36be 313e 8613 8d3e 1f3d e43d
000001c0: 8de6 c93d b0e6 69be f54f 92be da9a 173e
000001d0: baa3 53bd 81e6 633e 2868 58bd 3e6d c83d
000001e0: 503f 913e 77f3 1dbe 3cdc 453e c0fd 1e3e
000001f0: c57a 69be f1e0 f5bd a9c4 8c3e 0a9b c33d

conv2.bias f4 [64]
-0.00032120358 0.0 -0.00035609704 -0.0004205631 -0.000101951824 -3.438055e-05 0.0002644783 0.0
4.0852763e-05 0.0004155812 0.0004204084 -0.0001704105 -0.0002951952 -0.00033106547 -7.116199e-05 0.0
0.0 0.0 0.0 0.00022935963 -5.2930416e-05 0.0 7.743913e-05 0.0
0.00016650028 0.00039653003 0.00030940265 0.00027789982 -0.00042142713 0.0 0.0 9.443467e-05
0.0 -0.00037277243 0.00025481186 2.6316377e-06 -0.0003930833 -0.0002996271 0.0 0.00032410218
-0.0003230455 -0.0001522231 0.0 0.00041449897 0.0 0.0 -0.00041374261 -0.00026246608
-0.00042500492 8.2477745e-05 -0.00025779847 0.00018480064 0.0 -0.00035576723 0.00031514143 -6.672764e-05
-0.00031227677 -0.00034394665 0.00040167794 0.0 -0.0002622844 -0.00038457 -0.00017041313 0.000118647906
00000000: 3767 a8b9 0000 0000 89b2 bab9 067f dcb9
00000010: f8ce d5b8 d633 10b8 ada9 8a39 0000 0000
00000020: 5259 2b38 5de2 d939 436a dc39 38b0 32b9
00000030: 6ec4 9ab9 db92 adb9 cd3c 95b8 0000 0000
00000040: 0000 0000 0000 0000 0000 0000 4280 7039
00000050: 9a01 5eb8 0000 0000 d166 a238 0000 0000
00000060: 9496 2e39 5ce5 cf39 5237 a239 15b3 9139
00000070: fef2 dcb9 0000 0000 0000 0000 3a0b c638
00000080: 0000 0000 ab70 c3b9 4598 8539 319b 3036
00000090: bf16 ceb9 4517 9db9 0000 0000 42ec a939
000000a0: 6f5e a9b9 149e 1fb9 0000 0000 1c51 d939
000000b0: 0000 0000 0000 0000 98eb d8b9 9a9b 89b9
000000c0: 32d3 deb9 e7f7 ac38 2029 87b9 0bc7 4139
000000d0: 0000 0000 4586 bab9 9139 a539 21f0 8bb8
000000e0: 14b9 a3b9 bd53 b4b9 4d98 d239 0000 0000
000000f0: 3783 89b9 1da0 c9b9 edb0 32b9 9cd2 f838

conv2.lin.weight f4 [64, 64]
-0.18882108 -0.21124081 -0.120334856 -0.11487036 -0.18103376 0.16199347 0.06945504 0.09181492
-0.001197158 -0.18399796 -0.13504903 0.13125181 0.010795342 0.18914844 -0.060415912 -0.20319983
0.0023731547 0.12529336 0.09376999 0.14365466 0.09568628 -0.0259724 0.0123169925 -0.16175762
0.03128925 -0.09939281 0.040349204 -0.00068457297 -0.04428953 0.17856714 0.03493991 0.0847112
0.16636135 -0.20967102 -0.08294351 -0.033340365 0.048846982 -0.16477245 0.19226973 -0.046803303
-0.1421011 0.0607741 -0.17824914 0.02929413 0.08714823 0.091684744 -0.0016926173 0.11747836
-0.08526539 0.12865184 0.032992233 0.14171016 -0.11070601 0.18588012 0.15605657 -0.024561932
0.10369016 -0.1506738 0.166895 0.11674777 -0.13724867 0.111680366 -0.062216107 0.20037653
0.009438585 0.08859766 -0.06439144 -0.030036634 0.09558736 0.018701922 0.17411655 -0.20249811
0.021229634 0.10060311 -0.08936963 0.08854876 -0.035634704 0.11977173 0.14603451 0.20577624
0.07317018 0.16258751 0.1436885 -0.10577966 -0.15534075 0.19668227 -0.07999438 0.07852259
0.121716164 -0.15236859 0.12755413 -0.08022274 -0.17799315 0.12266733 -0.065399535 -0.002254982
0.101318635 -0.18004365 -0.0981104 0.21421446 -0.19970597 -0.045431215 0.18903852 -0.006953304
-0.2024366 0.19129251 -0.16675048 0.10675596 0.17327927 0.18980934 -0.17874037 0.04986953
0.16227564 0.006493016 0.13751699 0.10722985 0.19938727 0.04687358 -0.062376022 -0.16688175
0.021974085 0.028535755 0.034165647 0.053564608 0.10244966 -0.09336784 0.11021047 -0.16409194
0.050542127 -0.17610314 0.11181539 0.07151824 -0.1303451 -0.20284468 -0.15868269 0.051768236
0.050360076 -0.14805572 0.030094989 0.09393758 -0.020235501 -0.21309853 -0.040608775 -0.1843902
0.12880939 0.17076266 -0.066661984 0.12331091 -0.19570094 -0.13218716 -0.11898536 -0.034471646
-0.10409858 -0.05640135 -0.113720715 0.19145122 -0.09136561 -0.103874065 0.15347886 0.0038105885
0.13487366 -0.19931701 -0.077622406 -0.029306114 0.07097267 -0.17034231 0.029901715 0.04500004
-0.11606872 0.009954054 -0.01728552 0.16305053 -0.1964767 0.08424628 -0.035337016 -0.0035557842
-0.13970526 -0.06388252 0.09578376 0.1806328 -0.06931593 0.012443713 -0.08014568 0.09636632
-0.033105623 -0.075956784 -0.12000171 0.09010316 0.081116885 0.16350448 -0.097772576 0.059776597
-0.09927984 0.15386137 -0.08407716 -0.053431742 -0.17179431 0.018361304 -0.19875158 0.13491249
0.006604745 0.12621893 0.041834652 -0.11500257 0.014225692 0.09246588 -0.21138896 -0.036818217
-0.11630405 0.084832974 0.12051948 0.14322914 -0.16004202 -0.19027929 0.006453987 0.16675445
0.014883913 0.1863912 -0.0941582 -0.13670515 0.08119538 -0.027114473 -0.09509581 0.09660877
-0.16747916 -0.1375678 0.05966809 -0.040424775 0.055903755 0.21107675 0.21347344 0.21481006
-0.12980966 0.09479142 -0.018284969 0.10268905 0.07488636 -0.05847697 0.11050986 -0.078044675
0.024820907 -0.13393271 -0.02707275 0.15938988 -0.17886443 -0.19299094 0.15834233 0.053639125
-0.114377566 0.020623857 0.14255497 0.17584327 0.12511727 0.06327761 -0.033088718 -0.20072709
00000000: 505a 41be 834f 58be 1f72 f6bd 2741 ebbd
00000010: ea60 39be 9ee1 253e 723e 8e3d 7609 bc3d
00000020: f5e9 9cba f669 3cbe 4b4a 0abe e066 063e
00000030: f2de 303c 21b0 413e ad76 77bd 9e13 50be
00000040: ee86 1b3b e74c 003e 7b0a c03d 351a 133e
00000050: 2bf7 c33d 12c4 d4bc 36cd 493c caa3 25be
00000060: 2829 003d 758e cbbd 3545 253d ea74 33ba
00000070: f068 35bd 4eda 363e 271d 0f3d 117d ad3d
00000080: a15a 2a3e 00b4 56be 49de a9bd e88f 08bd
00000090: c613 483d 1cba 28be 5be2 443e d2b4 3fbd
000000a0: f382 11be 43ee 783d f186 36be 3efa ef3c
000000b0: c57a b23d 36c5 bb3d d0da ddba 7f98 f03d
000000c0: 9f9f aebd 4fbd 033e dd22 073d 781c 113e
000000d0: d5b9 e2bd 5c57 3e3e 4bcd 1f3e 1b36 c9bc
000000e0: 825b d43d 3c4a 1abe 86e6 2a3e 7419 ef3d
000000f0: ea8a 0cbe adb8 e43d 51d6 7ebd 812f 4d3e
00000100: 4ba4 1a3c b172 b53d a9df 83bd 630f f6bc
00000110: 4ec3 c33d c634 993c 9c4b 323e aa5b 4fbe
00000120: c5e9 ad3c 0109 ce3d 6d07 b7bd 0d59 b53d
00000130: b2f5 11bd e14a f53d 128a 153e 02b7 523e
00000140: 3fda 953d 577d 263e 1423 133e 02a3 d8bd
00000150: a511 1fbe 1467 493e 18d4 a3bd 74d0 a03d
00000160: 5346 f93d 8306 1cbe 8d9d 023e d24b a4bd
00000170: d643 36be 0239 fb3d 31f0 85bd 52c8 13bb
00000180: 2580 cf3d 5d5d 38be 1bee c8bd 095b 5b3e
00000190: b97f 4cbe 1516 3abd 5093 413e 8bd8 e3bb
000001a0: 8a4b 4fbe 2fe2 433e a3c0 2abe dea2 da3d
000001b0: 1f70 313e 615d 423e b707 37be fe43 4c3d
000001c0: 962b 263e 5ec3 d43b 41d1 0c3e 539b db3d
000001d0: 2d2c 4c3e 83fe 3f3d 007e 7fbd 0de3 2abe
000001e0: ff02 b43c d1c3 e93c 47f1 0b3d 9066 5b3d
000001f0: 21d1 d13d a337 bfbd 07b6 e13d b807 28be
00000200: 4305 4f3d 6254 34be 78ff e43d 2878 923d
00000210: 3079 05be 84b6 4fbe b77d 22be ee0a 543d
00000220: 5e46 4e3d eb9b 17be c489 f63c 5962 c03d
00000230: ecc4 a5bc 8036 5abe 6355 26bd c9d0 3cbe
00000240: 9ce6 033e 68dc 2e3e 1486 88bd 6e8a fc3d
00000250: d465 48be 125c 07be 99ae f3bd 2432 0dbd
00000260: a331 d5bd 1a05 67bd 68e6 e8bd ca0b 443e
00000270: e51d bbbd edbb d4bd 9029 1d3e 11bb 793b
00000280: 521c 0a3e c219 4cbe 7ff8 9ebd 6013 f0bc
00000290: 1f5a 913d 376e 2ebe 71f4 f43c f651 383d
000002a0: 70b5 edbd 5416 233c 5d9a 8dbc b8f6 263e
000002b0: 3031 49be 5089 ac3d 8cbd 10bd 2908 69bb
000002c0: e50e 0fbe d7d4 82bd 472a c43d cef7 383e
000002d0: 83f5 8dbd b7e0 4b3c 6b23 a4bd b55b c53d
000002e0: c399 07bd 3b8f 9bbd 75c3 f5bd 0188 b83d
000002f0: 9c20 a63d b86d 273e fd3c c8bd 4ed8 743d
00000300: 3b53 cbbd d68d 1d3e a530 acbd 3edb 5abd
00000310: d9ea 2fbe 726a 963c 8985 4bbe 8026 0a3e
00000320: 9e6c d83b 893f 013e d05a 2b3d 7886 ebbd
00000330: e012 693c c05e bd3d 5976 58be b3ce 16bd
00000340: d130 eebd e9bc ad3d ebd2 f63d a9aa 123e
00000350: 0ee2 23be 93d8 42be f87b d33b aec1 2a3e
00000360: a8db 733c 56dd 3e3e 04d6 c0bd 6ffc 0bbe
00000370: c349 a63d 2c1f debc 98c1 c2bd d2da c53d
00000380: a87f 2bbe 93de 0cbe 8766 743d 7394 25bd
00000390: 56fb 643d 8124 583e c898 5a3e 2bf7 5b3e
000003a0: d3ec 04be 0122 c23d 5cca 95bc a34e d23d
000003b0: 055e 993d 8c85 6fbd fe52 e23d e3d5 9fbd
000003c0: 3755 cb3c a825 09be acc7 ddbc 1a37 233e
000003d0: 3d28 37be 6b9f 45be 7e24 223e b3b4 5b3d
000003e0: c93e eabd 5df3 a83c eef9 113e 4210 343e
000003f0: be1e 003e b197 813d 0988 07bd 678b 4dbe

conv1d.weight f4 [64, 128, 3]
-0.037518963 0.035468157 0.039170727 0.04906228 -0.010933326 0.030666312 0.043806817 0.022887032
0.033681646 0.044550147 0.027612057 -0.046223864 0.016806208 -0.0401768 0.0424642 0.04901616
0.03362153 -0.00438186 -0.0016604691 0.03236749 -0.021964958 -0.042765237 0.048450317 0.027710333
0.045907766 0.018480754 0.0339853 -0.048855357 0.049826913 -0.023093624 0.0029025662 0.001141971
-0.014016604 0.043817695 -0.009466016 0.010442665 0.042483468 -0.04867888 -0.008354601 0.011991784
-0.0058518527 0.03739897 -0.007302652 0.010087627 0.030451203 0.008970239 -0.032288864 -0.02947181
-0.02377779 0.009437047 0.0015581346 0.02211787 0.02867232 0.02737068 0.0035689087 -0.012538734
0.018483443 0.048138447 -0.02146379 -0.047284536 0.03356932 -0.038481973 0.013390595 -0.026503794
0.048369087 0.0453571 -0.032637354 -0.04456542 0.001948967 0.0135906525 -0.016393099 -0.028670685
-0.015896684 -0.01574517 0.012830827 -0.01976414 -0.05049876 0.028009387 0.016285077 -0.029288337
-0.048431076 -0.000867045 0.0018778888 -0.009510674 -0.04726888 0.05005887 -0.007405072 0.018645875
-0.032510985 -0.006865884 -0.020876033 0.003109182 0.018012024 -0.027433436 -0.028396422 -0.018326394
0.017741308 0.0129367085 0.0033473035 0.0016656703 -0.044045158 -0.03625327 -0.04947603 0.01268232
-0.04657669 0.03758616 -0.03831809 0.043000754 -0.0027859844 0.046930578 0.045118023 0.03494383
-0.024879776 0.049081177 -0.0064025866 -0.013753827 -0.0049938476 0.015161525 -0.006001516 -0.017495394
0.03778914 0.039077986 -0.027757213 0.029208353 0.0005905861 -0.039340444 0.02106744 -0.0029066908
0.002622141 -0.046615493 0.0055343495 -0.00897794 -0.010261666 -0.01753805 0.039765608 -0.019083628
-0.008832736 0.010614119 -0.039780397 0.013391684 0.02859246 -0.015861819 0.0030771592 -0.015186157
0.046725936 -0.023317663 -0.045692414 -0.030251341 0.04453283 -0.029841729 -0.014695326 -0.02008418
0.0026030573 -0.03284789 0.0345898 0.036768783 -0.017772071 -0.022839796 0.033266034 -0.039914306
0.0508218 -0.011467409 -0.00690146 0.031848956 0.017410258 -0.01693444 0.025005208 0.0039871954
0.0009170625 0.048839338 -0.034917846 -0.0073742173 -0.026029302 0.036113564 0.006679502 0.026668288
-0.031194903 0.00022998195 0.050358523 -0.027676485 -0.03578861 0.037052862 0.0046782605 0.04573068
-0.028285425 -0.026517792 0.013258574 -0.0024616495 -0.032953832 -0.019709017 -0.04659821 0.009252392
-0.012260438 -0.042357802 0.04019131 0.040989984 0.011297707 0.029096004 -0.017427929 -0.029107131
-0.03252457 0.0392208 0.035490677 -0.01072806 0.0037698545 0.041663885 -0.016730415 0.012736754
-0.011336282 -0.0034516517 0.032232396 0.014546588 0.010528574 -0.03899509 -0.044103585 0.038324732
0.0068424935 -0.0050465297 -0.0042370153 0.05070066 -0.033847906 -0.00025994255 0.04291431 -0.04481261
0.03559566 0.03567099 0.037071392 0.03788014 -0.043697458 0.02791235 0.031986482 -0.021105109
0.01968559 0.04457754 0.028495356 0.0022784972 0.039341107 0.038459048 0.03915404 0.04057101
0.045791417 0.016792137 0.039470676 -0.04493199 -0.00066680467 0.01383459 0.032347463 -0.026236763
-0.004297934 0.0071471613 -0.013833106 -0.039862707 0.03437488 0.034487195 0.01762708 0.044298757
00000000: 7cad 19bd 0f47 113d 7c71 203d 88f5 483d
00000010: b121 33bc eb37 fb3c c76e 333d 967d bb3c
00000020: c4f5 093d 377a 363d ae32 e23c 3c55 3dbd
00000030: 2cad 893c 6e90 24bd f1ee 2d3d 2bc5 483d
00000040: bbb6 093d b595 8fbb 19a4 d9ba c693 043d
00000050: dbef b3bc 9a2a 2fbd d773 463d c800 e33c
00000060: c809 3c3d f364 973c 2c34 0b3d 8e1c 48bd
00000070: 4e17 4c3d d72e bdbc fb38 3e3b 30ae 953a
00000080: e6a5 65bc 2f7a 333d 5917 1bbc b617 2b3c
00000090: 2503 2e3d 8163 47bd bde1 08bc 3079 443c
000000a0: e6c0 bfbb aa2f 193d 164b efbb 9346 253c
000000b0: cd74 f93c e9f7 123c 5441 04bd de6e f1bc
000000c0: a4c9 c2bc d89d 1a3c 523a cc3a 8930 b53c
000000d0: 37e2 ea3c 7a38 e03c 5ae4 693b 436f 4dbc
000000e0: 976a 973c d22c 453d d5d4 afbc 6ead 41bd
000000f0: fc7f 093d 469f 1dbd 3a64 5b3c 7c1e d9bc
00000100: aa1e 463d 5ec8 393d bfae 05bd 3b8a 36bd
00000110: 7b74 ff3a 54ab 5e3c d24a 86bc c9de eabc
00000120: c339 82bc 04fc 80bc 6438 523c 68e8 a1bc
00000130: cad7 4ebd f173 e53c 4868 853c 18ee efbc
00000140: aa5f 46bd 684a 63ba 7e23 f63a a8d2 1bbc
00000150: 039d 41bd 880a 4d3d 3fa6 f2bb 3cbf 983c
00000160: 3d2a 05bd 36fb e0bb 3704 abbc 6bc3 4b3b
00000170: f48d 933c 16bc e0bc 9d9f e8bc 3c21 96bc
00000180: 3856 913c 7df4 533c 6f5e 5b3b 9f52 da3a
00000190: b268 34bd 4f7e 14bd 61a7 4abd 81c9 4f3c
000001a0: 33c7 3ebd f2f3 193d 6ef3 1cbd 8f21 303d
000001b0: 1095 36bb 473a 403d adcd 383d 4321 0f3d
000001c0: acd0 cbbc 5809 493d cacc d1bb bb57 61bc
000001d0: 6ea3 a3bb 0c68 783c 5da8 c4bb 8052 8fbc
000001e0: c9c8 1a3d 3d10 203d 1863 e3bc 5b46 ef3c
000001f0: 90d1 1a3a 7223 21bd a095 ac3c 2e7e 3ebb
00000200: 3ad8 2b3b e3ef 3ebd 7d59 b53b 3618 13bc
00000210: 8c20 28bc f5ab 8fbc 43e1 223d 4555 9cbc
00000220: 2eb7 10bc d7e6 2d3c c5f0 22bd cb68 5b3c
00000230: bc3a ea3c a5f0 81bc 2aaa 493b 5ccf 78bc
00000240: b263 3f3d af04 bfbc f827 3bbd a9d1 f7bc
00000250: 0f68 363d a476 f4bc aac4 70bc 9487 a4bc
00000260: 0e98 2a3b 828b 06bd 09ae 0d3d dd9a 163d
00000270: bc96 91bc 861a bbbc f741 083d 2f7d 23bd
00000280: 852a 503d cde1 3bbc a425 e2bb 0d74 023d
00000290: f59f 8e3c 18ba 8abc b9d7 cc3c 05a7 823b
000002a0: 0667 703a c20b 483d 0406 0fbd 6ba3 f1bb
000002b0: 673b d5bc d1eb 133d b9df da3b 7477 da3c
000002c0: 748c ffbc 4f27 7139 bd44 4e3d ccb9 e2bc
000002d0: 1497 12bd bec4 173d 184c 993b 1850 3b3d
000002e0: d6b6 e7bc d73b d9bc 7d3a 593c a053 21bb
000002f0: 99fa 06bd ce74 a1bc c4dd 3ebd 5897 173c
00000300: 01e0 48bc 607f 2dbd a59f 243d 1de5 273d
00000310: 051a 393c be5a ee3c 04c5 8ebc 1472 eebc
00000320: 7c38 05bd fda5 203d ac5e 113d bfc4 2fbc
00000330: aa0f 773b c0a7 2a3d 390e 89bc d1ad 503c
00000340: d0bb 39bc 1b35 62bb 1e06 043d d054 6e3c
00000350: 0a80 2c3c 51b9 1fbd f6a5 34bd 65fa 1c3d
00000360: ff36 e03b 5c5d a5bb a9d6 8abb 7fab 4f3d
00000370: 1aa4 0abd e648 88b9 eac6 2f3d 6d8d 37bd
00000380: c1cc 113d be1b 123d 2cd8 173d 3528 1b3d
00000390: 1bfc 32bd 71a8 e43c 4204 033d 9fe4 acbc
000003a0: ad43 a13c f096 363d 186f e93c d752 153b
000003b0: 2424 213d 3c87 1d3d fd5f 203d ca2d 263d
000003c0: c88f 3b3d aa8f 893c 01ac 213d 9b0a 38bd
000003d0: 81cc 2eba 7aaa 623c c67e 043d 7bee d6bc
000003e0: afd5 8cbb bc32 ea3b 40a4 62bc 1447 23bd
000003f0: adcc 0c3d 7242 0d3d ab66 903c 9d72 353d

conv1d.bias f4 [64]
-0.022641094 -0.030951086 0.0050384654 0.033825677 0.049961917 0.009910896 -0.033567876 0.046671033
-0.010165558 0.050816372 -0.012026449 0.0048856903 -0.028135933 -0.0451852 0.047356296 -0.018651394
0.013584472 0.008248983 0.016457729 0.011000952 -0.0048543694 -0.015376961 0.049986307 0.04645417
-0.009256208 -0.03345799 0.014753581 0.02070463 0.0014048099 -0.02999161 -0.017201846 0.02768347
-0.04204825 -0.01911332 -0.03984933 -0.011596608 0.01024582 0.044367503 -0.000718091 0.027997408
-0.008768329 0.04939832 0.005832005 -0.03787672 0.032415517 0.03841463 -0.026192212 -0.012568564
0.035282012 -0.004936339 -0.0031596671 0.046535835 -0.0070681437 0.029336013 -0.032026492 -0.021017894
0.016904546 -0.026303088 0.026562894 0.004469995 0.002551048 0.0030338943 -0.024668701 0.045549944
00000000: d179 b9bc 228d fdbc b619 a53b cb8c 0a3d
00000010: dea4 4c3d 5061 223c 787e 09bd 202a 3f3d
00000020: 718d 26bc d424 503d 950a 45bc 2418 a03b
00000030: 547d e6bc 1e14 39bd adf8 413d cfca 98bc
00000040: 6891 5e3c be26 073c 5cd2 863c 563d 343c
00000050: 6711 9fbb a6ef 7bbc 71be 4c3d ba46 3e3d
00000060: 5aa7 17bc 3f0b 09bd 01b9 713c c29c a93c
00000070: 9921 b83a f7b0 f5bc e3ea 8cbc 72c8 e23c
00000080: c93a 2cbd 8a93 9cbc 0d39 23bd b3ff 3dbc
00000090: 15de 273c b3ba 353d 453e 3cba d25a e53c
000000a0: 0aa9 0fbc e555 4a3d 671a bf3b 9f24 1bbd
000000b0: 22c6 043d a958 1d3d 0d91 d6bc 61ec 4dbc
000000c0: df83 103d 03c1 a1bb 6b12 4fbb 5c9c 3e3d
000000d0: e39b e7bb 1452 f03c 362e 03bd b82d acbc
000000e0: 677b 8a3c 9379 d7bc 6d9a d93c 0979 923b
000000f0: 7c2f 273b 4dd4 463b 0416 cabc 9492 3a3d

fc.0.weight f4 [64, 64]
-0.066282645 -0.075299054 -0.10291703 0.089518875 -0.12184626 0.08386598 -0.117515974 0.08927287
0.040602077 -0.06404462 0.09365961 0.01862633 0.024788689 0.1131966 0.05657796 0.102488235
-0.059077 0.017913675 -0.050512016 0.12519038 -0.12465677 0.036188956 0.021627761 -0.056937743
-0.0414893 0.018958578 -0.10126374 0.07740144 -0.04932376 0.0131984055 0.054953426 0.08690215
0.08678335 0.09083697 0.024588853 -0.054293737 -0.12190635 -0.008351085 0.0701962 0.11070979
0.10710352 -0.026628135 -0.042589575 0.017563641 -0.029604591 0.08480456 -0.042143922 -0.07320157
0.014649065 0.058487345 0.123931356 -0.08644721 0.11656648 -0.09663207 0.033380404 0.074723504
-0.0139786815 -0.09281898 -0.066686034 -0.077380545 -0.06459852 -0.010675048 0.019642578 -0.09832064
0.11742285 0.10644126 0.11009237 0.014808565 -0.016891599 -0.057357714 0.025665596 0.014298573
-0.058293372 0.091987655 -0.02699253 -0.013242647 -0.045752645 0.08772716 0.10827187 0.073332205
-0.0998947 -0.06388666 0.013105854 0.026964217 0.08542134 -0.025755182 0.06344648 -0.0146431625
0.024652809 -0.035657585 -0.11980061 0.07106462 0.11640841 0.05331394 -0.08004521 -0.07319391
0.09817152 -0.08140141 0.048080757 0.092871994 -0.07108556 -0.08080442 0.07312596 -0.089943886
0.10901947 -0.04267171 0.12310323 0.12208295 -0.024536237 0.029646695 -0.004183471 0.008950189
-0.004691556 0.07166478 0.036765292 0.024573863 0.10591468 -0.009092957 0.012816057 -0.020334095
-0.09878464 0.08339855 -0.05984342 0.06718467 0.10124643 -0.11144452 0.10955092 -0.06250848
-0.012292489 -0.08552565 -0.03858135 -0.053568684 -0.03255158 0.12478587 -0.039935973 0.08813933
-0.07923171 -0.045351945 -0.11689708 0.10086274 0.08928064 -0.073841214 -0.08438681 -0.015773915
0.11472264 -0.044318747 -0.012026899 -0.09896342 0.1076266 -0.069008105 -0.11761073 -0.07632427
-0.056385927 0.07267632 0.06512702 0.038884424 0.11628992 -0.018817803 0.006010264 -0.11751629
-0.074219376 0.08174048 -0.04498601 0.04681337 -0.0030944855 0.11341049 0.019599557 0.117880136
0.0077690757 -0.030563729 0.08448286 0.05505091 -0.016783077 -0.09010064 -0.056245744 0.058596186
0.027052566 -0.046939228 -0.039017454 0.119082786 -0.08142894 -0.059610765 0.09891826 -0.047392935
0.010386105 -0.09965609 -0.0793843 0.008685403 -0.11833445 -0.055984426 -0.04151312 0.1166883
0.06478083 0.005580604 -0.06425491 0.11926617 0.022106051 0.096185714 0.121367976 0.11343792
0.07219635 0.07357432 0.09042019 -0.047910392 0.07004915 0.04227999 -0.043696433 -0.010525882
0.04107265 0.121409446 0.0460525 -0.03563732 -0.008841887 0.022383466 0.044699803 0.09490542
0.0030667633 0.082914114 -0.062479496 -0.11693342 0.10730575 -0.08336732 0.012122348 0.0033206493
-0.112713695 -0.043704033 -0.08051495 -0.072220534 -0.10074632 -0.11347234 0.08593014 0.03652951
-0.08708061 0.039873406 -0.029811576 0.04547873 -0.029010817 0.053251386 0.11106877 0.10165678
0.12313466 -0.0071739703 -0.06300703 0.07884368 -0.09092286 0.01624778 -0.07805534 0.055895016
0.04072833 0.007942721 -0.04492247 -0.0050503314 -0.03884074 -0.075855285 0.038763717 0.083406806
00000000: 32bf 87bd 6436 9abd 2ac6 d2bd ac55 b73d
00000010: 888a f9bd edc1 ab3d 37ac f0bd b2d4 b63d
00000020: 5d4e 263d d329 83bd 9cd0 bf3d 3f96 983c
00000030: a611 cb3c 9ed3 e73d 4abe 673d 5ae5 d13d
00000040: b9fa 71bd b3bf 923c b0e5 4ebd e831 003e
00000050: 0c4c ffbd df3a 143d b42c b13c 8d37 69bd
00000060: aff0 29bd 054f 9b3c 5d63 cfbd a584 9e3d
00000070: b607 4abd 203e 583c d816 613d c1f9 b13d
00000080: 78bb b13d bc08 ba3d 906e c93c 1c63 5ebd
00000090: 09aa f9bd fdd2 08bc 06c3 8f3d d0bb e23d
000000a0: 1759 db3d 3f23 dabc 6872 2ebd a0e1 8f3c
000000b0: 5485 f2bc 03ae ad3d 1b9f 2cbd b4ea 95bd
000000c0: a202 703c 6d90 6f3d b9cf fd3d 3c0b b1bd
000000d0: 68ba ee3d 09e7 c5bd e4b9 083d a308 993d
000000e0: d706 65bc e117 bebd b092 88bd b179 9ebd
000000f0: 3b4c 84bd 66e6 2ebc 79e9 a03c 555c c9bd
00000100: 647b f03d e0fd d93d 1c78 e13d a09f 723c
00000110: 4060 8abc ecef 6abd a840 d23c 9044 6a3c
00000120: 08c5 6ebd 0664 bc3d 701f ddbc b0f7 58bc
00000130: 2067 3bbd 4caa b33d a4bd dd3d 322f 963d
00000140: 9895 ccbd 02d7 82bd f0b9 563c 10e4 dc3c
00000150: 62f1 ae3d 88fc d2bc 3af0 813d e0e9 6fbc
00000160: b0f4 c93c b00d 12bd 065a f5bd 548a 913d
00000170: 8867 ee3d b85f 5a3d beee a3bd b0e6 95bd
00000180: 260e c93d c8b5 a6bd 54f0 443d ac33 be3d
00000190: 4e95 91bd ca7c a5bd 10c3 953d 8034 b8bd
000001a0: 9a45 df3d 88c8 2ebd 8c1d fc3d a006 fa3d
000001b0: 3800 c9bc a0dd f23c 8015 89bb d0a3 123c
000001c0: a0bb 99bb fcc4 923d 3497 163d 204f c93c
000001d0: cce9 d83d a0fa 14bc 70fa 513c b093 a6bc
000001e0: 9a4f cabd dccc aa3d 601e 75bd 1e98 893d
000001f0: 4a5a cf3d 063d e4bd 3c5c e03d 7204 80bd
00000200: 7066 49bc 1228 afbd 7a07 1ebd d66a 5bbd
00000210: ce54 05bd bc8f ff3d e793 23bd 6582 b43d
00000220: 3c44 a2bd f6c2 39bd bc67 efbd 2091 ce3d
00000230: c5d8 b63d 103a 97bd fed2 acbd 4c38 81bc
00000240: b4f3 ea3d 9387 35bd 780c 45bc 55ad cabd
00000250: 566b dc3d 1f54 8dbd e5dd f0bd e64f 9cbd
00000260: eef4 66bd 53d7 943d 5161 853d 4645 1f3d
00000270: 6929 ee3d cb27 9abc c0f1 c43b 61ac f0bd
00000280: 5400 98bd 8e67 a73d 4043 38bd 60bf 3f3d
00000290: dacc 4abb c243 e83d 408f a03c 246b f13d
000002a0: bb93 fe3b c960 fabc 5a05 ad3d 107d 613d
000002b0: aa7c 89bc af86 b8bd f061 66bd 8e02 703d
000002c0: 589d dd3c 5943 40bd c4d0 1fbd ade1 f33d
000002d0: 37c4 a6bd 6b2a 74bd a895 ca3d 181f 42bd
000002e0: 7b2a 2a3c 7e18 ccbd 3c94 a2bd 384d 0e3c
000002f0: 5559 f2bd ed4f 65bd a909 2abd 47fa ee3d
00000300: d0ab 843d 80dd b63b 1498 83bd d241 f43d
00000310: c017 b53c 04fd c43d c68f f83d 2452 e83d
00000320: aedb 933d 22ae 963d 382e b93d b03d 44bd
00000330: ee75 8f3d c82d 2d3d 08fb 32bd c074 2cbc
00000340: cc3b 283d 84a5 f83d 8ca1 3c3d 70f8 11bd
00000350: 90dd 10bc 885d b73c 2417 373d c65d c23d
00000360: c0fb 483b e0ce a93d 80ea 7fbd ca7a efbd
00000370: 1ec3 db3d 7cbc aabd d09c 463c 409f 593b
00000380: 70d6 e6bd 0003 33bd 06e5 a4bd 5ce8 93bd
00000390: 1654 cebd 3064 e8bd 24fc af3d f89f 153d
000003a0: 5257 b2bd 4c52 233d 6837 f4bc e847 3a3d
000003b0: 18a8 edbc 201e 5a3d 0678 e33d 6e31 d03d
000003c0: 062e fc3d a013 ebbb d409 81bd cc78 a13d
000003d0: c435 babd 101a 853c 7adb 9fbd 2cf2 643d
000003e0: c0d2 263d 3022 023c a000 38bd 407d a5bb
000003f0: 7817 1fbd 045a 9bbd b4c6 1e3d 30d1 aa3d

fc.0.bias f4 [64]
0.07786814 -0.113568634 0.09700543 -0.071926326 0.036881458 -0.06817031 0.08904036 -0.006839122
0.117617235 0.072793074 -0.0015788692 -0.08365698 -0.08708806 0.012751351 -0.103757754 0.08805392
0.002775599 0.09869291 -0.059810042 -0.03978607 0.07401428 0.025827324 -0.043409377 -0.07097733
0.050993048 -0.09113464 -0.10143161 -0.04117292 0.0577797 0.025268702 0.12399967 -0.052552477
-0.06948456 -0.0465903 0.013514918 0.113644816 0.009593502 -0.08020593 -0.027078852 0.11030297
-0.021530882 0.118130386 -0.047184497 0.06526629 0.069996156 0.09259868 0.08924918 0.08110617
0.11025868 -0.105766654 -0.04249166 -0.09580268 0.123913676 -0.007883233 0.08860474 0.10341108
0.10805378 0.099585414 -0.07059775 -0.036750212 0.05341917 -0.03746146 -0.0006080419 0.11171118
00000000: 5579 9f3d ac96 e8bd c8aa c63d 1c4e 93bd
00000010: 0311 173d e09c 8bbd cb5a b63d b71a e0bb
00000020: 4ee1 f03d 8914 953d 0ff2 ceba 5a54 abbd
00000030: 3a5b b2bd 0beb 503c f27e d4bd 9d55 b43d
00000040: d3e6 353b 821f ca3d 60fb 74bd b8f6 22bd
00000050: cd94 973d d393 d33c 08ce 31bd 905c 91bd
00000060: 16de 503d cca4 babd 60bb cfbd f0a4 28bd
00000070: 68aa 6c3d 4f00 cf3c 8af3 fd3d 4441 57bd
00000080: ec4d 8ebd 78d5 3ebd ad6d 5d3c 9dbe e83d
00000090: 102e 1d3c 0243 a4bd 78d4 ddbc 86e6 e13d
000000a0: 8861 b0bc 58ee f13d 8844 41bd 55aa 853d
000000b0: 255a 8f3d 60a4 bd3d 46c8 b63d fe1a a63d
000000c0: 4ecf e13d 309c d8bd bc0b 2ebd 3234 c4bd
000000d0: 74c6 fd3d ad28 01bc 6776 b53d 30c9 d33d
000000e0: 4d4b dd3d 70f3 cb3d 8e95 90bd 6487 16bd
000000f0: 0fce 5a3d 3071 19bd 0065 1fba d5c8 e43d

fc.2.weight f4 [1, 64]
0.0069662714 -0.012684539 -0.10261335 -0.12344158 0.05618517 0.07371923 -0.034239125 -0.040348273
-0.05940361 -0.108131856 0.01898213 0.076544344 0.10741153 0.047323808 0.016261235 0.10266299
0.101141326 0.10211658 0.05494325 0.07115202 -0.02271102 -0.096869715 0.08763024 -0.07845153
-0.0771235 0.023872212 0.11602336 0.086413145 -0.097921856 -0.06876617 0.10843956 -0.04546541
0.10712041 -0.092780665 0.047551647 0.06450018 -0.028529229 -0.017632678 0.025524855 -0.028912518
0.011246026 -0.0053419285 0.058964297 -0.10846017 -0.038532585 0.04679477 -0.106022716 -0.10340738
-0.09947376 0.016585365 -0.0386315 -0.008703947 -0.016157495 -0.049623057 0.10425403 -0.07967143
0.0821998 -0.061709285 0.070010826 -0.036530122 0.031382218 0.10982159 0.014735445 0.03152958
00000000: 5245 e43b d0d2 4fbc f326 d2bd f0ce fcbd
00000010: 6c22 663d 1cfa 963d 533e 0cbd 3b44 25bd
00000020: 3351 73bd 3c74 ddbd 6980 9b3c 48c3 9c3d
00000030: 94fa db3d 9cd6 413d 4836 853c f940 d23d
00000040: 2f23 cf3d 7f22 d13d 2c0c 613d 26b8 913d
00000050: 760c babc a163 c6bd 7c77 b33d 32ab a0bd
00000060: edf2 9dbd a88f c33c a89d ed3d 60f9 b03d
00000070: 418b c8bd 47d5 8cbd 8f15 de3d f039 3abd
00000080: f261 db3d ca03 bebd 84c5 423d ac18 843d
00000090: 21b6 e9bc 6872 90bc 8019 d13c f2d9 ecbc
000000a0: 4041 383c 580b afbb 8c84 713d 5e20 debd
000000b0: 58d4 1dbd dfab 3f3d 7022 d9bd 40c7 d3bd
000000c0: e6b8 cbbd 08de 873c 103c 1ebd 009b 0ebc
000000d0: b95c 84bc 8c41 4bbd 2383 d53d c62a a3bd
000000e0: 5e58 a83d e0c2 7cbd d661 8f3d 9ca0 15bd
000000f0: a48a 003d 24ea e03d f06c 713c 2925 013d
