data_files/out_gen/discriminator_epoch0.pt (torch, 137429 bytes, 9 tensors)

conv1.bias f4 [64]
00000000: 9db6 d1b8 fbb6 d138 e7b6 d138 e9b6 d138
00000010: 0000 0000 e3b6 d1b8 0000 0000 09b2 d138
00000020: cdb6 d138 3eb5 d1b8 0000 0000 f0b6 d1b8
00000030: 0000 0000 6bb5 d138 0000 0000 95b6 d138
00000040: 85b5 d1b8 49b6 d1b8 9ab6 d1b8 89a4 d1b8
00000050: 38b6 d138 0000 0000 e3b6 d1b8 0000 0000
00000060: 0000 0000 28b6 d138 beb6 d138 0000 0000
00000070: 0000 0000 0000 0000 e0b6 d1b8 b7b6 d138
00000080: 73b6 d138 e9b6 d138 d5a4 d1b8 76b6 d1b8
00000090: 0000 0000 78ad d1b8 f5b6 d1b8 0000 0000
000000a0: b6b6 d138 0000 0000 0000 0000 aaad d138
000000b0: 0000 0000 0000 0000 0000 0000 0000 0000
000000c0: 0000 0000 0000 0000 e8b6 d1b8 0000 0000
000000d0: 0000 0000 eab6 d1b8 e5b6 d1b8 c3b6 d138
000000e0: aaad d138 0000 0000 fab6 d1b8 aab5 d1b8
000000f0: 89b6 d1b8 c5b6 d1b8 0000 0000 79b6 d138
-9.999911e-05 9.9999794e-05 9.999965e-05 9.999966e-05 0.0 -9.999962e-05 0.0 9.999058e-05
9.999946e-05 -9.9996556e-05 0.0 -9.9999714e-05 0.0 9.999688e-05 0.0 9.999905e-05
-9.999707e-05 -9.99985e-05 -9.999909e-05 -9.996544e-05 9.9998375e-05 0.0 -9.999962e-05 0.0
0.0 9.999826e-05 9.999935e-05 0.0 0.0 0.0 -9.99996e-05 9.99993e-05
9.9998804e-05 9.999966e-05 -9.996599e-05 -9.9998826e-05 0.0 -9.998208e-05 -9.999975e-05 0.0
9.999929e-05 0.0 0.0 9.998244e-05 0.0 0.0 0.0 0.0
0.0 0.0 -9.9999656e-05 0.0 0.0 -9.999967e-05 -9.9999634e-05 9.9999386e-05
9.998244e-05 0.0 -9.999979e-05 -9.999734e-05 -9.9998964e-05 -9.99994e-05 0.0 9.999885e-05

conv1.lin.weight f4 [64, 2]
00000000: ea7e 483e 4373 5abe 5219 1d3d 26a6 453e
00000010: 5343 9f3b 873e 3a3e bc0f 833d b801 ccbd
00000020: 3b3a 7dbe c7af d93d 2155 353e 3fcb e13d
00000030: 4140 28bd 4c24 52bd a96e 413e 2c05 6ebe
00000040: 2c6b a13d c67e 3c3e 8c77 fbbc 30a3 a93d
00000050: d141 febd 1cc1 92be dd29 913e 6ccd aa3b
00000060: af94 96be bbb5 7fba 54ca 793c c492 81be
00000070: 3e05 6bbe 0925 123e 0ad6 223e 962d 97be
00000080: 7cfb 113e 81cc 6ebd fd0f 553c 1095 85be
00000090: 0b6b 883e 2771 95be e44b 4cbe b63f 483e
000000a0: cb50 0d3e 1854 57be 847f 75bd c97c 84bd
000000b0: 2549 7d3e e6a5 473d 8853 23be 5d9a 8bbe
000000c0: ebfc 1bbc 096d 78bc e7be 443e 8c59 74bd
000000d0: c90e 7a3d 4daf 683e 47de 09be 7e40 7abe
000000e0: f965 fbbd 89a4 9a3d af37 42be 6d85 c3bd
000000f0: 906b 643e 0763 f739 1581 8c3d f102 aa3d
00000100: cf77 963e e541 8abe acca 043e 2ec9 40bd
00000110: a829 1dbe 2f29 943e ad67 0abe b37d 8d3e
00000120: f443 8bbe 0312 bd3d a3b4 1abe f08e 003e
00000130: c487 803e 00fe e93c a3fc 39be a618 d23d
00000140: 0489 243e 8050 eebd 11a5 8fbe 95ce 213e
00000150: 93ee 8ebe ec6f 153e 4f4a bc3d aeea 1abe
00000160: 3ef1 50bd 61e9 83be 783e e5bd f697 e43c
00000170: 3b34 4ebe ede5 f03a 96fd 0cbe 4781 253d
00000180: d57e 8cbe 8473 843c 6938 93be 6d76 fbbd
00000190: 5007 b83d 4da2 c63d 5be6 dbbc ddd5 dabd
000001a0: c583 fdbd 41b1 91bc 76e8 e43d c152 d8bc
000001b0: ef18 883d 250d 323e e2f1 8c3e f3c0 e33d
000001c0: b72c ca3d f4b2 69be f54f 92be da9a 173e
000001d0: 2da6 52bd d617 643e b010 58bd 56ad c83d
000001e0: 3a5c 913e a7db 1dbe 1812 463e 3a3d 1f3e
000001f0: c57a 69be f1e0 f5bd fe98 8c3e 9aea c23d
0.19579664 -0.21333031 0.038354225 0.19301662 0.0048603206 0.18187915 0.063994855 -0.09961265
-0.24729244 0.1062923 0.17708255 0.11025094 -0.041076902 -0.051304147 0.1888987 -0.2324416
0.078817695 0.18407735 -0.030696653 0.08283079 -0.12414897 -0.28662956 0.28352252 0.0052124765
-0.29410312 -0.0009754558 0.015245993 -0.25307286 -0.22951218 0.1427194 0.15901962 -0.29526967
0.1425609 -0.0583005 0.0130043 -0.26090288 0.26644167 -0.2918789 -0.19950825 0.19555554
0.13800351 -0.21028173 -0.05993606 -0.064691134 0.24734934 0.048742197 -0.15949833 -0.27266207
-0.00952075 -0.015162715 0.19213448 -0.05965571 0.061049256 0.22723122 -0.13463698 -0.24438664
-0.12275309 0.07550914 -0.18966554 -0.09546933 0.22306657 0.00047185292 0.06860558 0.08301342
0.29388282 -0.270034 0.12967938 -0.04706686 -0.15347922 0.2893767 -0.13516112 0.27634963
-0.27200282 0.09231951 -0.1510797 0.12554526 0.2510358 0.0285635 -0.1816278 0.102586076
0.16067892 -0.11636448 -0.28055623 0.15801461 -0.27916393 0.14593476 0.09193861 -0.15128586
-0.051011316 -0.2576399 -0.111935556 0.027904492 -0.20137112 0.001837907 -0.1376861 0.04040649
-0.27440515 0.016168363 -0.28753975 -0.12278447 0.0898577 0.09698925 -0.02684324 -0.106853224
-0.12378649 -0.017784717 0.11177151 -0.026406648 0.06645381 0.17387827 0.27528292 0.111207865
0.0987181 -0.22822171 -0.28576627 0.14805165 -0.05142801 0.22274718 -0.05275029 0.09798686
0.28390676 -0.15415822 0.1934284 0.155507 -0.22800739 -0.12005795 0.27460474 0.09517403

conv2.bias f4 [64]
00000000: fbb6 d1b8 0000 0000 d5b6 d1b8 47b5 d1b8
00000010: d6b6 d138 eab6 d138 0000 0000 0000 0000
00000020: 3bb6 d138 66b5 d138 7fb6 d138 0000 0000
00000030: 7eb6 d1b8 d3b6 d1b8 32b6 d1b8 0000 0000
00000040: 0000 0000 0000 0000 0000 0000 67b6 d138
00000050: 7fb6 d138 0000 0000 2db6 d138 0000 0000
00000060: 0ab4 d1b8 d5b6 d138 dfb6 d138 0000 0000
00000070: c6b6 d1b8 0000 0000 0000 0000 31b5 d138
00000080: 0000 0000 e4b6 d1b8 0000 0000 efb6 d138
00000090: a9b6 d1b8 bab6 d1b8 0000 0000 edb6 d138
000000a0: 35b6 d1b8 0000 0000 0000 0000 f7b6 d138
000000b0: 0000 0000 0000 0000 8cb6 d1b8 0000 0000
000000c0: d5b6 d1b8 00b6 d1b8 e5b6 d1b8 dab4 d1b8
000000d0: 0000 0000 c0b6 d1b8 0000 0000 e1b5 d1b8
000000e0: fcb6 d1b8 b7b6 d1b8 e5b5 d138 0000 0000
000000f0: e7b6 d1b8 f6b6 d1b8 0000 0000 d1b6 d138
-9.9999794e-05 0.0 -9.999952e-05 -9.999662e-05 9.9999525e-05 9.999967e-05 0.0 0.0
9.99984e-05 9.999685e-05 9.999889e-05 0.0 -9.9998884e-05 -9.99995e-05 -9.999833e-05 0.0
0.0 0.0 0.0 9.999872e-05 9.999889e-05 0.0 9.9998295e-05 0.0
-9.9994315e-05 9.999952e-05 9.999959e-05 0.0 -9.999941e-05 0.0 0.0 9.999646e-05
0.0 -9.999963e-05 0.0 9.999971e-05 -9.99992e-05 -9.999932e-05 0.0 9.999969e-05
-9.999835e-05 0.0 0.0 9.9999765e-05 0.0 0.0 -9.9998986e-05 0.0
-9.999952e-05 -9.999797e-05 -9.9999634e-05 -9.999583e-05 0.0 -9.9999364e-05 0.0 -9.999774e-05
-9.99998e-05 -9.99993e-05 9.999777e-05 0.0 -9.999965e-05 -9.999976e-05 0.0 9.999949e-05

conv2.lin.weight f4 [64, 64]
00000000: ef1f 41be b128 58be d027 f6bd 62d8 eabd
00000010: ea60 39be 870c 263e 723e 8e3d 5f7b bc3d
00000020: 04cb 88ba 1c51 3cbe 4b4a 0abe 3394 063e
00000030: f2de 303c 38dd 413e ad76 77bd baf1 4fbe
00000040: c4a9 273b dc74 003e 0c7f c03d ed63 133e
00000050: 4660 c43d 12c4 d4bc 2f94 4c3c caa3 25be
00000060: 2829 003d 132f cbbd 62e2 253d ea74 33ba
00000070: f068 35bd 4eda 363e c2d2 0f3d 61d0 ad3d
00000080: b894 2a3e ce83 56be 6fc4 a9bd 3b51 08bd
00000090: c613 483d 4b71 28be 300f 453e d2b4 3fbd
000000a0: eb4d 11be 43ee 783d f186 36be 667b f13c
000000b0: c57a b23d 36c5 bb3d d0da ddba 7f98 f03d
000000c0: 9f9f aebd 4fbd 033e 16ca 073d 781c 113e
000000d0: d5b9 e2bd 4686 3e3e 34f5 1f3e c0d8 c7bc
000000e0: 1b67 d43d 3c4a 1abe 0c07 2b3e 7a32 ef3d
000000f0: de58 0cbe 8e0d e53d 51d6 7ebd 645b 4d3e
00000100: 4ba4 1a3c b172 b53d a9df 83bd 630f f6bc
00000110: 4ec3 c33d c634 993c 9c4b 323e aa5b 4fbe
00000120: c5e9 ad3c 0109 ce3d 6d07 b7bd 0d59 b53d
00000130: b2f5 11bd e14a f53d 128a 153e 02b7 523e
00000140: 3fda 953d 577d 263e 1423 133e 02a3 d8bd
00000150: a511 1fbe 1467 493e 18d4 a3bd 74d0 a03d
00000160: 5346 f93d 8306 1cbe 8d9d 023e d24b a4bd
00000170: d643 36be 0239 fb3d 31f0 85bd 52c8 13bb
00000180: 2580 cf3d 5d5d 38be 1bee c8bd 095b 5b3e
00000190: b97f 4cbe 1516 3abd 5093 413e 8bd8 e3bb
000001a0: 8a4b 4fbe 2fe2 433e a3c0 2abe dea2 da3d
000001b0: 1f70 313e 615d 423e b707 37be fe43 4c3d
000001c0: 962b 263e 5ec3 d43b 41d1 0c3e 539b db3d
000001d0: 2d2c 4c3e 83fe 3f3d 007e 7fbd 0de3 2abe
000001e0: ff02 b43c d1c3 e93c 47f1 0b3d 9066 5b3d
000001f0: 21d1 d13d a337 bfbd 07b6 e13d b807 28be
00000200: 1b55 4e3d 5f0d 34be 9f92 e53d 152b 923d
00000210: 3079 05be ae87 4fbe b77d 22be 7761 533d
00000220: ae4e 4f3d 6b52 17be c489 f63c b396 c03d
00000230: ecc4 a5bc e625 5abe 6355 26bd 76f4 3cbe
00000240: aae7 033e 19e8 2e3e d5dd 88bd 71db fb3d
00000250: cd8c 48be 125c 07be 5d6b f3bd 2432 0dbd
00000260: a331 d5bd b3e3 66bd 455b e8bd ca0b 443e
00000270: e51d bbbd edbb d4bd f842 1d3e 3111 843b
00000280: 8df1 093e 0615 4cbe 0764 9ebd dac3 edbc
00000290: 1f5a 913d 00c3 2ebe f0e6 f53c f651 383d
000002a0: 29eb edbd 5416 233c 5d9a 8dbc a9d1 263e
000002b0: 3031 49be 5089 ac3d 8cbd 10bd 2908 69bb
000002c0: e50e 0fbe d7d4 82bd 9199 c43d cef7 383e
000002d0: 83f5 8dbd 45ac 4c3c 799d a3bd 6ead c53d
000002e0: c722 08bd 3b8f 9bbd 8430 f5bd 901c b93d
000002f0: b70b a63d 9fa0 273e fd3c c8bd 7074 753d
00000300: c6d2 cbbd c3c5 1d3e a0be abbd 94b0 5bbd
00000310: d9ea 2fbe 470c 983c 8985 4bbe bfe7 093e
00000320: 2a49 df3b 487c 013e d05a 2b3d 3424 ebbd
00000330: e012 693c ae8a bd3d 5976 58be 634e 17bd
00000340: 6adb edbd a97b ad3d 5c53 f63d 4c63 123e
00000350: 9919 24be 93d8 42be 62c8 d93b aec1 2a3e
00000360: a8db 733c 770a 3f3e f366 c0bd 6ffc 0bbe
00000370: c349 a63d 2c1f debc a75f c2bd 2a46 c63d
00000380: 68a3 2bbe 79b2 0cbe 8762 753d e79a 24bd
00000390: 56fb 643d 14de 573e a5ca 5a3e 2bf7 5b3e
000003a0: 1ed4 04be 0122 c23d 5cca 95bc 84f5 d13d
000003b0: 055e 993d 8c85 6fbd fe52 e23d e3d5 9fbd
000003c0: 3755 cb3c a825 09be 221d dcbc 1a37 233e
000003d0: 3d28 37be 5371 45be 715b 223e c482 5c3d
000003e0: 57a6 eabd 5df3 a83c 1d35 123e 514f 343e
000003f0: a744 003e 3301 823d 0988 07bd 2258 4dbe
-0.18859838 -0.21109273 -0.120193124 -0.11467053 -0.18103376 0.16215716 0.06945504 0.09203219
-0.001043648 -0.18390316 -0.13504903 0.13142471 0.010795342 0.18932045 -0.060415912 -0.20307055
0.0025583366 0.12544578 0.09399232 0.14393587 0.09588675 -0.0259724 0.012486502 -0.16175762
0.03128925 -0.09921088 0.0404991 -0.00068457297 -0.04428953 0.17856714 0.035113104 0.08487011
0.16658294 -0.20948717 -0.0828942 -0.033280592 0.048846982 -0.16449468 0.19244075 -0.046803303
-0.1418988 0.0607741 -0.17824914 0.029477786 0.08714823 0.091684744 -0.0016926173 0.11747836
-0.08526539 0.12865184 0.03315171 0.14171016 -0.11070601 0.18605909 0.15620881 -0.024395347
0.10371228 -0.1506738 0.16701907 0.116795495 -0.13705775 0.11184226 -0.062216107 0.20054394
0.009438585 0.08859766 -0.06439144 -0.030036634 0.09558736 0.018701922 0.17411655 -0.20249811
0.021229634 0.10060311 -0.08936963 0.08854876 -0.035634704 0.11977173 0.14603451 0.20577624
0.07317018 0.16258751 0.1436885 -0.10577966 -0.15534075 0.19668227 -0.07999438 0.07852259
0.121716164 -0.15236859 0.12755413 -0.08022274 -0.17799315 0.12266733 -0.065399535 -0.002254982
0.101318635 -0.18004365 -0.0981104 0.21421446 -0.19970597 -0.045431215 0.18903852 -0.006953304
-0.2024366 0.19129251 -0.16675048 0.10675596 0.17327927 0.18980934 -0.17874037 0.04986953
0.16227564 0.006493016 0.13751699 0.10722985 0.19938727 0.04687358 -0.062376022 -0.16688175
0.021974085 0.028535755 0.034165647 0.053564608 0.10244966 -0.09336784 0.11021047 -0.16409194
0.05037413 -0.17583226 0.112096064 0.071371235 -0.1303451 -0.20266601 -0.15868269 0.05160662
0.050612144 -0.14777534 0.030094989 0.094037436 -0.020235501 -0.2130352 -0.040608775 -0.1845263
0.12881342 0.17080726 -0.06682936 0.122977145 -0.19584961 -0.13218716 -0.11885712 -0.034471646
-0.10409858 -0.056369495 -0.11345533 0.19145122 -0.09136561 -0.103874065 0.15357578 0.0040303697
0.1347105 -0.19929895 -0.077339225 -0.029024053 0.07097267 -0.17066574 0.030017346 0.04500004
-0.11617119 0.009954054 -0.01728552 0.16290917 -0.1964767 0.08424628 -0.035337016 -0.0035557842
-0.13970526 -0.06388252 0.09599603 0.1806328 -0.06931593 0.012492244 -0.0798902 0.0965222
-0.03323629 -0.075956784 -0.11972144 0.09038651 0.08107703 0.16369866 -0.097772576 0.059925497
-0.09952311 0.15407471 -0.08385968 -0.053635195 -0.17179431 0.018560542 -0.19875158 0.1346731
0.0068141418 0.12645066 0.041834652 -0.114815146 0.014225692 0.09254967 -0.21138896 -0.03693999
-0.116141155 0.08470852 0.12027618 0.14295691 -0.1602539 -0.19027929 0.006646202 0.16675445
0.014883913 0.18656336 -0.09394636 -0.13670515 0.08119538 -0.027114473 -0.094909005 0.096813515
-0.16761553 -0.13739957 0.059908416 -0.04018679 0.055903755 0.2108081 0.21366365 0.21481006
-0.12971541 0.09479142 -0.018284969 0.102519065 0.07488636 -0.05847697 0.11050986 -0.078044675
0.024820907 -0.13393271 -0.02686936 0.15938988 -0.17886443 -0.19281511 0.15855195 0.053835645
-0.11457508 0.020623857 0.14278074 0.17608382 0.12526189 0.06347885 -0.033088718 -0.20053151

conv1d.weight f4 [64, 128, 3]
00000000: 7cad 19bd 0f47 113d 7c71 203d 88f5 483d
00000010: b121 33bc eb37 fb3c c76e 333d 967d bb3c
00000020: c4f5 093d 377a 363d ae32 e23c 3c55 3dbd
00000030: 2cad 893c 6e90 24bd f1ee 2d3d 2bc5 483d
00000040: bbb6 093d b595 8fbb 19a4 d9ba c693 043d
00000050: dbef b3bc 9a2a 2fbd d773 463d c800 e33c
00000060: c809 3c3d f364 973c 2c34 0b3d 8e1c 48bd
00000070: 4e17 4c3d d72e bdbc fb38 3e3b 30ae 953a
00000080: e6a5 65bc 2f7a 333d 5917 1bbc b617 2b3c
00000090: 2503 2e3d 8163 47bd bde1 08bc 3079 443c
000000a0: e6c0 bfbb aa2f 193d 164b efbb 9346 253c
000000b0: cd74 f93c e9f7 123c 5441 04bd de6e f1bc
000000c0: a4c9 c2bc d89d 1a3c 523a cc3a 8930 b53c
000000d0: 37e2 ea3c 7a38 e03c 5ae4 693b 436f 4dbc
000000e0: 976a 973c d22c 453d d5d4 afbc 6ead 41bd
000000f0: fc7f 093d 469f 1dbd 3a64 5b3c 7c1e d9bc
00000100: aa1e 463d 5ec8 393d bfae 05bd 3b8a 36bd
00000110: 7b74 ff3a 54ab 5e3c d24a 86bc c9de eabc
00000120: c339 82bc 04fc 80bc 6438 523c 68e8 a1bc
00000130: cad7 4ebd f173 e53c 4868 853c 18ee efbc
00000140: aa5f 46bd 684a 63ba 7e23 f63a a8d2 1bbc
00000150: 039d 41bd 880a 4d3d 3fa6 f2bb 3cbf 983c
00000160: 3d2a 05bd 36fb e0bb 3704 abbc 6bc3 4b3b
00000170: f48d 933c 16bc e0bc 9d9f e8bc 3c21 96bc
00000180: 3856 913c 7df4 533c 6f5e 5b3b 9f52 da3a
00000190: b268 34bd 4f7e 14bd 61a7 4abd 81c9 4f3c
000001a0: 33c7 3ebd f2f3 193d 6ef3 1cbd 8f21 303d
000001b0: 1095 36bb 473a 403d adcd 383d 4321 0f3d
000001c0: acd0 cbbc 5809 493d cacc d1bb bb57 61bc
000001d0: 6ea3 a3bb 0c68 783c 5da8 c4bb 8052 8fbc
000001e0: c9c8 1a3d 3d10 203d 1863 e3bc 5b46 ef3c
000001f0: 90d1 1a3a 7223 21bd a095 ac3c 2e7e 3ebb
00000200: 3ad8 2b3b e3ef 3ebd 7d59 b53b 3618 13bc
00000210: 8c20 28bc f5ab 8fbc 43e1 223d 4555 9cbc
00000220: 2eb7 10bc d7e6 2d3c c5f0 22bd cb68 5b3c
00000230: bc3a ea3c a5f0 81bc 2aaa 493b 5ccf 78bc
00000240: b263 3f3d af04 bfbc f827 3bbd a9d1 f7bc
00000250: 0f68 363d a476 f4bc aac4 70bc 9487 a4bc
00000260: 0e98 2a3b 828b 06bd 09ae 0d3d dd9a 163d
00000270: bc96 91bc 861a bbbc f741 083d 2f7d 23bd
00000280: 852a 503d cde1 3bbc a425 e2bb 0d74 023d
00000290: f59f 8e3c 18ba 8abc b9d7 cc3c 05a7 823b
000002a0: 0667 703a c20b 483d 0406 0fbd 6ba3 f1bb
000002b0: 673b d5bc d1eb 133d b9df da3b 7477 da3c
000002c0: 748c ffbc 4f27 7139 bd44 4e3d ccb9 e2bc
000002d0: 1497 12bd bec4 173d 184c 993b 1850 3b3d
000002e0: d6b6 e7bc d73b d9bc 7d3a 593c a053 21bb
000002f0: 99fa 06bd ce74 a1bc c4dd 3ebd 5897 173c
00000300: 01e0 48bc 607f 2dbd a59f 243d 1de5 273d
00000310: 051a 393c be5a ee3c 04c5 8ebc 1472 eebc
00000320: 7c38 05bd fda5 203d ac5e 113d bfc4 2fbc
00000330: aa0f 773b c0a7 2a3d 390e 89bc d1ad 503c
00000340: d0bb 39bc 1b35 62bb 1e06 043d d054 6e3c
00000350: 0a80 2c3c 51b9 1fbd f6a5 34bd 65fa 1c3d
00000360: ff36 e03b 5c5d a5bb a9d6 8abb 7fab 4f3d
00000370: 1aa4 0abd e648 88b9 eac6 2f3d 6d8d 37bd
00000380: c1cc 113d be1b 123d 2cd8 173d 3528 1b3d
00000390: 1bfc 32bd 71a8 e43c 4204 033d 9fe4 acbc
000003a0: ad43 a13c f096 363d 186f e93c d752 153b
000003b0: 2424 213d 3c87 1d3d fd5f 203d ca2d 263d
000003c0: c88f 3b3d aa8f 893c 01ac 213d 9b0a 38bd
000003d0: 81cc 2eba 7aaa 623c c67e 043d 7bee d6bc
000003e0: afd5 8cbb bc32 ea3b 40a4 62bc 1447 23bd
000003f0: adcc 0c3d 7242 0d3d ab66 903c 9d72 353d
-0.037518963 0.035468157 0.039170727 0.04906228 -0.010933326 0.030666312 0.043806817 0.022887032
0.033681646 0.044550147 0.027612057 -0.046223864 0.016806208 -0.0401768 0.0424642 0.04901616
0.03362153 -0.00438186 -0.0016604691 0.03236749 -0.021964958 -0.042765237 0.048450317 0.027710333
0.045907766 0.018480754 0.0339853 -0.048855357 0.049826913 -0.023093624 0.0029025662 0.001141971
-0.014016604 0.043817695 -0.009466016 0.010442665 0.042483468 -0.04867888 -0.008354601 0.011991784
-0.0058518527 0.03739897 -0.007302652 0.010087627 0.030451203 0.008970239 -0.032288864 -0.02947181
-0.02377779 0.009437047 0.0015581346 0.02211787 0.02867232 0.02737068 0.0035689087 -0.012538734
0.018483443 0.048138447 -0.02146379 -0.047284536 0.03356932 -0.038481973 0.013390595 -0.026503794
0.048369087 0.0453571 -0.032637354 -0.04456542 0.001948967 0.0135906525 -0.016393099 -0.028670685
-0.015896684 -0.01574517 0.012830827 -0.01976414 -0.05049876 0.028009387 0.016285077 -0.029288337
-0.048431076 -0.000867045 0.0018778888 -0.009510674 -0.04726888 0.05005887 -0.007405072 0.018645875
-0.032510985 -0.006865884 -0.020876033 0.003109182 0.018012024 -0.027433436 -0.028396422 -0.018326394
0.017741308 0.0129367085 0.0033473035 0.0016656703 -0.044045158 -0.03625327 -0.04947603 0.01268232
-0.04657669 0.03758616 -0.03831809 0.043000754 -0.0027859844 0.046930578 0.045118023 0.03494383
-0.024879776 0.049081177 -0.0064025866 -0.013753827 -0.0049938476 0.015161525 -0.006001516 -0.017495394
0.03778914 0.039077986 -0.027757213 0.029208353 0.0005905861 -0.039340444 0.02106744 -0.0029066908
0.002622141 -0.046615493 0.0055343495 -0.00897794 -0.010261666 -0.01753805 0.039765608 -0.019083628
-0.008832736 0.010614119 -0.039780397 0.013391684 0.02859246 -0.015861819 0.0030771592 -0.015186157
0.046725936 -0.023317663 -0.045692414 -0.030251341 0.04453283 -0.029841729 -0.014695326 -0.02008418
0.0026030573 -0.03284789 0.0345898 0.036768783 -0.017772071 -0.022839796 0.033266034 -0.039914306
0.0508218 -0.011467409 -0.00690146 0.031848956 0.017410258 -0.01693444 0.025005208 0.0039871954
0.0009170625 0.048839338 -0.034917846 -0.0073742173 -0.026029302 0.036113564 0.006679502 0.026668288
-0.031194903 0.00022998195 0.050358523 -0.027676485 -0.03578861 0.037052862 0.0046782605 0.04573068
-0.028285425 -0.026517792 0.013258574 -0.0024616495 -0.032953832 -0.019709017 -0.04659821 0.009252392
-0.012260438 -0.042357802 0.04019131 0.040989984 0.011297707 0.029096004 -0.017427929 -0.029107131
-0.03252457 0.0392208 0.035490677 -0.01072806 0.0037698545 0.041663885 -0.016730415 0.012736754
-0.011336282 -0.0034516517 0.032232396 0.014546588 0.010528574 -0.03899509 -0.044103585 0.038324732
0.0068424935 -0.0050465297 -0.0042370153 0.05070066 -0.033847906 -0.00025994255 0.04291431 -0.04481261
0.03559566 0.03567099 0.037071392 0.03788014 -0.043697458 0.02791235 0.031986482 -0.021105109
0.01968559 0.04457754 0.028495356 0.0022784972 0.039341107 0.038459048 0.03915404 0.04057101
0.045791417 0.016792137 0.039470676 -0.04493199 -0.00066680467 0.01383459 0.032347463 -0.026236763
-0.004297934 0.0071471613 -0.013833106 -0.039862707 0.03437488 0.034487195 0.01762708 0.044298757

conv1d.bias f4 [64]
00000000: d179 b9bc 228d fdbc db17 aa3b 9c7c 0a3d
00000010: d2cf 4d3d aa14 1f3c b5b2 0abd 4eea 3f3d
00000020: c57e 29bc 84a6 4f3d b505 43bc 9b7b 9b3b
00000030: b48d e4bc 7e14 38bd acc9 413d 79af 96bc
00000040: 4c0e 5a3c e497 033c e7d4 883c 9985 363c
00000050: 2f8a 96bb b669 78bc 708a 4b3d 374d 3f3d
00000060: 55e6 13bc e3d1 07bd a2b3 723c fc4a a73c
00000070: bb0d 963a 93b6 f3bc e3ea 8cbc 80d3 e23c
00000080: 5323 2dbd 127f 9ebc 0d39 23bd b3ff 3dbc
00000090: 212a 253c a9e5 363d 18d2 00ba b1d1 e63c
000000a0: 10c2 13bc 7867 493d f905 c63b 9f24 1bbd
000000b0: 9bf2 053d 7e58 1e3d 372f d4bc dd36 4abc
000000c0: b49f 0f3d e128 a9bb 4b13 5bbb 1493 3f3d
000000d0: 99d7 eebb 6e08 ef3c 362e 03bd 4bf0 abbc
000000e0: 9896 8c3c a365 d7bc 83ea db3c b661 943b
000000f0: 209a 1e3b a128 5b3b 279a cabc 5c8f 393d
-0.022641094 -0.030951086 0.005190832 0.033810243 0.05024702 0.009709517 -0.033861835 0.04685431
-0.010345166 0.05069591 -0.011903216 0.0047449595 -0.0278996 -0.044941418 0.04731147 -0.018394219
0.013309073 0.008031819 0.016703082 0.011140251 -0.0045941095 -0.015161922 0.04969257 0.046704497
-0.009027083 -0.033159148 0.014813336 0.020421498 0.0011448184 -0.029750144 -0.017201846 0.027688742
-0.042270016 -0.019347701 -0.03984933 -0.011596608 0.010080845 0.044652615 -0.0004914119 0.02817616
-0.009018436 0.04917094 0.0060431925 -0.03787672 0.03270207 0.03865861 -0.02590142 -0.012342182
0.035064414 -0.005162344 -0.0033428248 0.046771124 -0.007288885 0.029178824 -0.032026492 -0.020988604
0.017161652 -0.026293581 0.026845222 0.0045282496 0.0024200752 0.0033440965 -0.024731709 0.045302734

fc.0.weight f4 [64, 64]
00000000: 32bf 87bd 6436 9abd e836 d2bd 7e17 b73d
00000010: e5f4 f9bd 942b ac3d 232a f1bd 832f b63d
00000020: 6160 253d c3a0 82bd ff5d bf3d 3a15 9a3c
00000030: d04d c93c 6d53 e83d 58af 683d f061 d13d
00000040: 1adb 70bd 5b8c 903c ffe5 4fbd 7ddf ff3d
00000050: 4ea4 febd b94a 133d 5960 b33c 5348 68bd
00000060: 4b32 29bd fa95 993c 00d9 cfbd aafa 9d3d
00000070: f0ba 48bd e666 553c d816 613d bb7a b23d
00000080: 453d b23d 7482 ba3d 906e c93c 1c63 5ebd
00000090: 3971 f9bd fc82 0bbc 6761 903d c31f e33d
000000a0: 1418 db3d 9f6b dcbc 6038 2fbd a0e1 8f3c
000000b0: fb50 f3bc 1f25 ad3d 14b9 2dbd 036b 96bd
000000c0: a1ff 723c 28db 6e3d 2030 fe3d bfa4 b0bd
000000d0: 1dc8 ee3d 5c75 c6bd e4b9 083d 576d 983d
000000e0: 6cd4 68bc 4bad bdbd 322e 89bd 19d8 9ebd
000000f0: d0ef 83bd af07 32bc 7ac0 a23c 17d3 c9bd
00000100: 647b f03d e0fd d93d 1c78 e13d a09f 723c
00000110: 4060 8abc ecef 6abd a840 d23c 9044 6a3c
00000120: 08c5 6ebd 0664 bc3d 701f ddbc b0f7 58bc
00000130: 2067 3bbd 4caa b33d a4bd dd3d 322f 963d
00000140: 9895 ccbd 02d7 82bd f0b9 563c 10e4 dc3c
00000150: 62f1 ae3d 88fc d2bc 3af0 813d e0e9 6fbc
00000160: b0f4 c93c b00d 12bd 065a f5bd 548a 913d
00000170: 8867 ee3d b85f 5a3d beee a3bd b0e6 95bd
00000180: 260e c93d c8b5 a6bd 54f0 443d ac33 be3d
00000190: 4e95 91bd ca7c a5bd 10c3 953d 8034 b8bd
000001a0: 9a45 df3d 88c8 2ebd 8c1d fc3d a006 fa3d
000001b0: 3800 c9bc a0dd f23c 8015 89bb d0a3 123c
000001c0: a0bb 99bb fcc4 923d 3497 163d 204f c93c
000001d0: cce9 d83d a0fa 14bc 70fa 513c b093 a6bc
000001e0: 9a4f cabd dccc aa3d 601e 75bd 1e98 893d
000001f0: 4a5a cf3d 063d e4bd 3c5c e03d 7204 80bd
00000200: 7066 49bc 1228 afbd 0b26 1fbd cbee 5abd
00000210: 6682 04bd 1f27 ff3d 239a 22bd e326 b53d
00000220: 1cce a1bd 59d3 3abd 86f5 eebd 7131 ce3d
00000230: 5148 b73d edb9 97bd 9e4a adbd 0d5e 7ebc
00000240: 6d64 ea3d 2770 34bd 8e14 41bc f429 cabd
00000250: 99c3 db3d 28dd 8cbd c469 f1bd a0c6 9cbd
00000260: f3b2 67bd fc67 953d f8d5 853d 3957 203d
00000270: b583 ed3d fcc0 98bc c0f1 c43b 5a2c f1bd
00000280: 1382 98bd daed a63d 4043 38bd 60bf 3f3d
00000290: 19eb 51bb 3899 e83d 5516 9e3c f507 f13d
000002a0: 2552 013c c71c f8bc ae67 ad3d 107d 613d
000002b0: b3ae 88bc 02ff b7bd 9f4a 65bd f500 713d
000002c0: de21 dc3c 078f 3fbd 3391 20bd a07b f33d
000002d0: 62d1 a6bd cf0f 73bd a895 ca3d 5de9 40bd
000002e0: 52f0 2d3c bc82 ccbd e3f9 a1bd 133d 113c
000002f0: 43b5 f2bd 9788 64bd bbf4 2abd 3470 ef3d
00000300: d0ab 843d 80dd b63b 1498 83bd d241 f43d
00000310: c017 b53c 04fd c43d c68f f83d 2452 e83d
00000320: aedb 933d 22ae 963d 382e b93d b03d 44bd
00000330: ee75 8f3d c82d 2d3d 08fb 32bd c074 2cbc
00000340: cc3b 283d 84a5 f83d 8ca1 3c3d 70f8 11bd
00000350: 90dd 10bc 885d b73c 2417 373d c65d c23d
00000360: c0fb 483b e0ce a93d 80ea 7fbd ca7a efbd
00000370: 1ec3 db3d 7cbc aabd d09c 463c 409f 593b
00000380: 70d6 e6bd 0003 33bd 06e5 a4bd 5ce8 93bd
00000390: 1654 cebd 3064 e8bd 24fc af3d f89f 153d
000003a0: 5257 b2bd 4c52 233d 6837 f4bc e847 3a3d
000003b0: 18a8 edbc 201e 5a3d 0678 e33d 6e31 d03d
000003c0: 062e fc3d a013 ebbb d409 81bd cc78 a13d
000003d0: c435 babd 101a 853c 7adb 9fbd 2cf2 643d
000003e0: c0d2 263d 3022 023c a000 38bd 407d a5bb
000003f0: 7817 1fbd 045a 9bbd b4c6 1e3d 30d1 aa3d
-0.066282645 -0.075299054 -0.10264379 0.08940028 -0.12204913 0.08406749 -0.11775615 0.08895781
0.040375117 -0.06378319 0.093441 0.01880895 0.024573237 0.11344037 0.056807846 0.10223758
-0.0588027 0.017645052 -0.05075645 0.12493799 -0.124336824 0.035959933 0.021896528 -0.0567096
-0.04130773 0.018748272 -0.10148811 0.07713826 -0.049006402 0.013025021 0.054953426 0.08714815
0.087030925 0.09106913 0.024588853 -0.054293737 -0.12179799 -0.008515116 0.07049828 0.110900424
0.10697952 -0.026906786 -0.042778373 0.017563641 -0.0297017 0.08454346 -0.042412832 -0.073446296
0.0148314545 0.058314472 0.12411523 -0.08625173 0.11659262 -0.09690353 0.033380404 0.0744273
-0.014210802 -0.09261569 -0.06698264 -0.07756061 -0.06442225 -0.01086609 0.01986717 -0.09854715
0.11742285 0.10644126 0.11009237 0.014808565 -0.016891599 -0.057357714 0.025665596 0.014298573
-0.058293372 0.091987655 -0.02699253 -0.013242647 -0.045752645 0.08772716 0.10827187 0.073332205
-0.0998947 -0.06388666 0.013105854 0.026964217 0.08542134 -0.025755182 0.06344648 -0.0146431625
0.024652809 -0.035657585 -0.11980061 0.07106462 0.11640841 0.05331394 -0.08004521 -0.07319391
0.09817152 -0.08140141 0.048080757 0.092871994 -0.07108556 -0.08080442 0.07312596 -0.089943886
0.10901947 -0.04267171 0.12310323 0.12208295 -0.024536237 0.029646695 -0.004183471 0.008950189
-0.004691556 0.07166478 0.036765292 0.024573863 0.10591468 -0.009092957 0.012816057 -0.020334095
-0.09878464 0.08339855 -0.05984342 0.06718467 0.10124643 -0.11144452 0.10955092 -0.06250848
-0.012292489 -0.08552565 -0.03885464 -0.053450387 -0.03235092 0.12458634 -0.039697777 0.08845308
-0.0790064 -0.045611713 -0.11667924 0.10068024 0.0894934 -0.074085094 -0.08461498 -0.015525353
0.11444936 -0.04405227 -0.011784686 -0.09871283 0.10730667 -0.0687812 -0.11787751 -0.07655072
-0.056567144 0.07295224 0.06534952 0.039145682 0.11597387 -0.01864671 0.006010264 -0.117760375
-0.07446685 0.08150835 -0.04498601 0.04681337 -0.0032030998 0.11357349 0.019297758 0.11769096
0.00789312 -0.03028716 0.08467041 0.05505091 -0.016684866 -0.08984186 -0.055979367 0.058838803
0.026871618 -0.04676726 -0.039200973 0.11888814 -0.08145405 -0.059341248 0.09891826 -0.047097553
0.010616379 -0.09985873 -0.0790899 0.008864659 -0.11850979 -0.055794325 -0.0417373 0.11691323
0.06478083 0.005580604 -0.06425491 0.11926617 0.022106051 0.096185714 0.121367976 0.11343792
0.07219635 0.07357432 0.09042019 -0.047910392 0.07004915 0.04227999 -0.043696433 -0.010525882
0.04107265 0.121409446 0.0460525 -0.03563732 -0.008841887 0.022383466 0.044699803 0.09490542
0.0030667633 0.082914114 -0.062479496 -0.11693342 0.10730575 -0.08336732 0.012122348 0.0033206493
-0.112713695 -0.043704033 -0.08051495 -0.072220534 -0.10074632 -0.11347234 0.08593014 0.03652951
-0.08708061 0.039873406 -0.029811576 0.04547873 -0.029010817 0.053251386 0.11106877 0.10165678
0.12313466 -0.0071739703 -0.06300703 0.07884368 -0.09092286 0.01624778 -0.07805534 0.055895016
0.04072833 0.007942721 -0.04492247 -0.0050503314 -0.03884074 -0.075855285 0.038763717 0.083406806

fc.0.bias f4 [64]
00000000: 83db 9e3d ac96 e8bd 7c47 c73d 1c4e 93bd
00000010: 3fc4 153d e09c 8bbd 5ef7 b63d c47f e4bb
00000020: f67d f13d 40b1 953d 173b f6ba 5a54 abbd
00000030: 3a5b b2bd e244 533c f27e d4bd d6b8 b33d
00000040: 3983 283b aa82 c93d 60fb 74bd b8f6 22bd
00000050: 4231 983d 3107 d63c 08ce 31bd 905c 91bd
00000060: c917 523d cca4 babd 60bb cfbd f0a4 28bd
00000070: d1e3 6d3d c973 d13c c256 fd3d 4441 57bd
00000080: ec4d 8ebd 78d5 3ebd 9ef0 593c ba21 e83d
00000090: 8312 223c 0243 a4bd 78d4 ddbc 1083 e23d
000000a0: 8861 b0bc cf89 f23d 8844 41bd 0c47 863d
000000b0: 0cf7 8f3d 7207 bd3d fe64 b73d b4b7 a63d
000000c0: 026c e23d 309c d8bd bc0b 2ebd 3234 c4bd
000000d0: ca62 fe3d f0bf 03bc 8ed9 b43d e065 d43d
000000e0: 70ae dc3d 1890 cc3d 8e95 90bd 6487 16bd
000000f0: 1394 593d 3071 19bd 0065 1fba d42b e43d
0.07756712 -0.113568634 0.097304314 -0.071926326 0.036564108 -0.06817031 0.089339 -0.0069732387
0.11791603 0.073091984 -0.0018785921 -0.08365698 -0.08708806 0.012894841 -0.103757754 0.08775489
0.002571298 0.09839375 -0.059810042 -0.03978607 0.0743127 0.026126476 -0.043409377 -0.07097733
0.051292215 -0.09113464 -0.10143161 -0.04117292 0.05807859 0.025567906 0.12370063 -0.052552477
-0.06948456 -0.0465903 0.0133019965 0.11334558 0.009892109 -0.08020593 -0.027078852 0.110601544
-0.021530882 0.11842691 -0.047184497 0.0655652 0.07029542 0.09229936 0.089548096 0.08140507
0.11055757 -0.105766654 -0.04249166 -0.09580268 0.12421186 -0.008041367 0.08830558 0.103709936
0.10775459 0.09988421 -0.07059775 -0.036750212 0.05311973 -0.03746146 -0.0006080419 0.11141172

fc.2.weight f4 [1, 64]
00000000: 3abf da3b d0d2 4fbc f6bb d2bd f0ce fcbd
00000010: 6132 663d 1cfa 963d ed65 0dbd 6ead 24bd
00000020: 388b 74bd c000 debd f7aa 993c 48c3 9c3d
00000030: 94fa db3d 7dc1 423d 4836 853c b5bd d13d
00000040: ac9a ce3d ed92 d03d 2c0c 613d 26b8 913d
00000050: a99e bcbc 44d3 c5bd 7c77 b33d 32ab a0bd
00000060: 7c99 9dbd a88f c33c a89d ed3d 60f9 b03d
00000070: c222 c9bd aa3e 8cbd 2f94 dd3d f039 3abd
00000080: f261 db3d ca03 bebd d4da 413d aa80 833d
00000090: e1a1 ebbc 6872 90bc 8019 d13c 8122 efbc
000000a0: 4041 383c 4414 b9bb 8c84 713d 8cb3 debd
000000b0: 843e 1dbd 9f6b 3e3d 938d d9bd 0c50 d4bd
000000c0: a850 ccbd 08de 873c 103c 1ebd 009b 0ebc
000000d0: c1e3 86bc 6c66 4abd b4de d43d 80c0 a3bd
000000e0: 10ba a73d 6df9 7dbd d661 8f3d 9ca0 15bd
000000f0: 17f9 fe3c 24ea e03d f06c 713c 4fd0 ff3c
0.006675628 -0.012684539 -0.10289757 -0.12344158 0.05620039 0.07371923 -0.034521032 -0.040204458
-0.05970308 -0.10839987 0.01875828 0.076544344 0.10741153 0.047547806 0.016261235 0.10241262
0.10088095 0.10184274 0.05494325 0.07115202 -0.023024874 -0.09659436 0.08763024 -0.07845153
-0.076952904 0.023872212 0.11602336 0.086413145 -0.09821083 -0.0684789 0.108192794 -0.04546541
0.10712041 -0.092780665 0.04732783 0.06421025 -0.028763713 -0.017632678 0.025524855 -0.029191257
0.011246026 -0.005648168 0.058964297 -0.108740896 -0.038389698 0.046489354 -0.10622706 -0.1036683
-0.099763215 0.016585365 -0.0386315 -0.008703947 -0.016466023 -0.049414083 0.1039404 -0.07995701
0.081897855 -0.06200545 0.070010826 -0.036530122 0.031124635 0.10982159 0.014735445 0.031227259
