data_files/out_gen/generator_epoch5.pt (torch, 599725 bytes, 13 tensors)

conv1.bias f4 [128]
0	0x00000000	0.0
1	0x00000000	0.0
2	0x00000000	0.0
3	0x00000000	0.0
4	0x00000000	0.0
5	0x00000000	0.0
6	0x00000000	0.0
7	0x00000000	0.0
8	0x00000000	0.0
9	0x00000000	0.0
10	0x00000000	0.0
11	0x00000000	0.0
12	0x00000000	0.0
13	0x00000000	0.0
14	0x00000000	0.0
15	0x00000000	0.0
16	0x00000000	0.0
17	0x00000000	0.0
18	0x00000000	0.0
19	0x00000000	0.0
20	0x00000000	0.0
21	0x00000000	0.0
22	0x00000000	0.0
23	0x00000000	0.0
24	0x00000000	0.0
25	0x00000000	0.0
26	0x00000000	0.0
27	0x00000000	0.0
28	0x00000000	0.0
29	0x00000000	0.0
30	0x00000000	0.0
31	0x00000000	0.0
32	0x00000000	0.0
33	0x00000000	0.0
34	0x00000000	0.0
35	0x00000000	0.0
36	0x00000000	0.0
37	0x00000000	0.0
38	0x00000000	0.0
39	0x00000000	0.0
40	0x00000000	0.0
41	0x00000000	0.0
42	0x00000000	0.0
43	0x00000000	0.0
44	0x00000000	0.0
45	0x00000000	0.0
46	0x00000000	0.0
47	0x00000000	0.0
48	0x00000000	0.0
49	0x00000000	0.0
50	0x00000000	0.0
51	0x00000000	0.0
52	0x00000000	0.0
53	0x00000000	0.0
54	0x00000000	0.0
55	0x00000000	0.0
56	0x00000000	0.0
57	0x00000000	0.0
58	0x00000000	0.0
59	0x00000000	0.0
60	0x00000000	0.0
61	0x00000000	0.0
62	0x00000000	0.0
63	0x00000000	0.0
64	0x00000000	0.0
65	0x00000000	0.0
66	0x00000000	0.0
67	0x00000000	0.0
68	0x00000000	0.0
69	0x00000000	0.0
70	0x00000000	0.0
71	0x00000000	0.0
72	0x00000000	0.0
73	0x00000000	0.0
74	0x00000000	0.0
75	0x00000000	0.0
76	0x00000000	0.0
77	0x00000000	0.0
78	0x00000000	0.0
79	0x00000000	0.0
80	0x00000000	0.0
81	0x00000000	0.0
82	0x00000000	0.0
83	0x00000000	0.0
84	0x00000000	0.0
85	0x00000000	0.0
86	0x00000000	0.0
87	0x00000000	0.0
88	0x00000000	0.0
89	0x00000000	0.0
90	0x00000000	0.0
91	0x00000000	0.0
92	0x00000000	0.0
93	0x00000000	0.0
94	0x00000000	0.0
95	0x00000000	0.0
96	0x00000000	0.0
97	0x00000000	0.0
98	0x00000000	0.0
99	0x00000000	0.0
100	0x00000000	0.0
101	0x00000000	0.0
102	0x00000000	0.0
103	0x00000000	0.0
104	0x00000000	0.0
105	0x00000000	0.0
106	0x00000000	0.0
107	0x00000000	0.0
108	0x00000000	0.0
109	0x00000000	0.0
110	0x00000000	0.0
111	0x00000000	0.0
112	0x00000000	0.0
113	0x00000000	0.0
114	0x00000000	0.0
115	0x00000000	0.0
116	0x00000000	0.0
117	0x00000000	0.0
118	0x00000000	0.0
119	0x00000000	0.0
120	0x00000000	0.0
121	0x00000000	0.0
122	0x00000000	0.0
123	0x00000000	0.0
124	0x00000000	0.0
125	0x00000000	0.0
126	0x00000000	0.0
127	0x00000000	0.0

conv1.lin.weight f4 [128, 2]
0	0x3dc9ced8	0.098539054
1	0xbe07af9e	-0.13250586
2	0x3e1c5261	0.152658
3	0xbdda6d1a	-0.10665341
4	0xbc8c7795	-0.017146865
5	0x3dab52fe	0.08365439
6	0x3e50fc0d	0.2040865
7	0x3e25ce00	0.16191864
8	0x3e0abc55	0.13548405
9	0xbe10fbce	-0.14158556
10	0x3db117fb	0.08647152
11	0xbe12ee38	-0.14348686
12	0xbd507b68	-0.05089894
13	0xbd47210d	-0.048615504
14	0x3e29a60d	0.1656725
15	0x3d2d552c	0.042317554
16	0x3e2d4439	0.16920556
17	0x3e2ffe49	0.17186846
18	0x3dbd555e	0.09244798
19	0xbe22e216	-0.15906557
20	0xbcdc0f21	-0.026862683
21	0xbd9a203b	-0.07525679
22	0x3c4e5e0d	0.012595666
23	0xbdaa5776	-0.08317463
24	0xbdfdd448	-0.12394005
25	0xbd32b794	-0.043632105
26	0x3d9c8b4a	0.07643755
27	0xbe39028e	-0.18067381
28	0x3d36f31f	0.044665452
29	0x3e12268b	0.14272515
30	0x3e26ee30	0.16301799
31	0xbdbd4f0f	-0.09243595
32	0xbe5699d0	-0.20957112
33	0xbc009603	-0.007848266
34	0x3dff8f01	0.12478448
35	0x3e4ed882	0.20199779
36	0xbdb86647	-0.09003883
37	0x3dff0582	0.124522224
38	0x3c062264	0.00818691
39	0xbda0593e	-0.078295216
40	0x3d1396c7	0.036032464
41	0xbc7a785b	-0.015287484
42	0xbc6099de	-0.01370856
43	0x3e29cabf	0.16581248
44	0xbdeedcd1	-0.11663211
45	0x3dc0a234	0.09405938
46	0x3dc4a71d	0.09602187
47	0x3de28875	0.11061183
48	0x3ddf8084	0.10913184
49	0xbda98958	-0.08278149
50	0xbe2b9064	-0.167543
51	0xbe123982	-0.1427975
52	0xbd7641ac	-0.060121223
53	0xbe0b4707	-0.13601314
54	0xbe579697	-0.21053539
55	0xbe33d6d8	-0.17562425
56	0xbe467a98	-0.19382703
57	0x3e3d128c	0.18464106
58	0x3ce6e2c3	0.0281843
59	0xbdaf8690	-0.08570588
60	0xbd5db4b7	-0.05412742
61	0x3d890c2c	0.06691775
62	0x3d1e83b5	0.038699824
63	0x3d9b284d	0.07576046
64	0xbe2c721f	-0.16840409
65	0xbdf4786c	-0.11937031
66	0x3e41cadb	0.1892504
67	0xbe54c1ca	-0.2077705
68	0xbe1a2fa3	-0.15057234
69	0xbe3f133b	-0.1865968
70	0x3c45cf10	0.012073293
71	0x3d4f8b5b	0.05067001
72	0x3d08d0de	0.033402316
73	0xbd91d241	-0.07120181
74	0xbadc7a2c	-0.0016821078
75	0x3e31ca91	0.17362429
76	0x3d9aca1c	0.075580806
77	0x3dee06e9	0.11622412
78	0xbd3c3878	-0.04595229
79	0xbe1dd67f	-0.15413855
80	0x3db859f0	0.09001529
81	0xbe59bb5f	-0.21262883
82	0xbd10bbd4	-0.035335377
83	0xbd880ee6	-0.06643467
84	0x3d06dfbd	0.032928217
85	0xbe3d8758	-0.18508661
86	0xbd5aae74	-0.053389028
87	0xbe1accf3	-0.15117244
88	0xbe15b40a	-0.1461946
89	0xbd0f3a1f	-0.034967538
90	0x3dfff41c	0.12497732
91	0xbdd3629d	-0.10321543
92	0xbe5597a1	-0.20858623
93	0x3e057d8d	0.13036175
94	0xbd32b446	-0.043628953
95	0xbd8050cb	-0.0626541
96	0xbe236709	-0.15957274
97	0x3e58268d	0.21108456
98	0xbda05110	-0.078279614
99	0xbded390b	-0.11583146
100	0x3d198dd9	0.037488792
101	0x3e3b743c	0.18306059
102	0x3c7e2cd9	0.015513622
103	0xbe2a4a98	-0.16630018
104	0x3d8a3e1d	0.067501284
105	0xbd878f12	-0.06619085
106	0x3d226928	0.039651066
107	0xbe26a71b	-0.16274683
108	0x3e046e4a	0.12932697
109	0xbdad16e6	-0.08451633
110	0xbdf3db23	-0.119070314
111	0x3c5d2452	0.013497429
112	0xbd903418	-0.07041186
113	0x3e4b5324	0.19855934
114	0xbd925139	-0.07144398
115	0x3e39da54	0.18149692
116	0xbdd77be8	-0.1052168
117	0x3c0c6621	0.008569271
118	0x3e3075fd	0.17232509
119	0x3e5bc627	0.21462308
120	0xbce81d71	-0.028334351
121	0x3d048b55	0.03235944
122	0xbe26546d	-0.16243143
123	0xbd8e6a41	-0.0695386
124	0x3e338f2a	0.17535082
125	0x3d421569	0.0473837
126	0x3dc98497	0.09839743
127	0x3df12b1e	0.11775802
128	0x3e056016	0.13024935
129	0xbd9978a5	-0.07493714
130	0xbd331b20	-0.04372704
131	0xbe5a8254	-0.21338779
132	0xbde68851	-0.11256469
133	0x3d04cb23	0.03242029
134	0x3dfd2dae	0.12362228
135	0x3de3fe6e	0.11132513
136	0x3ceec204	0.029145248
137	0xbe0c3b10	-0.13694406
138	0xbe566dbf	-0.20940302
139	0xbe020126	-0.1269575
140	0xbdb2426d	-0.08704076
141	0xbd821785	-0.06352142
142	0x3e03b422	0.12861684
143	0x3e32b0aa	0.17450204
144	0x3e355022	0.1770635
145	0x3d46a57e	0.04849767
146	0xbe32495b	-0.17410795
147	0xbe2e756c	-0.1703698
148	0xbe1bc66b	-0.15212409
149	0xbe34dd3d	-0.1766252
150	0xbdc70099	-0.09716911
151	0x3d9285d4	0.07154432
152	0x3e0120bf	0.12610148
153	0xbcdc6426	-0.026903223
154	0x3dd24f1a	0.10268994
155	0x3d6e5519	0.058186624
156	0xbca250bf	-0.019813893
157	0xbe1a07cd	-0.15042038
158	0xbe2003fc	-0.1562652
159	0x3d953b5e	0.07286714
160	0xbca9f394	-0.02074603
161	0xbc354a5e	-0.011065094
162	0xbe45cb28	-0.19315779
163	0x3cce1bc6	0.025159728
164	0x3c7f14a8	0.01556889
165	0xbe57e86c	-0.21084756
166	0xbde47e18	-0.11156863
167	0x3cb6c322	0.022309843
168	0xbcf9c47c	-0.030489199
169	0xbe2dc2c7	-0.16968833
170	0x3db5deea	0.08880408
171	0x3e12cd90	0.14336228
172	0x3e155ab9	0.14585389
173	0xbe5a8dd3	-0.21343164
174	0x3d3dbe88	0.046324283
175	0x3b44382a	0.0029940703
176	0xbba62e61	-0.0050714468
177	0xbe1df2bd	-0.15424629
178	0xbde1c56a	-0.11023982
179	0x3e2486d6	0.16067061
180	0xbc8c17fc	-0.01710128
181	0xbdcbce18	-0.09951419
182	0x3e58ba4e	0.2116482
183	0x3dbe3f8d	0.09289465
184	0x3d100c48	0.035167962
185	0xbdd62a0d	-0.10457239
186	0x3d9a7cff	0.07543372
187	0xbde6cc57	-0.112694435
188	0xbe177396	-0.14790186
189	0x3d213fb1	0.03936738
190	0x3db99e8a	0.09063442
191	0xbe528495	-0.20558389
192	0x3dd3ff4f	0.103514306
193	0xbe04e64b	-0.12978475
194	0xbda83f2f	-0.08215176
195	0xbe0df0de	-0.13861415
196	0xbda22359	-0.07916898
197	0x3cd40a03	0.02588368
198	0xbd9a8f7d	-0.075468995
199	0x3e436fb8	0.19085586
200	0xbda00e10	-0.07815182
201	0x3e4e9ef9	0.20177831
202	0xbe121e1e	-0.14269301
203	0xbdf7fe45	-0.12109045
204	0x3e3b12d8	0.18268907
205	0x3da66b68	0.08125955
206	0x3b9e7d6c	0.004836729
207	0x3d878a2b	0.0661815
208	0xbe5805a4	-0.21095902
209	0x3d6dcd52	0.058057137
210	0xbe437071	-0.19085862
211	0x3e1444e8	0.1447941
212	0x3e47355f	0.19453953
213	0xbdabc69d	-0.08387492
214	0xbdcc4a26	-0.0997508
215	0x3e2f49e3	0.1711803
216	0xbbc6ee4c	-0.0060708877
217	0xbd2ee886	-0.04270222
218	0x3da0a4c5	0.07843927
219	0x3deea02b	0.11651643
220	0x3e357c4f	0.17723201
221	0xbba1a1fa	-0.004932639
222	0xbe3f1269	-0.18659367
223	0x3e4eb51b	0.20186274
224	0x3e358697	0.17727123
225	0xbe29f378	-0.16596782
226	0x3e57e4a0	0.21083307
227	0xbdf47249	-0.11935861
228	0x3df0c013	0.11755385
229	0xbde8c8de	-0.113664374
230	0x3e53a574	0.20668584
231	0x3d7fed3c	0.062482104
232	0x3e260c39	0.162156
233	0x3ce636ae	0.028102245
234	0xbe11d710	-0.14242196
235	0xbe22e81e	-0.15908858
236	0x3d41280c	0.047157332
237	0x3dd118e5	0.102098264
238	0x3e41cbce	0.18925402
239	0x3e16d875	0.1473101
240	0xbe2c8ffb	-0.16851799
241	0xbe3bb77c	-0.18331712
242	0xbd84472d	-0.06458888
243	0xbd516759	-0.05112395
244	0xbe55463d	-0.20827575
245	0xbe4b32cf	-0.198436
246	0x3e036e4f	0.12835048
247	0x3d07765d	0.033071864
248	0xbb0aeeb5	-0.002119941
249	0x3dac2fca	0.084075525
250	0x3b0983a3	0.0020983003
251	0xbd8ffa69	-0.07030184
252	0x3e213f48	0.15746796
253	0x3e04ba52	0.129617
254	0xbdebaa4c	-0.11507091
255	0x3d38b67d	0.04509591

conv2.bias f4 [128]
0	0x00000000	0.0
1	0x00000000	0.0
2	0x00000000	0.0
3	0x00000000	0.0
4	0x00000000	0.0
5	0x00000000	0.0
6	0x00000000	0.0
7	0x00000000	0.0
8	0x00000000	0.0
9	0x00000000	0.0
10	0x00000000	0.0
11	0x00000000	0.0
12	0x00000000	0.0
13	0x00000000	0.0
14	0x00000000	0.0
15	0x00000000	0.0
16	0x00000000	0.0
17	0x00000000	0.0
18	0x00000000	0.0
19	0x00000000	0.0
20	0x00000000	0.0
21	0x00000000	0.0
22	0x00000000	0.0
23	0x00000000	0.0
24	0x00000000	0.0
25	0x00000000	0.0
26	0x00000000	0.0
27	0x00000000	0.0
28	0x00000000	0.0
29	0x00000000	0.0
30	0x00000000	0.0
31	0x00000000	0.0
32	0x00000000	0.0
33	0x00000000	0.0
34	0x00000000	0.0
35	0x00000000	0.0
36	0x00000000	0.0
37	0x00000000	0.0
38	0x00000000	0.0
39	0x00000000	0.0
40	0x00000000	0.0
41	0x00000000	0.0
42	0x00000000	0.0
43	0x00000000	0.0
44	0x00000000	0.0
45	0x00000000	0.0
46	0x00000000	0.0
47	0x00000000	0.0
48	0x00000000	0.0
49	0x00000000	0.0
50	0x00000000	0.0
51	0x00000000	0.0
52	0x00000000	0.0
53	0x00000000	0.0
54	0x00000000	0.0
55	0x00000000	0.0
56	0x00000000	0.0
57	0x00000000	0.0
58	0x00000000	0.0
59	0x00000000	0.0
60	0x00000000	0.0
61	0x00000000	0.0
62	0x00000000	0.0
63	0x00000000	0.0
64	0x00000000	0.0
65	0x00000000	0.0
66	0x00000000	0.0
67	0x00000000	0.0
68	0x00000000	0.0
69	0x00000000	0.0
70	0x00000000	0.0
71	0x00000000	0.0
72	0x00000000	0.0
73	0x00000000	0.0
74	0x00000000	0.0
75	0x00000000	0.0
76	0x00000000	0.0
77	0x00000000	0.0
78	0x00000000	0.0
79	0x00000000	0.0
80	0x00000000	0.0
81	0x00000000	0.0
82	0x00000000	0.0
83	0x00000000	0.0
84	0x00000000	0.0
85	0x00000000	0.0
86	0x00000000	0.0
87	0x00000000	0.0
88	0x00000000	0.0
89	0x00000000	0.0
90	0x00000000	0.0
91	0x00000000	0.0
92	0x00000000	0.0
93	0x00000000	0.0
94	0x00000000	0.0
95	0x00000000	0.0
96	0x00000000	0.0
97	0x00000000	0.0
98	0x00000000	0.0
99	0x00000000	0.0
100	0x00000000	0.0
101	0x00000000	0.0
102	0x00000000	0.0
103	0x00000000	0.0
104	0x00000000	0.0
105	0x00000000	0.0
106	0x00000000	0.0
107	0x00000000	0.0
108	0x00000000	0.0
109	0x00000000	0.0
110	0x00000000	0.0
111	0x00000000	0.0
112	0x00000000	0.0
113	0x00000000	0.0
114	0x00000000	0.0
115	0x00000000	0.0
116	0x00000000	0.0
117	0x00000000	0.0
118	0x00000000	0.0
119	0x00000000	0.0
120	0x00000000	0.0
121	0x00000000	0.0
122	0x00000000	0.0
123	0x00000000	0.0
124	0x00000000	0.0
125	0x00000000	0.0
126	0x00000000	0.0
127	0x00000000	0.0

conv2.lin.weight f4 [128, 128]
0	0x3e0e36ad	0.13888045
1	0xbe118574	-0.14211065
2	0x3cd0b5c4	0.025477298
3	0xbcaae1a1	-0.020859541
4	0x3d7dd13c	0.06196712
5	0x3d3fd5b5	0.046834666
6	0xbe055c9f	-0.13023613
7	0xbce95331	-0.028482052
8	0xbd218983	-0.039437782
9	0xbdc28db0	-0.09499681
10	0xbdbd4831	-0.09242285
11	0xbdc65330	-0.096838355
12	0x3db7125b	0.08939048
13	0x3da7203a	0.081604436
14	0x3d4fa14c	0.050690934
15	0xbd8a7d4e	-0.06762181
16	0x3cdcd36e	0.026956286
17	0x3d352484	0.044224277
18	0x3dd89825	0.10575894
19	0x3c309ffa	0.010780329
20	0xbcc11833	-0.02357111
21	0xbe0abeca	-0.13549343
22	0xbd871e4a	-0.06597574
23	0xbdc31fe2	-0.095275655
24	0x3e058bdb	0.13041632
25	0xbca26483	-0.019823318
26	0xbe176f89	-0.14788641
27	0xbc541356	-0.012944063
28	0xbd8ac89b	-0.06776544
29	0x3a08494f	0.0005198912
30	0x3dbf8283	0.09351065
31	0xbd85188c	-0.064988226
32	0x3db007d2	0.085952416
33	0xbdd02d97	-0.101649456
34	0x3d88daf0	0.06682384
35	0x3c172ea1	0.009227426
36	0x3d6fdc59	0.05855975
37	0xbe105eeb	-0.14098708
38	0x3c4f9a1f	0.012671023
39	0x3cd639ef	0.026150672
40	0xbd7dee4d	-0.06199484
41	0x3d94e53f	0.07270288
42	0x3df5fb55	0.120108284
43	0x3e0bf5a9	0.1366793
44	0x3e1be49d	0.15223928
45	0xbe19455b	-0.14967863
46	0xbe0a37eb	-0.13497894
47	0xbd56a97b	-0.052407723
48	0xbd888882	-0.06666662
49	0x3e0949e8	0.13407099
50	0xbde24048	-0.11047417
51	0xbd76b2c6	-0.060229085
52	0x3d87b1df	0.06625723
53	0xbe034e3c	-0.12822813
54	0xbd14c40e	-0.036319785
55	0x3dc5fbb2	0.09667148
56	0xbd81834d	-0.06323872
57	0x3d2dc2a4	0.042421952
58	0xbb96f770	-0.0046071336
59	0x3de6933b	0.11258551
60	0xbe0bc60c	-0.13649768
61	0x3df6d7f0	0.120529056
62	0xbdf711db	-0.120639525
63	0xbdc1e1d0	-0.094668984
64	0x3db18be9	0.08669264
65	0xbe0bb1d4	-0.13642055
66	0x3d158817	0.03650674
67	0x3d7ed33c	0.062213168
68	0xbd90b388	-0.07065493
69	0xbdd2b99d	-0.10289309
70	0x3db8afeb	0.09017929
71	0x3d265207	0.04060557
72	0xbdd85613	-0.10563292
73	0x3e0c8265	0.13721617
74	0xbd9d277c	-0.07673547
75	0x3d67b7bc	0.056571707
76	0xbd81595c	-0.06315872
77	0x3d9920dc	0.074769706
78	0xbdb2e193	-0.08734431
79	0xbde64009	-0.112426825
80	0x3cd31db2	0.025770996
81	0x3dbe4ec4	0.09292367
82	0xbd3f2612	-0.046667166
83	0x3e121d95	0.14269097
84	0x3c82aa45	0.015950331
85	0x3c47939d	0.01218119
86	0x3da44741	0.08021403
87	0x3d9052b0	0.070470214
88	0x3e07020b	0.13184373
89	0x3daee48f	0.08539688
90	0x3e084f75	0.1331156
91	0xbd8d477e	-0.06898402
92	0xbda00984	-0.07814315
93	0x3dbe9306	0.09305386
94	0x3e0b2ec8	0.13592064
95	0x3dc745d0	0.097301126
96	0x3ca2c75f	0.019870458
97	0xbdf7bcbf	-0.12096547
98	0x3c09ce3e	0.008410988
99	0x3bda69bd	0.006665437
100	0xbe158cb5	-0.14604457
101	0xbd63d4b5	-0.055622775
102	0x3d935344	0.07193616
103	0x3a7e176d	0.0009692822
104	0xbc92d8ef	-0.017925708
105	0x3d79e22b	0.061006706
106	0x3d2ccbbd	0.042186487
107	0xbd213038	-0.039352626
108	0xbc6fa999	-0.014627838
109	0x3df4d806	0.11955266
110	0xbca61e21	-0.020278038
111	0x3cb06e25	0.021536896
112	0xbd383980	-0.04497671
113	0x3cd5b4dc	0.026087217
114	0x3daa25a2	0.08307959
115	0xbd052ae9	-0.032511625
116	0x3df2bdf1	0.11852635
117	0x3d9442c7	0.07239299
118	0x3d1a2df8	0.037641495
119	0x3d5e9a0f	0.05434614
120	0x3d8c473e	0.06849526
121	0xbc461a9f	-0.012091308
122	0xbc263800	-0.010145187
123	0x3d2a4423	0.041568886
124	0xbde14be8	-0.11000806
125	0x3d3f5be7	0.046718504
126	0x3e137d5c	0.1440329
127	0x3cd317eb	0.02576824
128	0xbd656ded	-0.056013037
129	0x3c1c7aa7	0.009550727
130	0x3cf91e1d	0.030409867
131	0xbdec2b4e	-0.11531697
132	0xbdcc08ff	-0.09962653
133	0x3e1cb0d8	0.15301836
134	0xbe132651	-0.14370085
135	0xbdc3e5f5	-0.09565345
136	0x3dd65e95	0.10467259
137	0xbd70862f	-0.058721717
138	0x3dd2c645	0.10291723
139	0x3d824147	0.06360107
140	0xbdb1ac94	-0.08675495
141	0xbd527659	-0.051382396
142	0x3df512e3	0.11966493
143	0xbb3797e4	-0.0028014118
144	0x3e1c4d56	0.15263876
145	0xbd083c11	-0.03326041
146	0x3d680516	0.056645475
147	0xbbd45c49	-0.006480728
148	0xbde18444	-0.11011556
149	0xbe019968	-0.12656176
150	0xbd569ec4	-0.052397504
151	0x3d1debfd	0.038555134
152	0xbdf1ee5d	-0.11813042
153	0xbc4f2205	-0.012642388
154	0x3dd8ade2	0.105800405
155	0x3e0b3f9f	0.13598488
156	0xbd0421d9	-0.032258842
157	0x3e01ecc0	0.12687969
158	0xbd3a805d	-0.045532573
159	0x3cdecc90	0.027197152
160	0x3ce59b6a	0.028028209
161	0xbd9a9677	-0.0754823
162	0xbe05ed67	-0.13078843
163	0x3d972cc1	0.07381583
164	0x3d04fb02	0.032465942
165	0xbcb00223	-0.021485394
166	0xbdc46862	-0.09590222
167	0xbe14ece5	-0.14543493
168	0x3c1eb329	0.00968627
169	0xbd2b133c	-0.04176639
170	0xbdc0179b	-0.093795024
171	0x3c43a3b9	0.01194089
172	0xbdc62148	-0.09674317
173	0x3c2c75e9	0.010526159
174	0x3db248ea	0.087053135
175	0x3cf1f759	0.02953689
176	0xbdd4303e	-0.10360764
177	0xbddb97c8	-0.10722309
178	0x3de57d04	0.112054855
179	0x3df5b627	0.119976334
180	0xbe075c50	-0.13218808
181	0xbdbbba26	-0.09166364
182	0xbdd4c920	-0.10389924
183	0xbe118c1f	-0.14213608
184	0xbcd0e040	-0.025497556
185	0xbded630a	-0.11591156
186	0xbdabc2d7	-0.08386772
187	0x3d780a7d	0.060556877
188	0xbdf66207	-0.12030416
189	0xbded18d4	-0.11577001
190	0x3cf676a6	0.030085873
191	0x3e0d65fd	0.13808437
192	0xbd9c4576	-0.07630436
193	0xbde1ab75	-0.11019031
194	0xbe033a9b	-0.12815325
195	0xbd83f69c	-0.064435214
196	0x3df35150	0.118807435
197	0xbdd85e70	-0.105648875
198	0x3d9ffa49	0.0781141
199	0x3e019f5c	0.12658447
200	0x3d96c71c	0.07362196
201	0xbd677b5c	-0.05651413
202	0x3cdd0cb0	0.026983589
203	0xbdfec581	-0.12440015
204	0xbe0e2f2d	-0.13885184
205	0x3ddc5222	0.10757853
206	0xbcff1e40	-0.031142354
207	0x3d007719	0.03136358
208	0xbe12dba4	-0.14341599
209	0x39c36ed4	0.00037275872
210	0xbc889633	-0.016673183
211	0x3dc73001	0.09725953
212	0xbd800f66	-0.06252937
213	0xbde6d271	-0.11270607
214	0xbcdad6b4	-0.026713707
215	0xbd9c2d10	-0.076257825
216	0x3d944f10	0.072416425
217	0x3e0a532e	0.13508293
218	0xbd854e0b	-0.06509026
219	0xbd0a552d	-0.033772636
220	0x3e082fd0	0.13299489
221	0x3cce0068	0.025146678
222	0xbdc366b2	-0.09541072
223	0xbddf67c0	-0.109084606
224	0x3d3f2063	0.046661746
225	0xbc456a90	-0.012049332
226	0x3d4fa1f3	0.050691556
227	0x3d9af545	0.07566313
228	0x3dfab62a	0.12241776
229	0xbd2db52b	-0.042409103
230	0xbde34ed1	-0.110990174
231	0x3d9afd51	0.075678475
232	0xbe089cef	-0.13341115
233	0xbcd18bde	-0.02557939
234	0xbc11a0da	-0.008888448
235	0xbdf60588	-0.12012774
236	0x3c1919fb	0.009344573
237	0xbdd3d2f8	-0.103429735
238	0x3d94d7d5	0.07267729
239	0x3c82aaf6	0.015950661
240	0xbd6fb374	-0.05852075
241	0xbda615e4	-0.08109644
242	0xbdb5d98f	-0.08879387
243	0x3de0c602	0.10975267
244	0xbe0f1af9	-0.13975133
245	0xbdde0c07	-0.10842138
246	0x3def063d	0.11671112
247	0xbd563696	-0.05229815
248	0xbd4196b6	-0.04726287
249	0xbe02c14b	-0.12769048
250	0x3e0da02e	0.13830635
251	0xbd665993	-0.05623777
252	0x3d467f91	0.0484615
253	0xbb54742b	-0.0032417874
254	0xbdab67db	-0.08369418
255	0xbcbf0199	-0.023316192

node_mlp.0.weight f4 [128, 256]
0	0xbd2c39b6	-0.042047225
1	0xbbf59690	-0.007494755
2	0x3cf2b3b4	0.029626705
3	0x3a786e80	0.0009476915
4	0x3cdacaf8	0.026708111
5	0xbcfd80cc	-0.030945204
6	0xbc06cd68	-0.008227684
7	0xbcade004	-0.021224983
8	0xbc91a124	-0.017777033
9	0x3cd6b004	0.026206978
10	0x3bf27e70	0.0074003264
11	0x3bb8d270	0.0056403205
12	0xbd69694c	-0.056985185
13	0x3d7606d6	0.060065113
14	0xbcfa81c0	-0.030579448
15	0x3d5f31c2	0.054490812
16	0x3b8bda60	0.0042679757
17	0x3b59c660	0.0033229813
18	0x3d428c5e	0.047497146
19	0xbc177408	-0.009243973
20	0xbd5abdce	-0.053403668
21	0x3d09ea80	0.033670902
22	0x3bacd120	0.005273953
23	0xbc346f30	-0.011012837
24	0xbd1646fc	-0.03668879
25	0xbd364cda	-0.044506885
26	0xbd4ce91c	-0.050026998
27	0x3c95d460	0.018289745
28	0xbcd50a94	-0.02600602
29	0x3d27b656	0.040945373
30	0x3c97cdc4	0.018530734
31	0xbc409f48	-0.011756726
32	0xbd016f26	-0.03160014
33	0x3d3281aa	0.04358069
34	0x3d233db4	0.039853767
35	0xba341400	-0.00068694353
36	0xbb794960	-0.003803812
37	0x3d43db6c	0.04781668
38	0xbd463c88	-0.04839757
39	0xbd413a02	-0.04717446
40	0x3d74d9ea	0.05977813
41	0x3d6a2872	0.057167478
42	0xbca96ba8	-0.020681217
43	0x3b488360	0.0030595884
44	0x3cb32428	0.021867827
45	0xbb98f1c0	-0.0046674907
46	0xbcf9c2b0	-0.030488342
47	0xbd0a3014	-0.033737257
48	0xbd749ad8	-0.059717983
49	0xbcbd4478	-0.023103938
50	0xbd578202	-0.05261422
51	0x3d09216e	0.033479147
52	0xbd647d28	-0.05578342
53	0xbd022910	-0.03177744
54	0xbd59df56	-0.053191505
55	0xbd612a8a	-0.05497221
56	0xbd49fa56	-0.049311005
57	0x3d7a6f70	0.06114143
58	0x3d04ceae	0.032423668
59	0xbd039a9e	-0.032129876
60	0xbca76730	-0.020434946
61	0xbd641e62	-0.055693038
62	0x3d7cf276	0.061754666
63	0xbd4be3fc	-0.04977797
64	0x3c010198	0.007873915
65	0xbcc43bf0	-0.023954362
66	0x3c85511c	0.016274028
67	0xbd756364	-0.05990924
68	0x3c951fc4	0.018203624
69	0xbd03e690	-0.032202303
70	0x3d163f64	0.036681548
71	0xbc80feec	-0.015746556
72	0xbd52d228	-0.051469952
73	0x3ca20148	0.019776002
74	0x3d460ab4	0.04835005
75	0xbc5fc928	-0.013658799
76	0x3d1f0bfc	0.03882979
77	0xbd5b81c0	-0.053590536
78	0xbd0e4d40	-0.03474164
79	0x3d4e7142	0.05040098
80	0x3c567f50	0.013091877
81	0x3d74a9a0	0.05973208
82	0xbc38ce78	-0.011279695
83	0xbcf77374	-0.03020642
84	0xbcaab044	-0.020836003
85	0x3c73d490	0.014882222
86	0xbd4a36b8	-0.04936859
87	0xbcc2172c	-0.02369269
88	0xbba180f0	-0.0049287006
89	0xbc4aa698	-0.012368821
90	0xbd61b2da	-0.055102207
91	0x3d0aa568	0.03384915
92	0x3c931d80	0.017958403
93	0x3be2e180	0.0069238544
94	0xbb2c02a0	-0.0026246682
95	0x3c555d78	0.013022773
96	0x3d23f588	0.04002908
97	0x3d6ea69c	0.05826436
98	0xbc96f6d8	-0.018428251
99	0x3c563fd0	0.0130767375
100	0x3c1adb38	0.00945168
101	0xbcfead4c	-0.031088494
102	0xbc147828	-0.009061851
103	0x3c693638	0.014234118
104	0x3d4ddf98	0.050262064
105	0xbd31c26e	-0.043398313
106	0x3bc0d560	0.0058848113
107	0x3cf3d4c0	0.029764533
108	0xbbfe2400	-0.0077557564
109	0xbcbd4a8c	-0.023106836
110	0x3d52b438	0.0514414
111	0xbcf78590	-0.030215055
112	0xbc8f83cc	-0.0175189
113	0x3d13ac84	0.036053196
114	0xbc53a158	-0.012916885
115	0x3d25e2d0	0.04049951
116	0xbc952eec	-0.01821085
117	0xbcbc70c8	-0.023002997
118	0xbd00f474	-0.03148313
119	0xbd4ed4ca	-0.0504959
120	0x3ca08594	0.019594945
121	0x3c5ccf60	0.013477176
122	0x3d392bfc	0.045207962
123	0xbcfceaac	-0.030873619
124	0x3d7f6c22	0.062358983
125	0xbd5b3526	-0.053517483
126	0x3cffd328	0.031228617
127	0x3d11be5e	0.03558194
128	0xbcdf7ddc	-0.027281694
129	0x3d339e92	0.043852396
130	0x3d007210	0.03135878
131	0x3c032200	0.008003712
132	0xbc1888b0	-0.009309933
133	0x3d077bc6	0.033077024
134	0xbd16de7e	-0.03683328
135	0xbd0f316e	-0.03495925
136	0x3cb8dc20	0.022565901
137	0x3d36ce74	0.044630483
138	0x3c890324	0.01672513
139	0x3cb1f2b4	0.021722175
140	0x3c849444	0.01618398
141	0x3ca1c32c	0.019746386
142	0xbd01dd1a	-0.031705
143	0x3d02ada2	0.03190387
144	0x3cacd0b4	0.021095611
145	0x3d43e72a	0.047827877
146	0x3be4c5f0	0.006981604
147	0x3ced6664	0.028979488
148	0xbd3f137a	-0.046649434
149	0x3d5516ec	0.052023813
150	0xbd125d10	-0.035733283
151	0x3d00ea34	0.031473354
152	0xbd1e6d70	-0.038678586
153	0xbd701f70	-0.05862373
154	0x3b7a59e0	0.0038200542
155	0xbbfcdbc0	-0.007716626
156	0xbcf63d0c	-0.030058406
157	0x3ca92cec	0.020651303
158	0xbcf956f8	-0.030436978
159	0x3d001d94	0.031278208
160	0xbd54dcfc	-0.05196856
161	0x3d78a0ac	0.060700104
162	0x3d19787c	0.03746842
163	0xbd0d652c	-0.034520313
164	0xbcb7a7cc	-0.022418879
165	0xbc621108	-0.013798006
166	0x3d176b16	0.03696736
167	0xbc748c88	-0.014926083
168	0xbd7f70ec	-0.06236355
169	0xbd381e76	-0.044950925
170	0xbd759e9c	-0.059965715
171	0x3b532380	0.0032217205
172	0x3d2f082c	0.042732403
173	0x3c456600	0.0120482445
174	0xbce31504	-0.027719982
175	0xbd669f08	-0.056304008
176	0xbc932f80	-0.017966986
177	0xbd73c520	-0.059514165
178	0xbcdc4448	-0.026888028
179	0xbd6a6254	-0.05722268
180	0xbd44b5c2	-0.0480249
181	0x3d0bef7a	0.03416393
182	0x3d216baa	0.039409317
183	0xbcdbb420	-0.026819289
184	0xbd7bb876	-0.061455213
185	0xbd525838	-0.051353663
186	0x3ca8cae4	0.020604558
187	0x3c50abf8	0.012736313
188	0x3d1571ea	0.03648559
189	0x3c83bfb0	0.016082615
190	0x3c0ad060	0.008472532
191	0x3b3ac7e0	0.0028500482
192	0x3c9f6ac0	0.019460082
193	0x3d376de0	0.04478252
194	0xbc1659e8	-0.009176709
195	0xbb1cb980	-0.0023914278
196	0xbcaea534	-0.02131901
197	0x3d0dd2a4	0.03462471
198	0x3d6682cc	0.05627708
199	0x3c91a480	0.017778635
200	0xbd0bd554	-0.034138992
201	0x3bdd3380	0.006750524
202	0xb9592400	-0.00020708144
203	0xbd292962	-0.04129923
204	0x3d448b6e	0.047984533
205	0xbcd0f134	-0.02550564
206	0x3cdedea0	0.027205765
207	0x3c8e7658	0.017390415
208	0x3a8f2f40	0.0010924116
209	0x3d37e43a	0.04489539
210	0x3a58d480	0.0008271411
211	0xbc62d110	-0.01384379
212	0xbd6675ce	-0.05626469
213	0xbd2f5842	-0.04280878
214	0x3cf89c44	0.03034795
215	0x3b65e1e0	0.003507726
216	0xbd0478ee	-0.03234189
217	0x3c8d6ccc	0.017263792
218	0x3cde0e3c	0.027106397
219	0x3d4cbd92	0.049985476
220	0x3d4ce822	0.050026067
221	0x3d6dc324	0.05804743
222	0x3c6b6f68	0.014369823
223	0xbd35642c	-0.044284984
224	0xbb9cc1b0	-0.0047838315
225	0x3c59a560	0.013284057
226	0xbd28e2de	-0.041231982
227	0x3c18c4e0	0.009324282
228	0x3d0d1cc2	0.034451254
229	0xbc8272e8	-0.015923932
230	0x3cda4db0	0.026648372
231	0xbd61d542	-0.05513502
232	0x3d6fd6c8	0.05855444
233	0xbce67bd4	-0.028135218
234	0xbd478e78	-0.048719853
235	0x3d681052	0.05665619
236	0x3bcfb3d0	0.006338574
237	0xbd2a74d6	-0.04161533
238	0xbcdfaa84	-0.027302988
239	0xbcc8be6c	-0.024504863
240	0x3b46e620	0.0030349568
241	0x3cd0c790	0.025485784
242	0x3d2b4582	0.041814335
243	0x3b215ac0	0.0024620742
244	0x3c432b20	0.011912137
245	0xbd4a799e	-0.04943239
246	0xbcb19c64	-0.021681018
247	0x3cdc71a8	0.026909664
248	0x3d357482	0.044300564
249	0x3bca5cb0	0.0061756
250	0x3d29fcb0	0.041500747
251	0x3c5d80d8	0.013519488
252	0x38f9c800	0.00011910498
253	0x3c3de2b0	0.011589691
254	0x3d5529a4	0.052041665
255	0xbd3054fa	-0.04304979

node_mlp.0.bias f4 [128]
0	0xbc7ec438	-0.015549712
1	0xbca03614	-0.019557036
2	0xbc9a2ec4	-0.018821128
3	0xbcff6dc0	-0.031180263
4	0x3b6fa040	0.0036564022
5	0xbd280ea2	-0.04102958
6	0xbd2c8c54	-0.042126015
7	0xbc7fd8c0	-0.015615642
8	0x3bdc6120	0.0067254454
9	0x3ccf57b0	0.025310367
10	0x3cb64e58	0.022254154
11	0xbd71bbc2	-0.05901695
12	0x3c87e590	0.016588956
13	0xbc8bef04	-0.017081745
14	0x3c0a3860	0.008436292
15	0x3c7a5588	0.015279181
16	0x3d1f4c72	0.038891263
17	0x3d7abe08	0.061216384
18	0xbcb13f54	-0.021636643
19	0x3d4f5de8	0.050626665
20	0xbc081ce0	-0.008307666
21	0xba3c3f00	-0.00071810186
22	0xbbe1aa50	-0.006886758
23	0x3ceda324	0.029008456
24	0xbc2e3d30	-0.010634705
25	0x3cd55444	0.026041158
26	0x3cc2f384	0.023797758
27	0x3b8669f0	0.004101984
28	0x3d03a506	0.0321398
29	0x3d366aec	0.044535562
30	0xbd0e68fa	-0.034768082
31	0x3d14a67c	0.036291584
32	0x3b2612a0	0.0025340691
33	0xbd77beac	-0.060484573
34	0x3d2ff68a	0.042959727
35	0xba4be800	-0.0007778406
36	0x3d0bd794	0.03414114
37	0x3d3005d8	0.042974323
38	0xbd2f2cec	-0.04276745
39	0x3cd7f18c	0.026360296
40	0xbd7cd3dc	-0.061725482
41	0xbce4fc28	-0.027952269
42	0xbd70587e	-0.058678143
43	0xbd798306	-0.06091597
44	0x3d3c8138	0.04602167
45	0x3d60a170	0.05484146
46	0xbc6374b8	-0.013882808
47	0x3d15dc36	0.036586963
48	0x3cb4eda8	0.02208598
49	0x3d77c886	0.06049397
50	0x3b906b40	0.0044073164
51	0xbd092d7c	-0.033490643
52	0x3c77d4b0	0.015126392
53	0x3bd2abd0	0.006429173
54	0xbd5448fe	-0.051827423
55	0x3cc90a7c	0.024541132
56	0x3c9bb1b0	0.019005626
57	0xbd219a42	-0.039453752
58	0x3c5c08b0	0.013429806
59	0x3d01d896	0.031700693
60	0x3add30c0	0.001687549
61	0x3c65c758	0.014024578
62	0xbd46cb76	-0.04853388
63	0x3b7013c0	0.0036632866
64	0xbc08e430	-0.008355185
65	0x3be21370	0.00689929
66	0xbc342420	-0.010994941
67	0x3bb8d960	0.0056411475
68	0x3ae42380	0.0017405599
69	0x3d7446f2	0.05963797
70	0xbd1606b6	-0.036627494
71	0xbcad7ca4	-0.021177597
72	0x3cf1ec28	0.029531553
73	0x3c7fff30	0.015624806
74	0x3d4e7840	0.050407648
75	0x3d01d858	0.031700462
76	0x3d2208ba	0.039559104
77	0xbcb6d8e0	-0.022320211
78	0x3d404800	0.046943665
79	0xbd25c1d0	-0.040468037
80	0xbc8f9590	-0.017527372
81	0x3d6894f8	0.056782693
82	0x3c7b6e00	0.01534605
83	0x3d3d3ef4	0.046202615
84	0xbc47fa68	-0.012205698
85	0xbd03c182	-0.032166965
86	0xbd649dd4	-0.05581458
87	0xbd3c20e8	-0.04592982
88	0xbd0fce28	-0.035108715
89	0xbb8ba550	-0.00426165
90	0xbb830710	-0.0039986446
91	0x3d0bc51e	0.034123532
92	0xbd546596	-0.051854692
93	0x3d323ffa	0.043518044
94	0x3cc010d8	0.023445532
95	0x3cbb2780	0.022845984
96	0xbd35ead4	-0.044413403
97	0x3c8c2aac	0.017110191
98	0x3d1ecfc2	0.038772352
99	0xbd3f4ec0	-0.04670596
100	0xbd5838f8	-0.052788705
101	0xbd41c8c0	-0.04731059
102	0xbbdd4860	-0.0067530125
103	0x3bff5c00	0.0077929497
104	0x3c763c68	0.01502905
105	0xbc1f05d8	-0.009705983
106	0xbc05ca70	-0.008165941
107	0x3d7ac5c2	0.061223753
108	0xbc54bf18	-0.012985013
109	0x3b0afcc0	0.002120778
110	0xbd6a6786	-0.057227634
111	0xbc9a6cac	-0.018850647
112	0xbc8934e4	-0.016748853
113	0xbd5bd334	-0.053668216
114	0xbcb6abec	-0.022298776
115	0xbd0c60a2	-0.034271844
116	0x3a909140	0.0011029616
117	0x3c919540	0.017771363
118	0xbc5955c0	-0.013265073
119	0x3d03e5c0	0.03220153
120	0xbcfb4f58	-0.030677482
121	0xbcf83fe4	-0.030303903
122	0xbd6195cc	-0.055074498
123	0xbbc20970	-0.005921535
124	0x3d660f24	0.056166783
125	0x3cff839c	0.031190686
126	0xbd128350	-0.03576976
127	0xbccf76a4	-0.025325127

node_mlp.2.weight f4 [128, 128]
0	0xbbb76a03	-0.0055973544
1	0x3cf14e65	0.029456327
2	0xbda23c89	-0.079217024
3	0xbd082f5e	-0.033248298
4	0xbdb0eede	-0.0863931
5	0xbd82f9a6	-0.06395273
6	0x3d003d09	0.031308208
7	0xbbbb76b8	-0.0057209395
8	0xbd69df15	-0.057097513
9	0xbdb088f5	-0.086198725
10	0x3d95d9b8	0.07316917
11	0x3da4328f	0.08017456
12	0x3d6f6f93	0.058456015
13	0x3d1651fa	0.036699273
14	0x3d050153	0.032471966
15	0xbc7e5d11	-0.015525118
16	0xbb6448c9	-0.0034833422
17	0x3ada3efb	0.001665085
18	0xbd456c56	-0.04819902
19	0xbd9a5553	-0.075358056
20	0xbdaf8a42	-0.085712925
21	0x3d1113b9	0.0354192
22	0xbd9f3288	-0.0777331
23	0xbd44b7ec	-0.048026964
24	0x3d0f8356	0.03503736
25	0x3d922e03	0.07137682
26	0xbd81e1e5	-0.06341914
27	0xbdaa0a77	-0.08302777
28	0x3d0e91a6	0.03480687
29	0xbcdef603	-0.027216917
30	0x3d977e52	0.073971406
31	0xbcdc71dc	-0.026909761
32	0x3d9482de	0.072515234
33	0xbd849432	-0.064735785
34	0xbd3c33f8	-0.045948
35	0x3d5adc23	0.053432595
36	0x3d27d8b1	0.040978137
37	0xbc7cada4	-0.0154222585
38	0xbd5cf3b9	-0.05394337
39	0x3d9b58da	0.075853065
40	0xbc3e08e7	-0.011598802
41	0xbd91a89e	-0.07112239
42	0x3d4e4e89	0.050367866
43	0xbdafc25d	-0.08581994
44	0x3d946435	0.072456755
45	0x3d8e748d	0.06955824
46	0xbd9ee23d	-0.07757995
47	0x3cc29d38	0.023756608
48	0x3d750f74	0.05982919
49	0x3d30ba12	0.0431462
50	0x3ce8f124	0.028435297
51	0x3d394ffb	0.04524229
52	0x3ccd8bed	0.025091136
53	0xbc747994	-0.014921565
54	0xbcc05bfa	-0.023481358
55	0xbd65350e	-0.0559588
56	0xbd161e4d	-0.03664999
57	0x3d4ab0d5	0.049485046
58	0x3da9d562	0.08292653
59	0xbb8b2ac7	-0.004247043
60	0x3da19b59	0.07890958
61	0xbd6d862b	-0.05798928
62	0xbd628be1	-0.05530918
63	0xbdafb7ec	-0.08580002
64	0xbd191df2	-0.037382074
65	0xbd77d4de	-0.06050574
66	0xbd88d2f3	-0.0668086
67	0x3d6da53f	0.05801892
68	0xbd568c22	-0.052379735
69	0x3c9ae6fd	0.018908972
70	0xbbbf1507	-0.005831364
71	0xbd1c8ca8	-0.038220078
72	0xbd8f9016	-0.07009904
73	0x3d631b37	0.055445876
74	0x3b06f56a	0.0020593056
75	0x3da685ea	0.08131011
76	0xbd22d720	-0.03975594
77	0xbd1a2b54	-0.037638977
78	0x3d9e1320	0.077184916
79	0xbc28597f	-0.010275244
80	0xbd723a48	-0.059137613
81	0xbcf6f3cf	-0.030145554
82	0xbbc55fa4	-0.006023364
83	0xbcd8c377	-0.026460392
84	0x3d8b1da0	0.0679276
85	0x3d813ecd	0.063108064
86	0x3d0b4592	0.034001894
87	0xb9f04e4a	-0.00045834697
88	0x3d068b26	0.032847546
89	0x3cbce812	0.023059878
90	0xbd9eeaf5	-0.07759658
91	0xbbe65f5b	-0.00703041
92	0x3d034f81	0.032058243
93	0xbcf1e97e	-0.029530283
94	0x3cc15d2a	0.023603994
95	0x3d71966b	0.05898134
96	0x3c16c512	0.009202259
97	0xbcc4cc9b	-0.024023345
98	0xbda7e696	-0.08198278
99	0xbd57e602	-0.052709587
100	0xbc14e2a5	-0.009087239
101	0x3d21f239	0.039537642
102	0xbd61462e	-0.05499857
103	0xbd6bc765	-0.057563204
104	0xbd54a640	-0.05191636
105	0x3d7866a2	0.060644753
106	0x3d88b9a1	0.06676031
107	0xbd830b6d	-0.06398664
108	0xbcec4809	-0.028842943
109	0x3d5ef53a	0.054433085
110	0x3ced126c	0.028939448
111	0xbd33d6e7	-0.04390612
112	0xbd56bd19	-0.05242643
113	0x3cfe8121	0.031067433
114	0x3d4a6f0a	0.0494223
115	0xbc62133b	-0.01379853
116	0xbc3a309c	-0.011364128
117	0xbd50993f	-0.050927397
118	0x3d957a92	0.07298769
119	0xbcb2876d	-0.021793092
120	0xbd607c15	-0.054805834
121	0x3dae10ed	0.08499322
122	0x3da0c92f	0.07850873
123	0xbb0b8150	-0.0021286793
124	0x3da622c8	0.08112103
125	0xbd4d454b	-0.05011491
126	0xbd70fad0	-0.058832943
127	0x3c99b0ca	0.018761057
128	0xbda4ac53	-0.08040681
129	0xbc7006f6	-0.014650097
130	0x3c3965ab	0.011315743
131	0x3ca6a50e	0.020342376
132	0xbda581be	-0.08081387
133	0xbd0b73bc	-0.03404592
134	0xbd8fbbf0	-0.07018268
135	0x3d6f2b6a	0.058391012
136	0x3d9fc5fd	0.07801435
137	0x3d8e110f	0.069368474
138	0xbdb4085d	-0.08790658
139	0x3d9e8b02	0.077413574
140	0x3d6b6990	0.05747372
141	0xbd8bf510	-0.06833851
142	0xbd41421b	-0.047182184
143	0x3d83cb4a	0.06435259
144	0x3ce84efe	0.028357979
145	0xbc019f32	-0.00791149
146	0xbcefd609	-0.029276865
147	0x3da7abc0	0.081870556
148	0xbd4ff23f	-0.050768133
149	0x3da78fff	0.08181762
150	0x3d895e74	0.06707469
151	0x3d640755	0.055671055
152	0x3c513f45	0.012771432
153	0x3d8d4a95	0.06898991
154	0xbd8b9644	-0.0681577
155	0xbd9f7c91	-0.07787431
156	0x3c848afb	0.016179552
157	0x3d865993	0.06560054
158	0xbd82cd24	-0.06386784
159	0x3ccb3331	0.024804683
160	0x3c0e41d0	0.008682683
161	0xbce80443	-0.028322345
162	0xbcfb6f71	-0.030692788
163	0x3d456e91	0.048201147
164	0x3d6ca110	0.05777079
165	0x3cc1fe2f	0.023680774
166	0x3d1470b7	0.036240306
167	0x3a23c730	0.0006247638
168	0xbca49270	-0.020089358
169	0xbd9f071d	-0.077650286
170	0xbda0551f	-0.078287356
171	0x3d538004	0.051635757
172	0x3c819787	0.015819324
173	0xbd11b007	-0.035568263
174	0xbc6726b7	-0.014108351
175	0x3d952c3c	0.07283828
176	0x3ca5f9c8	0.020260707
177	0xbd2359d5	-0.039880592
178	0xbd96d3c8	-0.07364613
179	0x3d661642	0.05617357
180	0x3d2f093c	0.042733416
181	0x3c6e99f6	0.014563074
182	0xbda8e8f7	-0.082475595
183	0x3da92915	0.08259789
184	0x3db456c2	0.0880561
185	0x3dabea12	0.08394255
186	0x3cdddc84	0.02708269
187	0x3d9c72cf	0.076390855
188	0xbda8b229	-0.08237106
189	0xbd7072b7	-0.05870315
190	0x3a9780ce	0.0011558773
191	0xbd3c3e60	-0.045957923
192	0x3d9f8168	0.07788354
193	0xbd3564d7	-0.04428562
194	0xbcb8f2e6	-0.02257676
195	0x3d9d8b4a	0.07692583
196	0x3db136d8	0.08653039
197	0x3d2eef26	0.04270854
198	0x3d041521	0.032246713
199	0xbd8c1cb7	-0.068414144
200	0xbc7dae96	-0.015483519
201	0x3d185adf	0.037196036
202	0xbd9a14aa	-0.075234726
203	0xbd898b67	-0.06716042
204	0xbcc99704	-0.024608143
205	0xbd484269	-0.04889146
206	0xbdb46356	-0.08808009
207	0xbd944523	-0.07239749
208	0xbc49d65e	-0.0123191755
209	0xbd91936a	-0.07108195
210	0xbcf484f5	-0.029848555
211	0x3d9e0843	0.077164195
212	0xbd69f090	-0.057114184
213	0xbd1d5eab	-0.03842036
214	0x3d99e99c	0.075152606
215	0xbd8b9b4f	-0.06816732
216	0xbda9f5cf	-0.082988374
217	0x3d1f2d42	0.03886152
218	0xbdadd716	-0.0848829
219	0x3d29b761	0.04143465
220	0xbcca0f45	-0.024665484
221	0xba079fa6	-0.0005173631
222	0x3d40a3f8	0.047031373
223	0xbda17d62	-0.07885243
224	0xbb202065	-0.002443337
225	0xbc141e61	-0.009040446
226	0x3d485ccf	0.048916634
227	0xbd0a8dab	-0.03382651
228	0xbcf5eaaa	-0.030019123
229	0xbda008a4	-0.07814148
230	0xbda4f9d7	-0.08055466
231	0xbd983158	-0.074312866
232	0xbda00607	-0.078136496
233	0x3ca79e60	0.020461261
234	0x3cab83af	0.020936815
235	0x3d1e90f7	0.038712468
236	0x3d98abd7	0.07454651
237	0xbcb2fcf6	-0.021849137
238	0x3d20a563	0.039220225
239	0xbd152e4e	-0.036421113
240	0xbcbcd922	-0.023052756
241	0xbd30c2ae	-0.04315441
242	0x3d2690ed	0.040665556
243	0x3d9af0fd	0.07565496
244	0x3d969a55	0.07353655
245	0xbd3b3396	-0.045703493
246	0xbd9348a4	-0.071915895
247	0x3ce52517	0.027971787
248	0xbd5abc23	-0.053402077
249	0xbd34a205	-0.044099826
250	0x3ce761b7	0.028244836
251	0x3d9f8374	0.077887446
252	0xbd23f33a	-0.04002688
253	0xbc2ad1f5	-0.010426034
254	0x3db3d756	0.087813064
255	0xbc423da6	-0.011855518

node_mlp.2.bias f4 [128]
0	0xbda0750b	-0.07834824
1	0x3c122e9c	0.008922245
2	0x3c5de89b	0.013544227
3	0xbc6c0454	-0.014405329
4	0x3cda6eb6	0.02666412
5	0xbc8fcc8e	-0.017553594
6	0x3d46c931	0.048531715
7	0x3b1059ee	0.0022026259
8	0x3d2d334c	0.04228525
9	0xbc95b5c9	-0.018275158
10	0x3d8c63e4	0.0685499
11	0x3d4db1ad	0.050218273
12	0xbd0109b0	-0.03150338
13	0xbca41ed9	-0.02003424
14	0xbdb254f1	-0.087076075
15	0x3d808ef3	0.062772654
16	0x3d8d5bc2	0.06902267
17	0xbd84da22	-0.06486918
18	0xbbf39c6e	-0.0074344194
19	0x3d6a18e4	0.057152644
20	0x3d8b3768	0.06797677
21	0xbd0dbb02	-0.034602173
22	0x3c14257f	0.009042143
23	0xbd254594	-0.040349558
24	0xbd94e06e	-0.07269369
25	0x3d364178	0.04449603
26	0xbcca34d0	-0.024683386
27	0xbd059385	-0.03261139
28	0x3c9cec48	0.019155636
29	0x3d93470a	0.07191284
30	0xbcfe413f	-0.031036971
31	0xbd911e47	-0.07085853
32	0xbd1d83e4	-0.03845586
33	0xbdb294a8	-0.0871976
34	0x3d8ef43f	0.0698018
35	0x3bf2843d	0.007401018
36	0x3d81e166	0.063418195
37	0x3db434db	0.08799144
38	0xbd547e4a	-0.05187825
39	0xbb5cd804	-0.0033698091
40	0x3ca82eea	0.020530183
41	0x3d0a0c89	0.03370336
42	0xbda1ce7e	-0.079007134
43	0x3bd1394e	0.006385005
44	0x3d8a1844	0.067429096
45	0xba5617d8	-0.0008167005
46	0xbd1d115f	-0.038346644
47	0xbce81d52	-0.028334294
48	0x3c29d903	0.010366681
49	0x3bb2c574	0.005455667
50	0xbc00dc58	-0.007865034
51	0x3daa8c45	0.083275355
52	0xbaf063db	-0.0018340306
53	0xbd717a28	-0.058954388
54	0x3d9f3b32	0.077749625
55	0xbd80d04d	-0.0628973
56	0x3b88499f	0.004159167
57	0x3d955ff1	0.0729369
58	0x3d64ab6a	0.055827536
59	0x3daefad7	0.08543938
60	0x3d0e0fb5	0.03468295
61	0x3afff1ed	0.0019527056
62	0xbd437ce8	-0.04772654
63	0x3d67ddcd	0.05660801
64	0xbda053e3	-0.078285
65	0x3cc991d3	0.024605667
66	0x3d14e7a1	0.03635371
67	0xbd00606f	-0.031341966
68	0x3d78fb88	0.060786754
69	0xbd34085c	-0.043953285
70	0x3d55d8fb	0.05220888
71	0xbd41648e	-0.047215037
72	0x3da9ffa7	0.08300715
73	0xbc75a696	-0.01499333
74	0x3b11710f	0.0022192632
75	0xbcc0e1aa	-0.023545105
76	0xbd453ef5	-0.048155744
77	0xbd6e65c7	-0.05820253
78	0xbda2f732	-0.07957305
79	0xbd02bb52	-0.031916924
80	0x3d510ee9	0.05103961
81	0xbc5a8fa3	-0.01333991
82	0xbd8c9ab9	-0.068654485
83	0x3d06a87e	0.03287553
84	0xbd6cbe58	-0.057798713
85	0xbd14e525	-0.03635134
86	0x3d91e2e1	0.07123352
87	0xbb8b7a6b	-0.0042565367
88	0x3da134bd	0.07871387
89	0x3ca26cd1	0.019827278
90	0xbd0fb4cc	-0.03508453
91	0xbce2d9af	-0.02769169
92	0x3db10497	0.086434536
93	0xbda68a1d	-0.08131812
94	0xbd031637	-0.032003608
95	0x3ca6f29e	0.02037936
96	0xbd1d257e	-0.038365833
97	0x3d81f88d	0.063462354
98	0x3d27e434	0.040989116
99	0xbdaaf394	-0.0834724
100	0x3cd72201	0.026261332
101	0xbbffcb7a	-0.0078062387
102	0xbd650e00	-0.055921555
103	0xbcfa25e3	-0.030535644
104	0x3d13bc6c	0.036068365
105	0xbd8d0f91	-0.06887735
106	0xbd511bf0	-0.051052034
107	0x3d1699a9	0.036767635
108	0x3d787266	0.060655974
109	0xbd3ac13f	-0.04559445
110	0x3d14faad	0.036371876
111	0xbc8a5005	-0.01688386
112	0x3da97589	0.08274371
113	0x3d5473de	0.051868312
114	0x3c923dec	0.017851792
115	0x3db1a6b9	0.08674378
116	0x3c143518	0.009045862
117	0x3da08418	0.07837695
118	0x3dab2c6c	0.08358082
119	0x3d77d245	0.060503263
120	0xbd7f1f0e	-0.062285475
121	0xbd40bd8f	-0.047055777
122	0xbd2b3773	-0.041800927
123	0x3beff532	0.0073229307
124	0xbd38e4e9	-0.04514018
125	0xbb47adcf	-0.0030468588
126	0x3daca739	0.08430333
127	0x3da72b80	0.08162594

src_proj.weight f4 [128, 128]
0	0xbd13adb5	-0.03605433
1	0x3d07a138	0.033112735
2	0xbd675b90	-0.056483805
3	0x3d9d79e7	0.07689267
4	0xbc8e6ec7	-0.017386807
5	0xbd7375f3	-0.059438657
6	0xbd4a1372	-0.04933495
7	0xbc24e48d	-0.010064256
8	0x3bcc8312	0.0062412107
9	0xba9813e2	-0.0011602605
10	0xbc1c02d9	-0.009522163
11	0xbd16afbf	-0.0367887
12	0xbc114cbc	-0.008868393
13	0xbdae2493	-0.0850307
14	0x3c903628	0.017603949
15	0x3c9e8bbb	0.019353738
16	0x3dad01e6	0.08447628
17	0x3ce0f376	0.027459841
18	0xbc795e5a	-0.015220249
19	0x3da38de0	0.07986045
20	0xbd9da9f1	-0.076984294
21	0xbc929266	-0.017892074
22	0x3d9ff62b	0.07810625
23	0x3d701731	0.058615867
24	0x3da12072	0.078675166
25	0xbd21368d	-0.039358664
26	0xbd37ad24	-0.044842854
27	0x3db15a29	0.08659775
28	0x3ca8e603	0.02061749
29	0x3d9bca68	0.07606965
30	0xbbfd0dc3	-0.007722588
31	0xbd2f28d2	-0.04276354
32	0xbd5ebd47	-0.054379728
33	0xbcd4b4bf	-0.025965093
34	0x3d837873	0.06419458
35	0x3d37c98c	0.044869944
36	0xbcd823d5	-0.026384274
37	0xbd29e826	-0.04148116
38	0x3d54bcf2	0.051938005
39	0xbd75b7e3	-0.05998982
40	0xbc11f035	-0.0089073675
41	0xbd025130	-0.031815708
42	0xbd7bdaef	-0.06148809
43	0x3d934a74	0.07191935
44	0x3d3b496b	0.045724314
45	0x3db4ce9b	0.08828469
46	0x3c43e2a4	0.011955891
47	0x3d549f8e	0.051909976
48	0x3d91bb4d	0.07115803
49	0x3ca23714	0.019801654
50	0xbd6d1250	-0.057878792
51	0x3d895b5c	0.067068785
52	0x3c159b99	0.009131336
53	0x3cecb5db	0.02889531
54	0xbd05e56c	-0.032689497
55	0x3d9b0ab0	0.07570398
56	0x3d5e2266	0.054232024
57	0xbb7af3d5	-0.0038292308
58	0xbd5b6e93	-0.05357225
59	0x3da7e6c6	0.081983134
60	0xbd3cf16b	-0.04612867
61	0xbc8c2bb4	-0.017110683
62	0xbcb34f2f	-0.021888344
63	0xbca3b046	-0.019981515
64	0x3c9c7605	0.019099245
65	0xbc6dba07	-0.014509684
66	0x3bbf68d2	0.005841353
67	0x3d43a361	0.047763232
68	0xbd948aa9	-0.0725301
69	0x3d92489b	0.07142755
70	0x3c6df534	0.014523793
71	0x3d5ab569	0.053395662
72	0xbb8a9523	-0.0042292043
73	0x3d80fc5b	0.06298133
74	0x38aa9142	8.133288e-05
75	0xbd9d7a2b	-0.07689317
76	0x3d835427	0.06412535
77	0xbd9fe7b0	-0.07807863
78	0xbba8a533	-0.0051466464
79	0x3d6d1d15	0.057889063
80	0x3bfec20c	0.007774597
81	0x3d4b7286	0.049669765
82	0xbcaf93cb	-0.021432778
83	0xbd531ab6	-0.051539145
84	0xbd71c5e2	-0.059026606
85	0xbd35bd07	-0.044369724
86	0x3d3e9c00	0.046535492
87	0x3d685cc5	0.056729097
88	0x3d1ad74d	0.037802983
89	0x3d909dff	0.07061385
90	0x3da1b15a	0.07895155
91	0x3d2d6772	0.04233498
92	0x3cf24b35	0.029576877
93	0xbca29e40	-0.01985085
94	0xbd6aabfb	-0.05729292
95	0x3d19bf00	0.037535667
96	0xbcea726d	-0.028619016
97	0xbd907223	-0.0705302
98	0xbdaffb4f	-0.08592855
99	0xbcdaa0ac	-0.026687942
100	0x3d3721e0	0.04471004
101	0x3d7274ce	0.059193425
102	0xbca7e7a1	-0.020496191
103	0x3dad126f	0.084507816
104	0x3cb96da0	0.022635281
105	0xbd884505	-0.066537894
106	0x3d500165	0.05078258
107	0x3d88dff4	0.06683341
108	0xbcb4e045	-0.022079596
109	0x3dae9dc8	0.08526188
110	0x3d9ee0ba	0.07757707
111	0x3d027124	0.03184618
112	0xbc8512ae	-0.016244259
113	0x3dab53fb	0.083656274
114	0xbd7c320b	-0.061571162
115	0x3cac2876	0.021015387
116	0xbcd18d68	-0.025580123
117	0x3d31c96a	0.043404974
118	0xbc2aa88c	-0.010416161
119	0x3d84c9f4	0.06483832
120	0x3d247b3f	0.0401566
121	0xbb349978	-0.0027557295
122	0x3d3865d7	0.045018997
123	0x3d1d7cff	0.038449284
124	0x3c069f80	0.008216739
125	0x3db01046	0.08596854
126	0xbd5a52de	-0.053301685
127	0xbcb1e39f	-0.021714984
128	0xbd569e95	-0.05239733
129	0x3d686bc9	0.056743417
130	0x3cf20d01	0.029547216
131	0xbad57fd1	-0.0016288703
132	0x3d3c9fec	0.04605095
133	0xbbec903f	-0.007219344
134	0x3d9d51a1	0.07681585
135	0x3da88679	0.082287736
136	0xbd04553b	-0.032307845
137	0x3d57e0a9	0.052704487
138	0xbd5998e9	-0.053124342
139	0xbd5ba7f8	-0.053626984
140	0xbd600b2a	-0.054698147
141	0xbd65790d	-0.056023646
142	0xbda4f14c	-0.08053836
143	0x3d910022	0.070801035
144	0x3c08e5ab	0.008355538
145	0x3d99147e	0.07474612
146	0xbb3ae141	-0.002851561
147	0x3da8a448	0.08234459
148	0x3d1237a3	0.03569759
149	0x3d28b108	0.041184455
150	0x3d9cbc67	0.076531224
151	0xbd3227fa	-0.043495156
152	0xbca6c370	-0.020356864
153	0x3dab0584	0.083506614
154	0xbd3121c9	-0.04324511
155	0x3c06f964	0.00823817
156	0x3d34f622	0.044180043
157	0xbdb3753c	-0.08762595
158	0x3d0b4f35	0.034011085
159	0x3d552659	0.052038524
160	0xbd4d6114	-0.05014141
161	0xbd63409d	-0.055481542
162	0xbce0d935	-0.027447322
163	0xbce5cd95	-0.02805213
164	0x3d50c403	0.05096818
165	0xbd95beaf	-0.07311761
166	0xbcb13c1a	-0.021635104
167	0x3d8b8ada	0.06813593
168	0x3b810f1f	0.00393857
169	0x3da3b1e2	0.07992913
170	0x3d804811	0.062637456
171	0x3adf5f5f	0.0017041973
172	0x3da87cec	0.08226952
173	0x3d8704cb	0.06592711
174	0xbd748c98	-0.059704393
175	0xbcdb380f	-0.02676013
176	0x3cfdb351	0.030969294
177	0x3d14bbdb	0.036311965
178	0xbc9484c7	-0.01812972
179	0xbd99b8e9	-0.07505972
180	0x3d5a0105	0.05322363
181	0x3bce7c08	0.006301407
182	0xbcd58f4f	-0.026069311
183	0x3c8a0927	0.016850067
184	0xbd8b1dbf	-0.06792783
185	0x3da34ffb	0.079742394
186	0x3da7d14f	0.08194219
187	0xbd09a091	-0.033600394
188	0x3d8f5e73	0.07000437
189	0x3d12ee0c	0.03587155
190	0x3a38f768	0.00070559094
191	0xbdac87ba	-0.08424325
192	0x3d2f920f	0.0428639
193	0x3c9fe943	0.019520408
194	0x3c6eaf92	0.014568226
195	0x3ae11e9e	0.0017175262
196	0x3d9d5555	0.076822914
197	0xbd893279	-0.0669908
198	0xbd63134d	-0.05543833
199	0x3da56d9d	0.08077548
200	0xbd874b5b	-0.0660617
201	0x3d6620b3	0.05618353
202	0xbd102214	-0.03518875
203	0x38e4f853	0.00010918141
204	0x3d33618f	0.04379421
205	0x3da9fcb6	0.08300154
206	0x3d53b808	0.051689178
207	0xbd837ed6	-0.064206764
208	0xbd438559	-0.047734592
209	0xbd4d0c18	-0.05006036
210	0x3ca6208a	0.020279188
211	0xbd83ec3b	-0.06441542
212	0xbd50410e	-0.05084329
213	0x3d5e30c3	0.05424572
214	0xbda0a4d2	-0.07843937
215	0x3d99081b	0.07472249
216	0xbd8cff2c	-0.06884608
217	0xbc60fd84	-0.013732318
218	0x3d0d049e	0.03442823
219	0xbd711319	-0.058856104
220	0x3da7e4a1	0.081979044
221	0x3d87d599	0.066325374
222	0xbce36316	-0.027757209
223	0xbc99a0e7	-0.018753482
224	0x3cddda2d	0.027081573
225	0xbce3d942	-0.027813558
226	0x3d14f96b	0.036370676
227	0xbd872e79	-0.06600661
228	0x3d8902be	0.06689976
229	0xbd5edee6	-0.05441179
230	0xbc0e38d7	-0.008680544
231	0xbd235c87	-0.039883163
232	0x3bfdd147	0.007745895
233	0x3c76117e	0.015018819
234	0x3d927d97	0.071528606
235	0x3da88b3e	0.08229683
236	0x3d87861c	0.06617376
237	0x3d05b36a	0.032641806
238	0xbda7d31f	-0.08194565
239	0xbd8aa3c5	-0.06769518
240	0x3d9934fc	0.07480809
241	0x3d4fcf8b	0.050735038
242	0x3d4e590a	0.050377883
243	0x3a12d5cc	0.0005601316
244	0x3da5c846	0.0809484
245	0xbd2aebfa	-0.04172895
246	0xbd9ebb69	-0.077505894
247	0xbd277acd	-0.040888596
248	0xbd4cb902	-0.049981125
249	0xbcd45b7f	-0.025922535
250	0xbd96b989	-0.07359607
251	0x3cc28fea	0.023750264
252	0x3d33edd7	0.043927994
253	0xbcc9494d	-0.024571085
254	0x3d379796	0.044822298
255	0xbd3b8632	-0.045782275
