data_files/out_gen/generator_epoch9.pt (torch, 599725 bytes, 13 tensors)

conv1.bias f4 [128]
00000000: 0000 0000 0000 0000 0000 0000 0000 0000
00000010: 0000 0000 0000 0000 0000 0000 0000 0000
00000020: 0000 0000 0000 0000 0000 0000 0000 0000
00000030: 0000 0000 0000 0000 0000 0000 0000 0000
00000040: 0000 0000 0000 0000 0000 0000 0000 0000
00000050: 0000 0000 0000 0000 0000 0000 0000 0000
00000060: 0000 0000 0000 0000 0000 0000 0000 0000
00000070: 0000 0000 0000 0000 0000 0000 0000 0000
00000080: 0000 0000 0000 0000 0000 0000 0000 0000
00000090: 0000 0000 0000 0000 0000 0000 0000 0000
000000a0: 0000 0000 0000 0000 0000 0000 0000 0000
000000b0: 0000 0000 0000 0000 0000 0000 0000 0000
000000c0: 0000 0000 0000 0000 0000 0000 0000 0000
000000d0: 0000 0000 0000 0000 0000 0000 0000 0000
000000e0: 0000 0000 0000 0000 0000 0000 0000 0000
000000f0: 0000 0000 0000 0000 0000 0000 0000 0000
00000100: 0000 0000 0000 0000 0000 0000 0000 0000
00000110: 0000 0000 0000 0000 0000 0000 0000 0000
00000120: 0000 0000 0000 0000 0000 0000 0000 0000
00000130: 0000 0000 0000 0000 0000 0000 0000 0000
00000140: 0000 0000 0000 0000 0000 0000 0000 0000
00000150: 0000 0000 0000 0000 0000 0000 0000 0000
00000160: 0000 0000 0000 0000 0000 0000 0000 0000
00000170: 0000 0000 0000 0000 0000 0000 0000 0000
00000180: 0000 0000 0000 0000 0000 0000 0000 0000
00000190: 0000 0000 0000 0000 0000 0000 0000 0000
000001a0: 0000 0000 0000 0000 0000 0000 0000 0000
000001b0: 0000 0000 0000 0000 0000 0000 0000 0000
000001c0: 0000 0000 0000 0000 0000 0000 0000 0000
000001d0: 0000 0000 0000 0000 0000 0000 0000 0000
000001e0: 0000 0000 0000 0000 0000 0000 0000 0000
000001f0: 0000 0000 0000 0000 0000 0000 0000 0000
0.0 0.0 0.0 0.0 0.0 0.0 0.0 0.0
0.0 0.0 0.0 0.0 0.0 0.0 0.0 0.0
0.0 0.0 0.0 0.0 0.0 0.0 0.0 0.0
0.0 0.0 0.0 0.0 0.0 0.0 0.0 0.0
0.0 0.0 0.0 0.0 0.0 0.0 0.0 0.0
0.0 0.0 0.0 0.0 0.0 0.0 0.0 0.0
0.0 0.0 0.0 0.0 0.0 0.0 0.0 0.0
0.0 0.0 0.0 0.0 0.0 0.0 0.0 0.0
0.0 0.0 0.0 0.0 0.0 0.0 0.0 0.0
0.0 0.0 0.0 0.0 0.0 0.0 0.0 0.0
0.0 0.0 0.0 0.0 0.0 0.0 0.0 0.0
0.0 0.0 0.0 0.0 0.0 0.0 0.0 0.0
0.0 0.0 0.0 0.0 0.0 0.0 0.0 0.0
0.0 0.0 0.0 0.0 0.0 0.0 0.0 0.0
0.0 0.0 0.0 0.0 0.0 0.0 0.0 0.0
0.0 0.0 0.0 0.0 0.0 0.0 0.0 0.0

conv1.lin.weight f4 [128, 2]
00000000: 749e 123e cad1 073e afd5 50be 783d 383e
00000010: 50ac b33d dffc 2a3e fa2f e53d 83c5 2d3e
00000020: 1675 2fbe a407 b8bc e0c5 0ebe d978 163e
00000030: 0e6b b13d a536 36be 642a 063d a8ac 973d
00000040: 342d f43c b14c 3bbd 0873 c43d 2905 113e
00000050: 905b 463b de37 103e 139e ef3d 5037 15bd
00000060: 8c39 313e 0cb0 533e c173 84bb 61f9 20be
00000070: 0e2c 0ebe 1a9d 033e 7f37 5b3e acb3 93bd
00000080: f63e 4bbe 4cc9 cabd 3279 32bd a6de 1b3e
00000090: 00bf 59be 3bc6 883d 4099 21bd 21f6 f53d
000000a0: b15b d03d f861 4d3e 2f24 373e 91ae f6bd
000000b0: c42e 2abe 811b 59be e194 44be 6f9b e53d
000000c0: 0f44 0f3e 4eef 403d cc29 1bbe 9065 9ebd
000000d0: 1d33 48be d1b9 9ebd 9ac8 45be 19ca 883d
000000e0: ca73 31be 837b cf3c 4282 3fbe 2b00 a1bd
000000f0: 9e7f f33c 574e 443e 5855 d8bd 81f4 c83d
00000100: ee16 a3bc d0d4 6c3d ec4b 1dbe 7490 43be
00000110: d417 183e ba2e bebd b691 57be 42f7 13be
00000120: 41ae 3c3d a93f 09be 3098 3f3d 8fa1 503e
00000130: 678e b4bd 8692 813d c841 0cbe c2ae c63d
00000140: 9844 4b3e 69d6 1bbd 08fc 9a3d 1ed6 57be
00000150: cca0 51be 7266 2a3e 5ff8 96bd 954c 353e
00000160: fcb0 773d 0470 28be 9880 093e 9186 713d
00000170: 6f53 47be e9e6 c63d 18d4 9d3d 6d9c 4bbb
00000180: a8bf 843d e74b 3d3e 68e1 4dbe 2fe9 96bd
00000190: f180 0bbe 0a7e dc3d ddf0 dabc a44a 1e3d
000001a0: 88f3 063b 14dc 44be 5f7b 483e 815a b33d
000001b0: 338d 303d 73e2 2b3e 784f f33d 8906 38be
000001c0: e320 52be d15c 41be 7ce7 0e3e 540c 933d
000001d0: 2161 a43d 5a2a 393e f959 e3bd 4d9a 1cbe
000001e0: 0243 2bbe 9deb fa3d 2cf1 183e 4eb6 e53d
000001f0: 7d0c 4e3e 457c 44bc 068b eabd 1b6a e0bd
00000200: 0b40 153d 0cd6 47be c07f 273e 0926 0dbe
00000210: 2919 d03d 5604 923d ea28 05bd 8b37 753d
00000220: f781 9abd 2dfc 9ebc de7e 41bd a758 dabd
00000230: 987b 063e 3aa3 2b3e ca85 eb3d d69f fc3b
00000240: e33d 42be a65b e8bd 3af6 0ebe 9926 0cbe
00000250: 7423 5abe e485 16bc 6d2b 3f3d c229 57bd
00000260: bfa5 1fbe fb10 d53d f62b 4abe c3a1 433e
00000270: 9d55 183e 26e5 fd3d f2bb da3d 68e4 3cbe
00000280: a7ea f13c 1d93 28be 1abd bbbc b0fe 573d
00000290: 15d2 8b3d ba38 00be 9d8a ba3d 2f10 393e
000002a0: 9068 ec3d cd05 643d 1f84 9dbd a327 e43c
000002b0: 1d7e 3a3e fa78 a9bd 389c b5bd 7c2b c7bd
000002c0: bad8 9eba 4ec5 953d 6dc2 923d 499b 5e3d
000002d0: fa49 943d c4b7 163e 90e4 c03d 6b47 203e
000002e0: ba0c 313e fd20 a3bd 0fab 2c3e 9b9e 0dbb
000002f0: fba0 463d 5b8a 3ebe 4112 32be 28e0 b2bd
00000300: 0fe7 c7bd 9e50 de3d 6442 b43d 86ea 44be
00000310: c203 263e 2884 81bc 872c 7fbd a454 253e
00000320: 078d 16be 14ca 643d a272 3d3e d1c2 163e
00000330: 99d2 8f3c 80f4 93bc 567b cebd b356 fd3d
00000340: 926d c0bd 5208 89bd c835 c73c e419 723d
00000350: 205c f7bd 391a b83d f2fb 4d3e d4eb 243e
00000360: ea52 d1bd 3b17 f2bb d77c 123e 70cc 4e3e
00000370: bcfd 93bc 3ece e53d faf8 1dbe 3343 30be
00000380: d8d0 9dbd ceec ba3d 8fb4 193e 519e 1a3e
00000390: e1e7 d4bc 254a fdbd b11b 173e 83ff 153e
000003a0: 4854 b8bc a5ea 94bc 26d0 703d 5183 573d
000003b0: e6ec 993d 45e9 0e3e ec67 2f3d 5874 0e3e
000003c0: 198d 67bd 6dd8 5b3d 806e 09bd c815 3f3d
000003d0: c669 3b3e 31f0 eebd 8118 503c 0e61 2fbe
000003e0: 7bc1 26be 5772 553e 9196 21be 2395 6b3d
000003f0: 1a8e 6cbd c188 013e 2e1a 0abe bf30 1abd
0.14318258 0.13263622 -0.20394014 0.17992198 0.087731004 0.16698025 0.111907914 0.16969876
-0.17134508 -0.02246458 -0.13942671 0.14694537 0.08662997 -0.17794283 0.03275527 0.074059784
0.02980671 -0.045727435 0.09592253 0.14162125 0.0030266978 0.14083812 0.11700072 -0.036429703
0.17307109 0.20672625 -0.0040421193 -0.1572013 -0.13883993 0.12852898 0.21407889 -0.07212004
-0.19848236 -0.099016756 -0.043572612 0.15221652 -0.21264267 0.066784345 -0.03945279 0.12009836
0.10173739 0.20056903 0.17884897 -0.12045015 -0.16619402 -0.21201898 -0.19197418 0.11211287
0.13990806 0.04710322 -0.15152663 -0.07734215 -0.19550748 -0.077502854 -0.19314805 0.06679172
-0.17329326 0.02532745 -0.18702033 -0.0786136 0.029723939 0.1917051 -0.10563153 0.098122604
-0.019908395 0.05782014 -0.15360993 -0.19098073 0.1485284 -0.09286256 -0.21051678 -0.1444979
0.04606462 -0.1340319 0.046775997 0.2037413 -0.088162236 0.06326775 -0.13696969 0.09701301
0.19850385 -0.038046274 0.075676024 -0.21077773 -0.20471495 0.16640642 -0.07371592 0.17704995
0.06047152 -0.1644898 0.13427961 0.058966223 -0.19465421 0.09712011 0.07706469 -0.0031068579
0.06481868 0.18485986 -0.20105517 -0.07368695 -0.13623406 0.107662275 -0.02672618 0.0386454
0.0020591933 -0.19224578 0.19578312 0.087574966 0.043103408 0.16785602 0.11880392 -0.17971243
-0.20520358 -0.18883063 0.13955492 0.07180086 0.08026338 0.18082562 -0.11101145 -0.15293236
-0.1672478 0.12251971 0.1493575 0.112164125 0.20121951 -0.011992519 -0.11452298 -0.10957738
0.03643803 -0.19515246 0.16357327 -0.1378404 0.10161049 0.07129733 -0.03250972 0.059867423
-0.0754432 -0.019407356 -0.04724013 -0.1066144 0.13133085 0.16761485 0.115001276 0.0077094836
-0.1896892 -0.113456056 -0.13961115 -0.13686599 -0.21302587 -0.009187195 0.046672273 -0.052530058
-0.15590571 0.104036294 -0.19743332 0.19104676 0.14876409 0.12397222 0.10680379 -0.18446505
0.029530836 -0.1646237 -0.02291732 0.052733123 0.06827179 -0.1252164 0.0910847 0.1807258
0.11543381 0.055669595 -0.07691216 0.027850932 0.18212171 -0.082750276 -0.08867687 -0.09725091
-0.0012119033 0.073130235 0.0716599 0.05434731 0.072406724 0.14718539 0.09418595 0.15652244
0.17290011 -0.079652764 0.16862129 -0.0021609429 0.048493367 -0.18607466 -0.17389776 -0.08734161
-0.09760868 0.1085522 0.088017255 -0.19230089 0.16212371 -0.015810087 -0.062298324 0.16145569
-0.14702235 0.05585678 0.1850076 0.14722754 0.017556475 -0.018060923 -0.10082118 0.12370052
-0.09395899 -0.0669104 0.024317637 0.059106722 -0.12078118 0.089893766 0.20115641 0.16105586
-0.10220893 -0.007388023 0.14305435 0.20195174 -0.018065326 0.11220978 -0.15427008 -0.17213134
-0.077058494 0.09127198 0.15010284 0.15099455 -0.025989475 -0.123676576 0.14756657 0.14648251
-0.022501126 -0.018178293 0.058792256 0.052615467 0.07515888 0.13956173 0.042823717 0.13911569
-0.056531046 0.053673197 -0.033552647 0.04665163 0.18302068 -0.116669066 0.012701155 -0.17126867
-0.16284744 0.20844398 -0.15780093 0.057515275 -0.057752706 0.12649824 -0.1348655 -0.037644144

conv2.bias f4 [128]
00000000: 0000 0000 0000 0000 0000 0000 0000 0000
00000010: 0000 0000 0000 0000 0000 0000 0000 0000
00000020: 0000 0000 0000 0000 0000 0000 0000 0000
00000030: 0000 0000 0000 0000 0000 0000 0000 0000
00000040: 0000 0000 0000 0000 0000 0000 0000 0000
00000050: 0000 0000 0000 0000 0000 0000 0000 0000
00000060: 0000 0000 0000 0000 0000 0000 0000 0000
00000070: 0000 0000 0000 0000 0000 0000 0000 0000
00000080: 0000 0000 0000 0000 0000 0000 0000 0000
00000090: 0000 0000 0000 0000 0000 0000 0000 0000
000000a0: 0000 0000 0000 0000 0000 0000 0000 0000
000000b0: 0000 0000 0000 0000 0000 0000 0000 0000
000000c0: 0000 0000 0000 0000 0000 0000 0000 0000
000000d0: 0000 0000 0000 0000 0000 0000 0000 0000
000000e0: 0000 0000 0000 0000 0000 0000 0000 0000
000000f0: 0000 0000 0000 0000 0000 0000 0000 0000
00000100: 0000 0000 0000 0000 0000 0000 0000 0000
00000110: 0000 0000 0000 0000 0000 0000 0000 0000
00000120: 0000 0000 0000 0000 0000 0000 0000 0000
00000130: 0000 0000 0000 0000 0000 0000 0000 0000
00000140: 0000 0000 0000 0000 0000 0000 0000 0000
00000150: 0000 0000 0000 0000 0000 0000 0000 0000
00000160: 0000 0000 0000 0000 0000 0000 0000 0000
00000170: 0000 0000 0000 0000 0000 0000 0000 0000
00000180: 0000 0000 0000 0000 0000 0000 0000 0000
00000190: 0000 0000 0000 0000 0000 0000 0000 0000
000001a0: 0000 0000 0000 0000 0000 0000 0000 0000
000001b0: 0000 0000 0000 0000 0000 0000 0000 0000
000001c0: 0000 0000 0000 0000 0000 0000 0000 0000
000001d0: 0000 0000 0000 0000 0000 0000 0000 0000
000001e0: 0000 0000 0000 0000 0000 0000 0000 0000
000001f0: 0000 0000 0000 0000 0000 0000 0000 0000
0.0 0.0 0.0 0.0 0.0 0.0 0.0 0.0
0.0 0.0 0.0 0.0 0.0 0.0 0.0 0.0
0.0 0.0 0.0 0.0 0.0 0.0 0.0 0.0
0.0 0.0 0.0 0.0 0.0 0.0 0.0 0.0
0.0 0.0 0.0 0.0 0.0 0.0 0.0 0.0
0.0 0.0 0.0 0.0 0.0 0.0 0.0 0.0
0.0 0.0 0.0 0.0 0.0 0.0 0.0 0.0
0.0 0.0 0.0 0.0 0.0 0.0 0.0 0.0
0.0 0.0 0.0 0.0 0.0 0.0 0.0 0.0
0.0 0.0 0.0 0.0 0.0 0.0 0.0 0.0
0.0 0.0 0.0 0.0 0.0 0.0 0.0 0.0
0.0 0.0 0.0 0.0 0.0 0.0 0.0 0.0
0.0 0.0 0.0 0.0 0.0 0.0 0.0 0.0
0.0 0.0 0.0 0.0 0.0 0.0 0.0 0.0
0.0 0.0 0.0 0.0 0.0 0.0 0.0 0.0
0.0 0.0 0.0 0.0 0.0 0.0 0.0 0.0

conv2.lin.weight f4 [128, 128]
00000000: fc45 0abe 60d2 e93c fba8 52bd 1dfa 013e
00000010: 2186 db3d 60b5 a93a 027d eebd bc03 813d
00000020: 9218 abbd cf65 b3bd 4740 103e 871e b7bc
00000030: fa49 79bd 3c2f fd3d 311d 58bd 29dc 453c
00000040: c2a2 943d b285 9fbd 155b abbd 8c91 053e
00000050: dbcb cbbd 99d9 083e b131 0dbe 5ea4 cb3d
00000060: 747f f73d 6633 f2bc 7c5a 24bd 5cb7 db3d
00000070: b4f0 debd b541 913d 2214 5d3d db31 653b
00000080: db14 d73c efd8 c83d 668a 1abc 49c3 eb3d
00000090: 3589 003e 11f2 033e 5c93 0abe c4ce b9bd
000000a0: d47c 103e 86ec e73d 0ca1 793b cf17 febc
000000b0: 1071 78bd fc8b ad3d 89af 38bd 62f1 603d
000000c0: b146 dfbb 466c 0a3d fd6d 0c3e 7061 993d
000000d0: f696 0abe f9d7 d33d 115c 083e cc75 43bd
000000e0: 0c2d 10bd feaf 4bbd a4a8 f03d 3a24 72bd
000000f0: 9c6d fd3d 9bf1 093c 89d0 e5bc 1550 ba3c
00000100: fde7 b8bd 09af c93c d0cb 733d 4f96 c73d
00000110: 4754 f6bb 6229 413d 27e7 d93b 5841 fa3d
00000120: 3ca9 eebd 43ae 9bbd 58f4 3b3d fcfc 8ebd
00000130: 513d cbbd 88af acbd befa 363c c9f9 853d
00000140: 5cdd d23d 6d14 20bd 43e1 e8bd f757 47bd
00000150: 28b4 4ebd f9ce 13be 2107 c9bd a875 b1bc
00000160: d295 bebd ddbe 9fbd 07d2 09be 1f4f 93ba
00000170: 9a07 b53d fd44 c3bd 2b81 883d 253f 66bd
00000180: b491 d53d 8402 f23d 3351 f83c b89b e13d
00000190: 67e9 34bd d5f3 823c 9cae a23c fdae c7bd
000001a0: e917 56bd 142a 89bd 735e d8bd 10d8 15be
000001b0: 2da1 393d 80e4 0fbc a1a2 873d 4927 8fbd
000001c0: 9d3e 063e 5774 bc3d b4f3 d3bd a47c 183e
000001d0: ca74 f4bc e513 e13d 9790 1a3e 028c 67bd
000001e0: bbe5 b3bd b347 36bb 20f2 c13c 3c60 9dbd
000001f0: ebb7 64bc 3700 cdbd 554d 93bd 3384 353d
00000200: 1cd0 16be 65aa 483c 1a92 e1bd a554 e8bd
00000210: 1d77 a8bd 6f35 123e 63bc edbd 8610 a5bd
00000220: e929 463d 6528 53bd 836e 29bd fad7 143e
00000230: 4770 1abe d6a4 193e 393b d1bd c790 acbc
00000240: 7571 cfbd 2874 0e3d 2167 f43c 23d2 6ebd
00000250: ac8b 9d3d 53c0 c4bc bd3b 1fbd 5208 6cbb
00000260: acb1 0ebe f9c7 d3bd b73e ccbd f718 f33b
00000270: 0fb2 0abe df9a 70b9 c198 fe3c 74bb c23d
00000280: 6f5e cbbd 9d5e b13c ecf0 30bd ce87 f93d
00000290: dd8b 9a3d bac5 d0bc 1a0a 14be b8c6 353d
000002a0: 82f0 053e 3dae 5d3d 418f ee3c 4f85 fbbd
000002b0: f93b bcbd d524 0fbe c8c6 f13b 7537 8e3d
000002c0: 549c de3d e241 36bd 5e3c f8bd cbd0 773c
000002d0: 7439 6bbd bb45 88bd f595 e0bd e7e3 e43d
000002e0: ad45 103e 3f79 0d3e 511b c23d 5ffe 0d3d
000002f0: 23fc 193d 27b3 d33d 6a37 b03c 5418 0bbe
00000300: 9ebb f6bd 6566 1b3d 45a2 75bd 0611 c2bd
00000310: 2642 17be fd21 dfbc fe2f 383d 9502 beba
00000320: 53c8 95bd 833e 14be 8356 343d c916 7fbb
00000330: 0fff d4bd 5d04 463d 4726 1e3d c187 573d
00000340: dc2d d83c 7b5a 013e 9d44 11bd ea5c 173e
00000350: 3318 c63d 3156 70bd 5892 3b3d e4ef 13be
00000360: 26b5 2f3d 996c a73c f804 053e c808 ee3d
00000370: b01a f7ba ed6e c6bd d0d5 f4bd 2156 0a3e
00000380: 093f 2d3d 9d52 1c3e cdc4 ee3c a70a 5e3d
00000390: 1ef2 90bd 6f42 153d 6ba4 d5bd 9ae5 ddbd
000003a0: 8722 a2bc 704e a1bd 647e fb38 1e58 033e
000003b0: ec62 fcbc bb00 12be 8619 eb3d 012d 383b
000003c0: cc82 57bd 90f5 813d cd99 01be 1b89 973c
000003d0: e0d8 903d 3347 fcbd ebeb 923c 48b4 b23c
000003e0: b19e 80bc 1602 f2bd 36f0 193e 2938 49bb
000003f0: 40ec 5abc c8a6 10be 0926 de3d ecb2 083d
-0.1350326 0.028542697 -0.051430684 0.12693067 0.107189424 0.0012947731 -0.11644937 0.062995404
-0.08354296 -0.08759653 0.1408702 -0.022353424 -0.060861565 0.12362525 -0.052762214 0.012076416
0.07257606 -0.07789172 -0.08366982 0.13043803 -0.09950992 0.13364257 -0.13788487 0.0994346
0.12084857 -0.029565524 -0.040125355 0.107283324 -0.10885754 0.07092611 0.05397428 0.0034972343
0.026255062 0.09807002 -0.009432411 0.11511857 0.1255234 0.1288531 -0.13532776 -0.090726405
0.14110118 0.1132441 0.0038090376 -0.031017212 -0.0606547 0.084739655 -0.04508928 0.0549177
-0.006813847 0.033794664 0.13713832 0.07489288 -0.1353415 0.10343928 0.1331637 -0.04771976
-0.03519921 -0.049728386 0.11750916 -0.05911658 0.12374422 0.00841942 -0.028053539 0.022743264
-0.09028623 0.024619596 0.059520543 0.09745466 -0.007517371 0.047158606 0.00664987 0.122194946
-0.11653373 -0.07601597 0.04588732 -0.06981847 -0.099238046 -0.084319174 0.01116818 0.06541783
0.10296127 -0.03908198 -0.1137109 -0.048667874 -0.05046478 -0.14434423 -0.09815813 -0.021662548
-0.0930592 -0.07800076 -0.13459025 -0.001123879 0.088393405 -0.09534643 0.06665262 -0.056212563
0.10428181 0.11816886 0.030312156 0.11016029 -0.044167902 0.015985409 0.01985865 -0.09750173
-0.052268896 -0.06697479 -0.1056489 -0.14633203 0.045319725 -0.008782506 0.06622816 -0.06989915
0.13109823 0.092018776 -0.10349217 0.14891297 -0.029840846 0.10990123 0.15094219 -0.056530006
-0.08784052 -0.0027813732 0.023675025 -0.07684371 -0.013959865 -0.100098066 -0.07192484 0.044315528
-0.14727825 0.0122476565 -0.11014195 -0.1134427 -0.08225844 0.14278196 -0.116081975 -0.08059792
0.048379812 -0.051552195 -0.041365158 0.14535514 -0.15081893 0.15004286 -0.10216374 -0.021065129
-0.10129062 0.034778744 0.029834332 -0.05830587 0.07692656 -0.024017489 -0.03887533 -0.0036015701
-0.13934964 -0.10340876 -0.099728994 0.0074187475 -0.13544486 -0.00022945878 0.031078698 0.0950841
-0.09930121 0.02165156 -0.04319851 0.12184106 0.07546208 -0.025484908 -0.14456978 0.044378966
0.13080028 0.054121245 0.029121043 -0.12281286 -0.091911264 -0.13978894 0.007378433 0.06944171
0.10869661 -0.044496424 -0.12120889 0.015125464 -0.05742784 -0.06653925 -0.10966102 0.111762814
0.14089079 0.13815783 0.094778664 0.034666415 0.037593972 0.10336905 0.021510798 -0.13583499
-0.12047504 0.037939448 -0.059969205 -0.09475903 -0.14771327 -0.027237887 0.044967644 -0.0014496619
-0.073135994 -0.14476971 0.044027817 -0.0038923493 -0.10400211 0.048344005 0.038610723 0.0526197
0.026389055 0.12632172 -0.035465825 0.14781538 0.096725844 -0.05867595 0.04579386 -0.1444698
0.042897366 0.020437526 0.12990177 0.11622769 -0.0018852558 -0.09689126 -0.11954844 0.13509418
0.042296443 0.1526589 0.029146576 0.054209378 -0.0707743 0.03644031 -0.10431751 -0.10834809
-0.019791855 -0.07876289 0.00011992155 0.12826583 -0.030808888 -0.14258091 0.114794776 0.0028102996
-0.052614972 0.063456655 -0.12656327 0.018497994 0.070726156 -0.12318268 0.01793476 0.02181448
-0.01570067 -0.11816804 0.1503304 -0.003070364 -0.01336199 -0.14126122 0.108470984 0.03337376

node_mlp.0.weight f4 [128, 256]
00000000: 04a6 8dbc 8009 793d c81a d3bc ee75 28bd
00000010: d0a6 663c e04f 7ebc c651 703d 6889 0c3d
00000020: 0059 c139 f01c 733d f49d b53c 3c63 18bd
00000030: d4f7 07bd c056 c13a 10ad 3fbd 4e2f 44bd
00000040: 7c7d 1bbd 66f1 3cbd c0f3 963b 5069 52bd
00000050: 8018 5bbd fc4f 573d 44c4 e8bc ae2e 47bd
00000060: c058 afbc 14f6 99bc 2a54 0fbd 808a 6c3b
00000070: d016 363d 084b 6ebd b02f 373d 1cea 3e3d
00000080: c035 933a e8a9 21bc eaed 36bd f0a9 aebc
00000090: eec5 653d 8295 24bd 4014 9c3c cca5 4bbd
000000a0: cccc e03c eaf9 2b3d 8873 6b3d 043a 113d
000000b0: d212 003d a6d1 573d 444e 0b3d b041 d0bc
000000c0: ccf8 fb3c 2c0a 3fbd 8431 863c 1461 1d3d
000000d0: b8df 6b3c 8cd5 cebc b0aa a0bc c0b6 dbba
000000e0: 42f9 363d 480e 4ebc 409d 853c 1ece 323d
000000f0: d81a 93bc 5419 333d 8eee 1f3d 0667 2abd
00000100: c0e4 5c3d b0f2 f03c 4014 a23b c4ea 46bd
00000110: bace 49bd 5c6d 24bd 4e6d 403d 0458 843c
00000120: dc33 07bd fa66 57bd 14b5 c23c ca96 2a3d
00000130: 8014 583c 001a 5ebd 3a07 443d b875 fabc
00000140: 3269 193d 285d 5a3c 9428 bdbc 10da ba3b
00000150: 1227 303d 90af 753c 3cd8 12bd 28cc aebc
00000160: d8ff 293c b8f1 e23c 72e6 03bd f8c8 4dbd
00000170: c41f e23c b096 3bbd 04bc 32bd a466 143d
00000180: b4aa d53c 3456 1bbd d814 4d3c 24f3 9ebc
00000190: 946c e6bc ae38 543d d0d6 c3bb 00bb 8eba
000001a0: 7ed6 64bd a0a5 55bb 94d4 213d 0811 303d
000001b0: 50c5 ed3c 30b2 a53b 1c34 6bbd a01e 33bc
000001c0: 10d8 e43b ac2e 603d aacd 703d 343a 00bd
000001d0: 48b1 9f3c 548e 0fbd e610 3dbd d0f1 3d3c
000001e0: 08e1 093c ac52 febc 8407 5d3d 3cec 403d
000001f0: c641 76bd 0694 4abd f89f 6a3d 80c9 6b3d
00000200: a6b6 0bbd 3c47 65bd d486 383d 8001 74ba
00000210: fc6c 233d a4fe 6d3d be97 1f3d e2da 3f3d
00000220: 9c76 2e3d ec05 71bd bc0d 1bbd 6825 043d
00000230: 1491 65bd 20fb e7bb 08f9 2abc 7052 95bc
00000240: e098 f83c 08b8 65bd cc46 f3bc 4cb7 39bd
00000250: aeca 6a3d 40f0 983b d87f 503c 44a3 ad3c
00000260: 8c71 2dbd 2291 4ebd 4068 4a3d 8064 eb3b
00000270: 38f0 f73c 1014 65bc 004a 243b 82fa 05bd
00000280: d451 213d c2be 0b3d 6e88 11bd 00f7 b53c
00000290: 8e5f 1dbd 18e0 1bbd 5460 b1bc 0c65 fb3c
000002a0: 786e 013c baa1 3cbd 6683 4ebd 04bf 833c
000002b0: 5602 703d 0495 253d 6ce6 fabc 70d1 573c
000002c0: ea2b 623d 208c 2ebc 9c05 523d 8cb6 62bd
000002d0: 12bf 18bd 70ad ca3c f4b6 0cbd 504e 7dbd
000002e0: 4073 ac3b 90d6 ce3c a609 46bd 1c18 0a3d
000002f0: d086 b0bb f06d 30bc 5025 7fbc d06a 9d3b
00000300: f02b 9f3b 0c7a a23c f0b5 f63c 5652 223d
00000310: 148e ccbc 8cea 6c3d 2813 7dbc b4cc f9bc
00000320: 1811 633d 5c55 67bd 186b 03bd 54f9 e63c
00000330: b443 1d3d 2237 48bd 40b3 e73b 3a4f 503d
00000340: 92eb 7cbd e086 523d c034 cc3a 5865 27bc
00000350: eaa5 1a3d 74c5 68bd ca6d 463d 30fd dcbb
00000360: 1ea7 3ebd 38f2 c1bc 5e44 523d f014 bbbb
00000370: 6a9e 603d 606c 6c3c 6014 07bd c2bb 24bd
00000380: da32 28bd c03f 963a 60cb f6bb 6c0d 433d
00000390: a8ef 4dbd 4c1b 333d 509d a03c a42a d2bc
000003a0: 6aec 5e3d 4c96 9abc b8b6 b43c e88d 54bd
000003b0: 004b a0b9 f019 4d3d 38ce 093c 2033 d6bb
000003c0: 00af a8ba 4085 a2bb 24d3 8fbc e8a5 1cbd
000003d0: ac78 d13c 5cc8 94bc 88dd 43bd 8c65 1f3d
000003e0: 00b2 21bd 8e1c 0d3d 78a5 6e3d 1e2c 163d
000003f0: 26d7 7ebd e0f8 df3c c880 c7bc 8019 b3ba
-0.017291076 0.060800076 -0.025769606 -0.04112809 0.014077857 -0.015521973 0.058671735 0.03431073
0.0003687814 0.05935377 0.022170044 -0.037204012 -0.03319533 0.0014750585 -0.046795905 -0.047896676
-0.037961468 -0.046128653 0.004606694 -0.051369965 -0.053490162 0.052566513 -0.0284139 -0.0486285
-0.021404624 -0.018794097 -0.034992374 0.0036093295 0.04445535 -0.058177024 0.044723213 0.046609983
0.0011231229 -0.009867169 -0.044660486 -0.021321267 0.056096964 -0.040181644 0.019052625 -0.049718663
0.027441405 0.041986383 0.057483226 0.03545572 0.03126795 0.05269017 0.034010187 -0.025421947
0.030758284 -0.04664056 0.016381033 0.03842266 0.0143966 -0.025248311 -0.01961264 -0.0016762838
0.044671305 -0.012576647 0.016310334 0.0436536 -0.017957136 0.043725327 0.039045863 -0.041602157
0.05392909 0.029412597 0.0049462616 -0.048563734 -0.049269415 -0.040143356 0.04697924 0.01615525
-0.03300844 -0.05258844 0.023767985 0.04164771 0.013188481 -0.054224014 0.047858454 -0.03057371
0.037453838 0.013327874 -0.023090638 0.0057022646 0.04300601 0.014995471 -0.03585075 -0.021337584
0.010375939 0.027703151 -0.03220219 -0.050240487 0.027603038 -0.045798004 -0.043636337 0.0362307
0.026082374 -0.037924007 0.012517177 -0.019403048 -0.028127946 0.051811866 -0.0059765354 -0.001088947
-0.05586862 -0.003259994 0.03950937 0.042984992 0.02902475 0.005056642 -0.057422742 -0.010932595
0.0069837645 0.05473201 0.058789887 -0.031305507 0.019493714 -0.035047844 -0.046158694 0.011593297
0.008415468 -0.03104528 0.053962246 0.04710029 -0.06012132 -0.049457572 0.057281464 0.057565212
-0.034109734 -0.055976138 0.045050457 -0.0009308085 0.039898857 0.058104172 0.038963072 0.046839602
0.042593583 -0.05884354 -0.037854895 0.032262236 -0.05604656 -0.007079497 -0.01043535 -0.018227786
0.030346334 -0.05608371 -0.029696845 -0.04534082 0.057322197 0.004667312 0.012725793 0.021196015
-0.042344615 -0.05043138 0.049415827 0.0071836114 0.030265912 -0.013981834 0.0025068521 -0.032709606
0.039384678 0.034117468 -0.0355305 0.022212505 -0.038421206 -0.03805551 -0.021652378 0.030687831
0.007899873 -0.046052672 -0.05041828 0.016082294 0.058595978 0.040425315 -0.030627452 0.013172492
0.05521766 -0.010653526 0.05127488 -0.05534987 -0.037291594 0.024740905 -0.034354165 -0.061842263
0.0052627623 0.025248796 -0.048349045 0.0337144 -0.0053871647 -0.010768399 -0.015572861 0.004803993
0.0048575327 0.019833587 0.030116051 0.039629303 -0.024970092 0.05784087 -0.015446462 -0.030493118
0.055436224 -0.05647789 -0.032084554 0.02819506 0.038394645 -0.048880704 0.007070929 0.050856806
-0.061748095 0.051398158 0.0015579686 -0.010217033 0.037755884 -0.05682893 0.048444547 -0.0067440495
-0.046546094 -0.02367507 0.05133473 -0.005709283 0.054838575 0.0144301355 -0.032978415 -0.040218122
-0.04106412 0.0011463091 -0.0075315684 0.047620222 -0.050277382 0.043727204 0.019606262 -0.025655098
0.05442468 -0.018870495 0.022059783 -0.051893145 -0.00030573457 0.050073564 0.008410983 -0.0065368563
-0.0012869537 -0.0049597323 -0.017556734 -0.038244158 0.025570236 -0.018161945 -0.04781869 0.038915202
-0.039476395 0.03445106 0.058263272 0.036663167 -0.0622169 0.027340353 -0.0243534 -0.0013664216

node_mlp.0.bias f4 [128]
00000000: 7080 4cbd a2ab 603d 9a00 5ebd 14a0 3bbd
00000010: 4847 783c 30ca 26bd 6870 bb3c ac7a 293d
00000020: 4a3e 223d c619 16bd 78b0 43bd e00b a6bb
00000030: 80ea 663c 1831 563d 5019 ad3c dccd 0d3d
00000040: a052 2ebb 6a3b 60bd 904c c3bb cc4e efbc
00000050: 80cc afbc d014 753c 2832 f9bc 84ef 97bc
00000060: 4cd2 a83c 409b a4bc c23b 283d e8e4 3f3c
00000070: cc52 1b3d 8ccb d13c bc8a fd3c f8d1 d9bc
00000080: ec32 07bd f0a1 913b a011 84bc b8fd 47bd
00000090: b84e 49bc 7025 743c bc57 9b3c 305f 50bd
000000a0: 1c9a debc 3a86 143d 00c9 09bd cc4e 4b3d
000000b0: 0c66 3f3d 00d5 c5b9 3041 583d 24f1 973c
000000c0: cc41 9c3c 604f 9ebc e877 aabc 5e51 70bd
000000d0: 08fa 4b3d 608f 19bb e05a ed3c f0be 96bc
000000e0: 1845 ad3c c02e 623d a696 343d f4c5 e3bc
000000f0: 9828 37bd 9c6f 6d3d e06d f53b 785c ccbc
00000100: 04eb ac3c a0f2 f13b 5cb6 dbbc 0078 d838
00000110: 94d0 c93c 5a2f 1fbd f8c3 223d ba68 2abd
00000120: e018 ce3b 18d0 123d 407f b0bb e0d5 5bbd
00000130: 7057 a4bc 48b3 fc3c 1071 ebbc f0a3 05bd
00000140: e8b2 453d 10f8 d53c b2ed 71bd e0d4 7c3c
00000150: c262 46bd c42d c5bc a8a3 70bd e49b 223d
00000160: 5805 083c 8471 4fbd ce03 573d 887f 173d
00000170: 6848 503d a003 773b 6ac8 353d a4a0 14bd
00000180: 4ac5 58bd ca7c 793d 0a22 12bd ac21 5c3d
00000190: 0ec6 243d 2c42 763d 5ca4 a33c d05e f43c
000001a0: 863f 17bd 90ec 863b cc29 29bd 5650 64bd
000001b0: ec42 d3bc a4b7 54bd 2a57 6dbd 96e7 443d
000001c0: bc2f c2bc 703e 8e3b e29c 453d 60f1 debb
000001d0: 5c4b 2ebd 7005 d8bb 2881 c2bc d4c6 173d
000001e0: 246c ef3c 32d1 4ebd 08b3 783d 8819 a93c
000001f0: 5868 20bc 7a02 52bd fc2d 2d3d daab 723d
-0.049927175 0.05485118 -0.054199792 -0.04580696 0.0151537135 -0.040720165 0.022880748 0.041376755
0.039610185 -0.036645673 -0.047775716 -0.0050673336 0.014093995 0.052292913 0.021130234 0.03462015
-0.0026599541 -0.05474416 -0.0059600547 -0.029212378 -0.021459818 0.014958575 -0.030419424 -0.018546827
0.02060809 -0.02009356 0.041072614 0.01171229 0.037920758 0.025609754 0.030949943 -0.026589379
-0.033007547 0.0044443533 -0.016121686 -0.04882595 -0.012286834 0.014901504 0.018962733 -0.050872028
-0.027173094 0.03626082 -0.033638954 0.049635693 0.04672818 -0.00037733465 0.052796543 0.018547602
0.019074343 -0.019324958 -0.020809129 -0.058671348 0.049798995 -0.0023431405 0.028973997 -0.018401593
0.02115111 0.055220366 0.044088982 -0.027804352 -0.044716448 0.057967767 0.0074899048 -0.024946436
0.021108158 0.0073836595 -0.026820354 0.00010322034 0.02463559 -0.038863517 0.03973767 -0.04160378
0.0062895864 0.035842985 -0.005386263 -0.053670764 -0.020061225 0.030847207 -0.028740436 -0.032627046
0.04826632 0.026119262 -0.059064575 0.015431613 -0.048434027 -0.024069674 -0.058749825 0.03969945
0.008302055 -0.050645366 0.052493863 0.036986858 0.050850302 0.003769137 0.044380583 -0.03628601
-0.052922525 0.060910024 -0.035676993 0.05374305 0.040227942 0.0601217 0.019975834 0.029830366
-0.036925815 0.004117556 -0.041299626 -0.055740677 -0.025788747 -0.051932946 -0.057944454 0.04807242
-0.023704402 0.004340939 0.04824532 -0.0068036765 -0.042552337 -0.006592445 -0.023743227 0.03705485
0.02922637 -0.050492473 0.060717613 0.020642057 -0.0097905025 -0.051271893 0.042280182 0.05924592

node_mlp.2.weight f4 [128, 128]
00000000: e882 7e3d b939 79bd f559 70bd 9ae6 ec3c
00000010: 6e66 373c de87 88bd 51af 833d 9f98 a3bd
00000020: 470e 023d d066 4bbc 26f1 833d a765 b4bd
00000030: af4b 283d 0bc3 ab3d 61ac a53d 79b9 c8bc
00000040: 072a 8cbd 4e41 05bd d420 b3bd 420b 4abd
00000050: af41 263c a77e 883c 6a87 a03d d043 6a3d
00000060: bd53 a6bd 9ca1 193d c0ae abbc ef18 973d
00000070: 23d8 b03d 03b4 973d 64e5 ab3d ad16 9b3c
00000080: 0dbf 3b3d 5651 ae3d 7e85 8e3c 0f26 7d3d
00000090: f7e8 983d b856 9abd 52d1 773d 90a7 a9bd
000000a0: 59a4 a63d 2859 943c b155 993d f209 7a3d
000000b0: 98c4 14bc 6c69 46bb dffc 2a3d 5fef 453d
000000c0: 1bd5 39bd bff5 8fbd a805 0dbd a83b 0cbd
000000d0: 45f9 083d 5b0d 163c c66f f33c f967 9d3d
000000e0: 6470 4f3d 5f42 87bd f382 503d e864 eebc
000000f0: 6222 24bd 9c80 e23b 6cdf 07bd 54e4 203d
00000100: 1772 d63b 07bc b0bc 5028 603d b350 a8bb
00000110: 7a4c ec3c 0cee 663d c443 87bd 53e0 90bd
00000120: 8363 89bc 9b94 933c 3f6d 98bc 9713 abbd
00000130: de1c 3e3d f746 1ebd a857 fd3b dea7 e0bc
00000140: db33 883c 8ad6 87bb e224 933c db67 c23c
00000150: 4e57 873d 5d0f a3bc 63a9 fe3c 314a a13d
00000160: 7f03 56bd 1ec7 933d ffaf 4bbc 5b2c e23c
00000170: ed38 d63c f6b8 093d c55f 00bd 5595 a03b
00000180: 03a0 3ebd 1a6b 1cbc e124 203d f63c 23bd
00000190: 0744 92bd 8f1e 7d3b c21f 473d 3df2 6abc
000001a0: 2a5b 2c3d b80d a83d 964f bfbc aa34 94bd
000001b0: 5127 923b 1167 81bd 1fad fabb 6760 6d3d
000001c0: 53e4 a9bc cd18 62bd eeaf afbd ba89 103d
000001d0: aea9 94bc 7874 b23c 2dad 8c3d 25f5 63bd
000001e0: 4353 95bd eaf8 26bd edac 5c3d 4880 033d
000001f0: b7f8 2cbd 96c9 f53c 4c97 073d d33b 93bd
00000200: 14f3 a6bc 09bf 82bd f999 9fbd 6d1b b4bc
00000210: 1ded f23c 36d1 aebd 638e ed3c 3a6f e53c
00000220: df77 89bd f8c1 9e3d 5e51 91bd 976f 133d
00000230: eb8a 1f3d dee4 943d c5e5 b13d 9f4c 1c3d
00000240: bbe8 83bd baac 583d fed8 723d baed a33a
00000250: ffee b03d c9ce 1e3d c02b dbbc 0d9f 933d
00000260: c6d4 903d f389 be3c f7e3 aabd 7351 1ebd
00000270: 5ba7 063d 58a8 eabb b478 70bd 03bf 9c3d
00000280: 4e78 b3bc 5486 31bc 9334 9bbd 1407 57bd
00000290: 4d23 153c d7a1 a4bd 520f 843d 57fa 2c3c
000002a0: d3b1 0dbc 5f73 61bd f1b8 92bd f486 23bd
000002b0: 4e03 95bc 445b a23d 99e3 963d e0ab 5a3d
000002c0: e270 4a3d 4ce3 96bd a86e 4dbd 11b3 9d3d
000002d0: b77e ddbc a440 91bd ec7d bfbc c26d 9bbc
000002e0: 1f65 b4bc a29a 203d e2e1 b4bd 43b6 75bd
000002f0: 8ea8 033c ce17 96bd 0c21 f63b 0448 973d
00000300: e48e a63b e3d1 573d 6e76 0f3d 4d5e e93c
00000310: 3e13 7dbb 0923 e5bc ddc6 52bd 42d4 343d
00000320: fa0d 4ebd fc58 8bbc 912b 0f3d 55c8 613d
00000330: 8d67 47bd fef7 9c3d d14d a63d 1ae3 90bd
00000340: 626f 78bd cc56 4c3d 6233 9bbd 9223 253c
00000350: 4665 8a3d 93bd 7abd d7de 043c 4637 683d
00000360: e5c1 883d 4752 85bd bbb2 1a3d fd78 4fbd
00000370: 31b2 3b3d 990f 64bc 6370 48bd 4a1f 5d3d
00000380: ac88 843d 0e89 eebc d5d8 edbc 71cb 62bd
00000390: 1f04 5dbc 7895 7cbd 990f 3c3d 515d 903d
000003a0: 1cf2 983d 0bab ccbc 80b7 103d 70de 923c
000003b0: 9f69 f9bc 8617 7cbd da03 a33c 34d5 333d
000003c0: 27e5 81bc 78f5 9dbd ff26 a9bc 9fab 9bbd
000003d0: 8f6c 383d cb50 163c 17e8 38bd df06 2f3d
000003e0: 8295 4a3d 4fc1 9a3d 36c7 943d ca05 b4bd
000003f0: 731f 933d ea12 74bd fd54 153d 50bc 65bd
0.06213656 -0.060846064 -0.05867954 0.028918553 0.011193855 -0.066665396 0.06429923 -0.079880945
0.031751897 -0.012414649 0.0644248 -0.08808451 0.041087802 0.08386811 0.08089519 -0.024502503
-0.068439536 -0.032532983 -0.08746496 -0.049327143 0.010147496 0.016661955 0.07838328 0.057193577
-0.081214406 0.03750764 -0.02095735 0.073778026 0.08634975 0.074073814 0.08393362 0.018931711
0.045836497 0.08511607 0.017397638 0.061803874 0.074663095 -0.075360715 0.060502358 -0.08283913
0.081368156 0.01810892 0.074870475 0.06104464 -0.009080075 -0.0030275239 0.041745063 0.048323985
-0.04536925 -0.07029294 -0.034429222 -0.03423658 0.033440847 0.009158458 0.029716384 0.07685847
0.050644293 -0.06604456 0.050906133 -0.02910085 -0.040071853 0.006912304 -0.033172056 0.03928025
0.0065443623 -0.021574033 0.054725945 -0.005136573 0.02884506 0.056379363 -0.06604722 -0.070740364
-0.016771084 0.018015197 -0.01860678 -0.08353346 0.04641425 -0.038641896 0.0077313967 -0.027423795
0.01662629 -0.004145448 0.017961923 0.023731163 0.06608449 -0.019904787 0.03108663 0.07875479
-0.052249428 0.07215713 -0.012432097 0.027609041 0.026150191 0.033623658 -0.031341333 0.0049006143
-0.046539318 -0.009547019 0.03909767 -0.03985306 -0.071418814 0.003862295 0.04861427 -0.014339981
0.04207913 0.08205742 -0.02335338 -0.072366074 0.0044602533 -0.063184865 -0.007650032 0.057953265
-0.020738756 -0.055199433 -0.08578478 0.035287596 -0.018147316 0.021784052 0.06868968 -0.05565371
-0.072912715 -0.040764727 0.053875852 0.03210476 -0.04222938 0.03000335 0.033103272 -0.07189145
-0.02037958 -0.06384093 -0.0779304 -0.021985734 0.02965408 -0.085359976 0.02899856 0.028007139
-0.06712317 0.0775184 -0.07095598 0.035995092 0.038950842 0.072702155 0.08686403 0.03815901
-0.06440874 0.0528991 0.05928897 0.0012506761 0.08639335 0.038771424 -0.02675426 0.07208071
0.07071833 0.023259139 -0.08344262 -0.038651895 0.032874446 -0.0071611814 -0.05870886 0.0765362
-0.021907952 -0.010835249 -0.07578387 -0.052496985 0.009102655 -0.08038681 0.064482346 0.010557733
-0.008648354 -0.055041667 -0.07164181 -0.039923623 -0.018190052 0.07927564 0.073676296 0.05338657
0.04942406 -0.07367572 -0.05015436 0.0770017 -0.027037961 -0.07092407 -0.023375474 -0.018973235
-0.022020875 0.03920997 -0.08832146 -0.05998827 0.008035792 -0.07328759 0.0075112637 0.07386783
0.005082952 0.052690398 0.035025053 0.028487349 -0.0038616206 -0.027970808 -0.051459182 0.044147737
-0.050306298 -0.017010204 0.034953658 0.055122692 -0.048682738 0.07664488 0.08120311 -0.07074566
-0.060653098 0.049887463 -0.0757816 0.010079281 0.067575976 -0.06121595 0.00810977 0.056693338
0.066776074 -0.06509834 0.037768107 -0.050652493 0.045824233 -0.013919734 -0.048935305 0.053984918
0.064713806 -0.029118087 -0.029034058 -0.055369798 -0.013489752 -0.061665982 0.045913313 0.07049049
0.07468054 -0.024983903 0.03533125 0.017928332 -0.030445872 -0.06154587 0.019899298 0.0439045
-0.015856339 -0.07712835 -0.020648478 -0.076010935 0.045025405 0.009174536 -0.045143213 0.042731162
0.049458988 0.07556402 0.07264559 -0.08790167 0.07183733 -0.05958835 0.036458004 -0.056087792

node_mlp.2.bias f4 [128]
00000000: ecfd 873d 4f5e ad3c 3404 b43c 751e 4d3d
00000010: 7bb4 263d 4975 123d 4e92 a5bd f641 74bd
00000020: b75f a43d 41f9 9e3d 65f4 8cbd a741 933c
00000030: f0d2 0bbc 69bc b3bb 255f 1fbd b606 cb3c
00000040: 7082 703d a704 fa3b 9513 8d3d 01d1 c03c
00000050: e979 823c df64 6abd acda df3b a9d0 5d3d
00000060: e950 4ebd 8064 13bc 7dce e53b 1a75 7f3d
00000070: 3f3d 7ebc 9415 5dbc ea44 b0bd 64ec 79bd
00000080: a6f5 8fbd 3ce8 793c cbc6 68bd db21 d6bc
00000090: 54d0 b13c f0c1 9b3d 69ad d83c 674d 9cba
000000a0: d33e b93b 2d00 983d cb7f 45bd 5250 44bd
000000b0: 2ef0 aabd 728d f43c 8fbd 033d e3cd 91bd
000000c0: 15be ad3d 3b68 f0bc d90c 37bd 4506 0c3d
000000d0: 10fd a73d de9c 6ebd b2cc 223c 4396 e7bc
000000e0: a71e ac39 0567 97bd e045 a1bd 4ac9 fb3b
000000f0: 0262 fbbc b48c 4a3d 996c a63a 5f23 6dbd
00000100: 7b79 d43a 3372 4e3d a4a7 e13c 7a8d 9f3d
00000110: f478 88bd f2df 9d3c 1efa a43d 372c a13d
00000120: 4afc 5e3d 8aca 31bd c912 583d 40ff 96bc
00000130: 292b 8a3c 28e8 b43c 76fd cd3b 89d9 023d
00000140: 1a0b 05bd 279a 1bbd fe41 b33c ae94 f2bb
00000150: b8e4 3f3d 1cf0 7cbc 666e 80bd 8e98 92bd
00000160: 8082 623d aed6 a4bd 2a11 9d3d 769a 43bd
00000170: 68a2 36bd c825 103a b296 a5bb a494 41bd
00000180: a2c8 76bd 9a5f 723c ffc8 15bd 0cd0 883d
00000190: 35f8 133d 70e7 71bd cb0b 103b 63c6 8c3d
000001a0: 980f 713c e95c 00bd 1293 343d e117 043c
000001b0: 1cbb b23b 08d3 063d 3359 1dbd ac1e df3c
000001c0: 9225 6f3d e8a3 e93c be0a a83c e9f7 d63c
000001d0: 9a31 5e3d 02bc 273d c631 783d 5ba2 85bb
000001e0: df1f 103d 7640 9f3c c224 093d 897a d1bc
000001f0: 5083 523d 0f42 c8bc 2730 173d 2648 c1ba
0.06640229 0.021163134 0.02197466 0.050077874 0.040699463 0.035756383 -0.08084546 -0.059633218
0.08026069 0.07762385 -0.06882552 0.017975641 -0.008534178 -0.0054851067 -0.038909096 0.024783473
0.058718145 0.007629949 0.068885006 0.02353716 0.015927272 -0.057225104 0.0068314876 0.054154072
-0.05037013 -0.008996129 0.0070131407 0.062367536 -0.015517532 -0.013493914 -0.08606894 -0.061016455
-0.070292756 0.015253123 -0.05683021 -0.02613919 0.021705784 0.0760535 0.026449876 -0.0011924923
0.005653241 0.074219085 -0.048217576 -0.047928162 -0.08346592 0.029852603 0.0321632 -0.07119348
0.08483521 -0.029346576 -0.044689987 0.034185667 0.08202565 -0.05825507 0.0099364985 -0.028269893
0.00032829234 -0.07392696 -0.07874656 0.0076839076 -0.030686382 0.04945059 0.001269716 -0.05789506
0.001621052 0.050401878 0.027545758 0.077906564 -0.06663695 0.019271825 0.080555186 0.078697614
0.05443982 -0.043406047 0.05275229 -0.01843226 0.016866283 0.022083357 0.0062863184 0.03194574
-0.03248129 -0.037988808 0.021882053 -0.007402978 0.046848983 -0.015438106 -0.06271057 -0.07158004
0.055300236 -0.080487594 0.076692894 -0.047754727 -0.044588476 0.0005498794 -0.0050533647 -0.047260895
-0.060249932 0.014793301 -0.036568638 0.06680307 0.03612538 -0.059058607 0.0021979685 0.06873777
0.0147131905 -0.031338606 0.04408557 0.008062334 0.005454434 0.0329161 -0.038415145 0.027236305
0.05838544 0.02852054 0.020512935 0.02624126 0.054246522 0.040950783 0.060594343 -0.004078192
0.035186645 0.019439917 0.03348232 -0.025571125 0.05139476 -0.024445562 0.036911156 -0.0014746233

src_proj.weight f4 [128, 128]
00000000: 78fd 90bc 16e0 24bd 2f38 8fbd 6458 9d3d
00000010: 58f9 8b3d e307 7f3d 5fbc a13c eeb7 9dbd
00000020: 775d f13b d093 5ebd 78a5 a13d 8c31 da3b
00000030: f157 323b 8e1c 87bd 14cb 273d bd34 45bd
00000040: 2c0c 1cbb 5afb 573d 796b 95bb a0e3 d6bc
00000050: f57f 9dbc fa35 62bd 31fa 2b3d c339 7a3d
00000060: 3110 9b3d 13b4 363d 6cfe 7dbd 78de 51bd
00000070: d40e a83c a927 0e3d 612c 9abd 30e4 50bd
00000080: 6fee 803d d0fa 9bbd dc62 adbb a992 43bd
00000090: c0b6 3ebd 1e4c 8f3d 3b18 c8bb 1f7a 173d
000000a0: fbff d93c cc5f c9bc 4837 293d e4e1 83bd
000000b0: 91ed acbd 2812 bfbc 3225 0abd f1bf 3ebd
000000c0: 5a7f a63d 2850 2d3d a9c1 353d 5006 9e3d
000000d0: d3dd 19bc cc97 8fbd 6eb5 04bc 923d 7dbd
000000e0: f3f6 7cbd 6c6d be3c 5256 33bc cac7 7fbd
000000f0: ef35 a43d 6211 8dbd 9e27 073c 085c 40bd
00000100: e896 c9bc 630c 97bd 3e13 b4bd 1a3c 09bd
00000110: 177d 8cbd 20ab 90bd e36d 1c3d a07b ed39
00000120: c788 9bbd f5c1 1e3d 8d9f b4bd 17c4 f4bb
00000130: 4b22 863d 47b3 023c eb6b d3bc 7517 3dbd
00000140: a5bb c23b c3a7 76bd 856e 61bd 9acd 853c
00000150: 2f1c adbd 011a 0e3d 45b3 fd3c 53bd 253d
00000160: 48d2 f33c c6cf 4f3d 7e3f 18bd 08ad 133d
00000170: 0e00 48bd 2e6b 33bd 772e 0a3d d55d 09bc
00000180: 1286 123d a7a5 283d ad71 123d 46f0 0b3d
00000190: ed7d 793d 29b8 b43d e89f 80bd 09df 9fbd
000001a0: 1305 3dbd 44bb 86bd 7f70 a5bd 7f9d 9bbd
000001b0: 0d65 a0bd 7ed7 35bc 64f2 d93c eec6 8bbd
000001c0: fd91 bfbc 7c4f a9bd 5027 4cbd 12b4 20bd
000001d0: 41d9 553d 2de7 64bb d662 213c a5e2 79bd
000001e0: 9d7d 3dbd 1ccd aebd 08bb 50bd 694b b1bd
000001f0: b2b2 babc 5558 4cbc 0cd1 ae3d 1c3b 24bc
00000200: 689c 983d 8041 9dbd 39e4 23bd ad41 b0bd
00000210: b55c 9cbd 3f8c 7dbd 939e 6d3d 7c3d 783d
00000220: ac6b cbbb 49c6 663d 07b4 52bd b6fd e5bc
00000230: cb0d 623b f9c7 a3bd 62ad a2bd bd7c 4a3d
00000240: d49c b8bc ca07 703d ef86 9abd b638 053d
00000250: 4e03 2a3b 574d a43c 459d c13b b42a 8d3c
00000260: 7187 d13c 4a11 53bd 7046 32bc b3b9 0e3d
00000270: 7c99 2d3d c0a3 a2bc c0b9 303b 4e39 9a3b
00000280: 111f dbbc ac84 24bd 39de ae3a 9cfa 933d
00000290: 4d29 e3bc 5ea0 b03d f0bb 74bd 6ba4 84bb
000002a0: 3703 c43b 4b29 f13c 1ef9 103c 7a82 603d
000002b0: fa0e a3bd da91 9e3b c4e6 b4bd ef12 05bd
000002c0: 2d00 2dbd 5869 debc a997 99bd a028 9a3d
000002d0: 767f 6f3b 2335 a0bd eb01 e0bc 1556 71bc
000002e0: 7ed5 993d d62b a73d 5881 ab3d 423b 1dbd
000002f0: e52f 6e3d b2db c93c 9ce5 0f3d 0ac6 9b3d
00000300: 54d4 573d 628a 113c 3384 8c3b 59df 0f3d
00000310: 8cb7 e63c b984 3e3d db14 94bc 8a5c 423c
00000320: 54f6 22bd ec38 dfbb ba81 293a 19e2 fc3a
00000330: 2ed5 abbd da99 ac3d cfe3 613d ac6d 60bd
00000340: ddd3 18bb 73f3 aa3d e47c 4abd 1fa0 a43d
00000350: b94c a83c 407b b13d b99d b13d b819 0dbd
00000360: 0ce5 0b3d 8297 b03d 15cb 443d 996e ce3b
00000370: 1cc1 173c afc6 aebd a091 5e3d 72dd 1abc
00000380: 066d 163d 9b6f 8f3d 931c 92bd c107 333d
00000390: 3f49 5cbd 60cd 36bd 7701 553d 1e1e 6ebd
000003a0: efe3 02bd ed02 d93c 00af 84bd 7103 303d
000003b0: 132b 73bd b9e8 3abc 5f60 143d bea8 72bd
000003c0: 0984 f33b 77e3 423d fd93 993d 9f28 60bd
000003d0: b172 e6bc b999 973d e295 8e3d 4d10 833d
000003e0: 9fe3 a6bd 9918 41bc 33c4 af3d 2e46 463d
000003f0: 0ce1 863d d0da 853c d99f 013d 7f37 8dbc
-0.017698988 -0.040252768 -0.06993138 0.07682875 0.06834668 0.06226338 0.019743143 -0.077010974
0.007365878 -0.054340184 0.07892889 0.0066587385 0.0027213062 -0.06597243 0.040965155 -0.048146
-0.0023810966 0.052729942 -0.004559931 -0.026231587 -0.019226054 -0.055227257 0.041986648 0.061090242
0.07571448 0.044605326 -0.062010214 -0.051237553 0.020514883 0.03470579 -0.07527996 -0.050998867
0.062954776 -0.07616198 -0.005291326 -0.047747288 -0.046561003 0.0699694 -0.006106404 0.036981698
0.026611319 -0.024581812 0.041312486 -0.064395696 -0.0844375 -0.023324087 -0.03372688 -0.04656977
0.08129759 0.04231277 0.04437414 0.07716048 -0.009391266 -0.07011375 -0.008099897 -0.061826296
-0.061758947 0.023245536 -0.010945873 -0.062446393 0.080180995 -0.06888081 0.008249192 -0.046962768
-0.02460809 -0.073754095 -0.08792733 -0.033504583 -0.068597965 -0.070638895 0.038190734 0.0004529627
-0.075944476 0.03875919 -0.088194944 -0.007469665 0.065495096 0.007977313 -0.025808295 -0.04616495
0.005942779 -0.060218584 -0.05503704 0.01633339 -0.08452641 0.034692768 0.030969271 0.040463757
0.029763356 0.050735258 -0.037169926 0.036053687 -0.048828177 -0.043803386 0.03373572 -0.008384188
0.03577239 0.041173603 0.03575294 0.03416469 0.060911108 0.08824188 -0.062805 -0.078062125
-0.046147417 -0.06578687 -0.080780976 -0.07598399 -0.07831774 -0.011098741 0.026604839 -0.06825052
-0.023385042 -0.082671136 -0.04984218 -0.03923423 0.052209143 -0.003492783 0.0098502245 -0.06100716
-0.046262372 -0.08535215 -0.050959617 -0.086569615 -0.022790287 -0.012472232 0.08535966 -0.010023858
0.07451707 -0.07678509 -0.040012572 -0.08606277 -0.0763487 -0.061901327 0.058012556 0.06060551
-0.006207904 0.056341443 -0.05144122 -0.02807508 0.0034493085 -0.07997126 -0.079432264 0.049435366
-0.022535719 0.05860118 -0.07545268 0.032524787 0.002594191 0.02005641 0.0059086406 0.017232276
0.025577279 -0.05153016 -0.010881051 0.034845065 0.042382702 -0.019853473 0.0026966184 0.0047065383
-0.026748212 -0.04016559 0.0013341374 0.07225534 -0.027729655 0.086243376 -0.059749544 -0.0040479205
0.0059818286 0.029438635 0.008848457 0.054811932 -0.07961841 0.004839164 -0.088330775 -0.03248876
-0.042236496 -0.027149841 -0.0749963 0.0752728 0.0036544478 -0.07822635 -0.027344665 -0.014729996
0.075114235 0.08162658 0.0837428 -0.03838659 0.058151145 0.024640892 0.035131082 0.07606132
0.052692726 0.008883091 0.0042882203 0.03512511 0.028163694 0.046513293 -0.01807635 0.011862883
-0.039785698 -0.0068122055 0.0006466169 0.0019293457 -0.0839027 0.08427782 0.055148896 -0.05479209
-0.002331964 0.083472155 -0.04943551 0.08038353 0.020544397 0.08666086 0.08672661 -0.034448355
0.034153983 0.08622648 0.048045237 0.0062998054 0.009262349 -0.0853399 0.054338098 -0.009452211
0.036725067 0.07003709 -0.07134356 0.043708567 -0.05378079 -0.044629455 0.05200335 -0.05813419
-0.031955656 0.026490653 -0.06478691 0.042972032 -0.05936725 -0.0114080245 0.03622472 -0.059242956
0.0074315113 0.04758021 0.0749893 -0.05472624 -0.028130861 0.07402367 0.06962182 0.063995935
-0.08148884 -0.01178565 0.08582344 0.048406772 0.06585893 0.01633969 0.031646583 -0.017238377

tgt_proj.weight f4 [128, 128]
00000000: dee6 933d c835 e83c 789e d9bb e814 5a3c
00000010: ab75 39bc 5ab1 28bd 3aec fb3c 58ca 8bbc
00000020: 442d 4ebd 6455 a43d 10e7 583d 2fe4 9c3d
00000030: a960 853c 9b44 b4bd d245 993c af9d 893d
00000040: 8403 9bbd e7a4 563d 9b9c 9cbd 7add 143d
00000050: 6f64 2cbd 6290 973d 5f27 513d 65b2 2e3d
00000060: fa32 a0bc 9643 84bc 139a 633d a5c6 153c
00000070: d9f9 ab3d f031 1cbd 43a9 8cbd f5f2 f43c
00000080: c5c2 1d3d fa5a a63d bc38 933d 02da a0bd
00000090: 6654 9c3d 33a2 8dbd e32b aa3d c68a fc39
000000a0: 3d14 923d 1ec1 59bb 21f5 4dbd c99c c0bc
000000b0: eb98 efba 4b41 60bd fa1a 10bd fa94 adbd
000000c0: f2dc 2f3d 012a 5b3c 8a80 c6bc 2f5b 26bc
000000d0: b640 8a3d b47d b13d d593 843d 02e2 f03c
000000e0: db61 8b3d cbd3 8c3c f6c5 2cbd 00f3 033d
000000f0: f46d 4abd ca42 a63d 428b 94bd 87d4 09bd
00000100: c7d3 70bd 985e 903c 9540 083d e888 7c3d
00000110: b77a ac3d db19 3fbd ae19 bd3b 24f8 7e3d
00000120: 29a1 663c 2f0e 2dbd 04d3 a6bd 68f0 76bb
00000130: eaca cf3c fab8 6dbd 4d43 a1bd 2df6 9dbd
00000140: cefd ac3d 2228 32bd f160 f4bc 82f0 863d
00000150: aa31 d0bc 16cd 82bc 1ed2 2d3d 170a 983d
00000160: 6149 a03d 2070 323d 7eb4 8c3d 11fb 6c3c
00000170: b19a fabc 3e26 8c3d 4b5c cb3b a2cc c3bc
00000180: f2df 95bd 1efd 7dbd 57b8 8a3c c1c9 83bd
00000190: b241 52bd ba80 4ebd 0307 d1ba 15e9 9bbb
000001a0: 0707 743c 67d2 af3d a84d 363d 8a49 b5bb
000001b0: bfd9 f43c 7c04 6abd 6ce4 1f3d 220b 42bd
000001c0: 35fa 11bd e1d0 3c3d 81b1 2b3d a570 473d
000001d0: 16af 723d 66c0 763d 8ad5 323d f06c 42bd
000001e0: ab4e 2c3d 885a 39bc 1b75 52bd 16c0 833c
000001f0: 4957 af3d 4a8b 4ebd 8e3b aa3d 8c68 81bd
00000200: 91de 413d 8908 73bd 10b4 083d fe59 58bd
00000210: 5cbc da3c 73dd 97bd d383 983d 0f86 2dbd
00000220: 6354 533b 539a 873d dec5 acbd 2c7d f13c
00000230: 846f 083d 3f83 953d a0bb af3d 9bf9 423b
00000240: a347 a9bc e515 51bd cd2c 2f3c 3917 b93a
00000250: ede4 133d 6778 dc3c 8b13 01bd f689 bc3b
00000260: d7f1 01bc a20f d9ba 7583 853d 58e5 46bc
00000270: 635b 9b3d 13c5 50bb f255 f6bc f739 2ebd
00000280: bb19 9a3d 0fae 503d cb3c 89bd ce04 abbd
00000290: 8f5e 75bd c65b c1bc b661 53bd 14d1 49bd
000002a0: c3b6 81bd c205 aa3c 9e1c 413c 6d90 a0bc
000002b0: b9e6 e6bc 5caf 1cbd d766 203d bd46 c5bc
000002c0: 673c a6bc 42c2 54bd 8ac2 a9bd 6478 473d
000002d0: 83d9 90bd 5dcd ae3c fee5 01bb 9dc1 f43c
000002e0: 7fe4 7abc fafb debc 40cc 053a 3205 d23c
000002f0: 325c de3c 5ea9 843d ee53 23bb 2c37 53bd
00000300: 6e53 973d 6140 8e3d f692 b2bc f798 853d
00000310: f8eb 4b3d 3d91 4b3d 688b 2d3d 9fd7 a93d
00000320: 2112 81bd 467d 06bd 691e 063c ae11 e3bc
00000330: 613b 023b 24f1 923d b672 08bd 3336 b2bd
00000340: 1d46 df3c 5e02 b23d cef4 3b3d c1d9 073d
00000350: ff16 60bd cd5f a23c f2d5 93bc 4e05 823c
00000360: 30ec 45bd 4d33 7e3c d5cb b1bd c6f2 9fbd
00000370: 161f e4bc 3337 203c b624 f7bc 214c 1f3c
00000380: 9c50 70bd f2c3 573d 7bfc 6c3c c5b4 6f3d
00000390: 9ff3 11bd 8891 8cbd 6081 883d 26db 003d
000003a0: ceb8 7b3d fd3c 35bb 2942 af3d 531d 22bd
000003b0: 8513 9d3d 8485 afbd b65a 563d ab75 8bbd
000003c0: 6fbf 8b3d 01ae 1ebd eb7d 94bd 0e59 99bd
000003d0: a4cf 66bd a229 f4bc ef40 843c c1ae aebd
000003e0: cba3 b7bc 0bf9 a8bd f565 5f3c 897c 1abd
000003f0: f498 98bd 8f1f 8a3c 2c88 f2bc 5d76 893c
0.07221769 0.028345957 -0.0066412054 0.0133106485 -0.011319558 -0.04118476 0.03075229 -0.017064258
-0.050336137 0.080240995 0.052954733 0.0766071 0.016281443 -0.08802148 0.01871005 0.06719529
-0.0756903 0.052403357 -0.076470576 0.03634403 -0.04208797 0.07400586 0.051062938 0.0426506
-0.019555558 -0.016145509 0.05556686 0.009141599 0.08397264 -0.03813356 -0.068682216 0.029901007
0.038515825 0.08122821 0.071885556 -0.07854082 0.07633285 -0.06915703 0.08309152 0.0004816858
0.071327664 -0.003322668 -0.0502826 -0.023512261 -0.0018279826 -0.05474977 -0.035181977 -0.08475681
0.04293532 0.013376714 -0.024231214 -0.010153576 0.06750624 0.08666554 0.06473509 0.029404644
0.06805774 0.017190835 -0.042180978 0.032214165 -0.049421266 0.08118208 -0.07253124 -0.033649947
-0.058795717 0.01762323 0.033264715 0.061654 0.084218435 -0.046655517 0.0057708835 0.062248364
0.0140765095 -0.042249855 -0.08145717 -0.0037679914 0.025365312 -0.058037736 -0.07874165 -0.0771297
0.08446847 -0.043495305 -0.029831382 0.06588842 -0.025414307 -0.015966933 0.04243671 0.074237995
0.07826496 0.043563962 0.06870364 0.014464156 -0.03059134 0.068432316 0.0062060705 -0.023901287
-0.07318105 -0.06200897 0.016933603 -0.06434966 -0.051332183 -0.050415732 -0.0015947524 -0.00475801
0.014894254 0.08585053 0.044507653 -0.005532448 0.029888986 -0.057133183 0.0390362 -0.0473739
-0.035639007 0.04609764 0.041917328 0.04869141 0.059249006 0.06024208 0.043660678 -0.047467172
0.04206721 -0.011313088 -0.05138121 0.016082805 0.0856157 -0.050425805 0.083121404 -0.06318769
0.047331396 -0.05933431 0.033374846 -0.0528202 0.026701145 -0.07415285 0.074470185 -0.042364176
0.0032246343 0.06621232 -0.08436178 0.029478632 0.033309475 0.07300424 0.085807085 0.0029750827
-0.020664042 -0.05104627 0.010691834 0.0014121301 0.036106993 0.026912881 -0.03151278 0.005753751
-0.007931194 -0.0016560445 0.06519214 -0.012139641 0.0758579 -0.0031855747 -0.030070279 -0.04253575
0.07524439 0.050947245 -0.067010485 -0.08350526 -0.05990463 -0.023603331 -0.051606856 -0.049271658
-0.06333687 0.020754699 0.011786608 -0.019600118 -0.028186189 -0.038253173 0.039160576 -0.024081582
-0.020292474 -0.05194307 -0.082890585 0.048698798 -0.07072737 0.02133816 -0.0019820924 0.029877478
-0.015313267 -0.027219761 0.0005103983 0.025637243 0.027143572 0.06477617 -0.0024921852 -0.051566288
0.0738896 0.06945873 -0.021798592 0.06523316 0.049785584 0.049699057 0.042369276 0.082930796
-0.06302286 -0.032834314 0.008185961 -0.027718391 0.0019871818 0.071749 -0.033312522 -0.08701744
0.027255112 0.08691858 0.04588776 0.03316665 -0.05470943 0.019821072 -0.018046353 0.01587167
-0.04832095 0.015515161 -0.08681456 -0.07809977 -0.027846854 0.0097787855 -0.030168872 0.00972274
-0.058670625 0.052677102 0.014464493 0.058522005 -0.035632726 -0.068636954 0.06665301 0.031458996
0.06145554 -0.002765476 0.08557541 -0.039578747 0.07669739 -0.08570388 0.052332602 -0.06809553
0.068236224 -0.03874016 -0.072505794 -0.07487689 -0.056350365 -0.029805008 0.016144244 -0.085294254
-0.02241697 -0.08250626 0.013635148 -0.037716422 -0.074510485 0.016860751 -0.029605947 0.016780073
